model_weights.pth (torch, 533218 bytes, 99 tensors)

inc.double_conv.0.weight f4 [4, 1, 3, 3]
0.20370606 0.22685616 0.2614251 -0.19935398 0.14847697 -0.063405216 -0.04395362 -0.08960056
0.29622558 -0.19725955 0.10540459 -0.30285767 -0.15324982 0.27857852 -0.32550368 -0.09986197
-0.30077535 0.27458978 0.30554694 -0.0616907 0.07323922 0.14987844 -0.016955473 -0.240393
0.020249296 0.13547862 0.1415825 0.1908965 -0.1390172 0.12455665 0.30259636 0.012780242
0.20241645 -0.19720389 -0.15910533 0.17322616
00000000: 5298 503e fb4c 683e 83d9 853e 7323 4cbe
00000010: 590a 183e 98da 81bd b608 34bd 8080 b7bd
00000020: e1aa 973e 68fe 49be 5dde d73d 2910 9bbe
00000030: 85ed 1cbe d8a1 8e3e 6ba8 a6be 6f84 ccbd
00000040: 3aff 99be 0897 8c3e a670 9c3e 63af 7cbd
00000050: 72fe 953d bc79 193e 34e6 8abc 9529 76be
00000060: dae1 a53c e8ba 0a3e 01fb 103e 5f7a 433e
00000070: 865a 0ebe 8f17 ff3d e9ed 9a3e 3864 513c
00000080: 4246 4f3e d1ef 49be 82ec 22be 3362 313e

inc.double_conv.1.weight f4 [4]
0.9749148 1.0410414 0.9456762 1.0292547
00000000: 0494 793f d840 853f d617 723f 9ebe 833f

inc.double_conv.1.bias f4 [4]
0.0008865484 -0.0001884866 0.023101477 0.0004407821
00000000: 4267 683a 7da4 45b9 4f3f bd3c c618 e739

inc.double_conv.1.running_mean f4 [4]
2.8159802e-06 -2.7550434e-06 1.9335296e-06 1.9183683e-06
00000000: 2cfa 3c36 49e3 38b6 c9c1 0136 51bd 0036

inc.double_conv.1.running_var f4 [4]
4.948579e-09 7.423113e-09 3.2925636e-09 4.4689545e-09
00000000: 2908 aa31 640e ff31 6443 6231 578d 9931

inc.double_conv.3.weight f4 [4, 4, 3, 3]
0.11096139 0.09405119 0.015722878 0.16606034 -0.08852022 0.15478355 -0.011967691 0.119901866
-0.12042754 0.068065055 0.0049972935 0.16563542 0.114417456 0.23514648 0.010337597 -0.060794797
0.04661233 0.039769102 -0.054417063 -0.049615305 -0.08224693 0.08960475 0.17039406 -0.10274605
0.023410805 0.08259298 0.1354089 0.062385056 -0.15953945 0.13485362 0.02359271 0.16132863
0.1402277 0.17781909 -0.09801967 0.1409306 -0.13666998 0.070334114 -0.15043162 -0.017886752
0.08125205 0.035217524 -0.066518225 -0.14623758 0.058337558 0.060098078 -0.09925904 0.011531555
-0.007827232 -0.003340852 -0.013426518 -0.03733811 0.07850384 -0.1579116 0.14912769 -0.11590957
0.0155201135 -0.07681904 0.13227698 -0.106239 -0.07080733 0.108625054 0.13244477 -0.067433126
0.1438889 -0.0743897 -0.15745926 0.0948336 -0.04995127 0.009110435 -0.15062644 -0.043080524
0.124388166 0.06922555 0.12731995 0.13505636 0.12586361 0.15738109 -0.046656754 -0.012662933
0.035051174 -0.059600912 0.06628131 -0.12649705 0.16753767 0.1255375 -0.18506914 0.03865807
0.06631992 -0.06125254 0.066825256 -0.05024299 -0.012479259 -0.009500707 -0.08132733 0.14993726
0.0028593277 -0.021561138 0.07594276 0.17907263 0.10530683 0.06285904 -0.086957164 0.12353519
0.15271823 0.0063930918 0.090004414 0.100084744 -0.030281993 0.1329292 0.09958637 0.09334218
0.09863433 -0.15137401 0.08123801 0.14807399 0.082885966 0.18259479 -0.02177201 0.07856302
0.07982126 0.064468876 -0.12934974 -0.01673702 -0.06331391 0.023244435 -0.05359331 -0.19987008
0.11290744 0.11982692 -0.027171606 -0.018022778 0.1495614 -0.18200886 0.1581943 0.18161838
0.016625902 -0.073740795 0.046659768 -0.12976608 0.11732705 0.0418253 0.1422745 -0.14372164
00000000: ba3f e33d e99d c03d 44cd 803c b90b 2a3e
00000010: 174a b5bd 947f 1e3e 2214 44bc 1c8f f53d
00000020: b7a2 f6bd b165 8b3d 56c0 a33b 559c 293e
00000030: b353 ea3d 3dca 703e 065f 293c f703 79bd
00000040: 92ec 3e3d ede4 223d 6de4 5ebd 6b39 4bbd
00000050: 1471 a8bd b282 b73d c87b 2e3e 856c d2bd
00000060: 04c8 bf3c 8226 a93d a1a8 0a3e 7987 7f3d
00000070: 4f5e 23be 1117 0a3e 8045 c13c 5533 253e
00000080: da97 0f3e 3516 363e 89be c8bd 1c50 103e
00000090: 37f3 0bbe 550b 903d bf0a 1abe 3d87 92bc
000000a0: 7a67 a63d 4040 103d b53a 88bd 4ebf 15be
000000b0: 5df3 6e3d 6729 763d 5348 cbbd d9ee 3c3c
000000c0: ca3d 00bc 32f2 5abb e6fa 5bbc d9ef 18bd
000000d0: 9fc6 a03d 94b3 21be eeb4 183e ff61 edbd
000000e0: 1348 7e3c 4d53 9dbd 9e73 073e d593 d9bd
000000f0: 6f03 91bd d076 de3d 9a9f 073e 611a 8abd
00000100: 9d57 133e a159 98bd 003d 21be 1e38 c23d
00000110: b499 4cbd ef43 153c d13d 1abe 3475 30bd
00000120: 39bf fe3d 20c6 8d3d 2960 023e 374c 0a3e
00000130: 64e2 003e 8228 213e 271b 3fbd 3178 4fbc
00000140: d291 0f3d 1620 74bd 7fbe 873d 7188 01be
00000150: ff8e 2b3e e78c 003e c482 3dbe ed57 1e3d
00000160: bdd2 873d f2e3 7abd aedb 883d 98cb 4dbd
00000170: ce75 4cbc daa8 1bbc f18e a6bd 2789 193e
00000180: 8f63 3b3b fca0 b0bc e187 9b3d d15e 373e
00000190: 1bab d73d 3ebc 803d 9916 b2bd 0500 fd3d
000001a0: 2b62 1c3e 247d d13b 3c54 b83d 3bf9 cc3d
000001b0: f111 f8bc 981e 083e f0f3 cb3d 2f2a bf3d
000001c0: cc00 ca3d ca01 1bbe 1d60 a63d b5a0 173e
000001d0: 1ec0 a93d 21fa 3a3e 375b b2bc a6e5 a03d
000001e0: 5479 a33d 4208 843d 4274 04be 131c 89bc
000001f0: b9aa 81bd 1d6b be3c a984 5bbd beaa 4cbe
00000200: 043c e73d d167 f53d fd96 debc 81a4 93bc
00000210: a026 193e 8860 3abe b0fd 213e 2bfa 393e
00000220: 0b33 883c 6a05 97bd 501e 3f3d 66e1 04be
00000230: 2a49 f03d 0151 2b3d 68b0 113e c42b 13be

inc.double_conv.4.weight f4 [4]
0.9784311 0.98087543 0.9112431 0.9455312
00000000: 767a 7a3f a71a 7b3f 3a47 693f 550e 723f

inc.double_conv.4.bias f4 [4]
-0.06657671 0.08068893 -0.02386559 0.06397529
00000000: 5f59 88bd 3d40 a53d c581 c3bc 7a05 833d

inc.double_conv.4.running_mean f4 [4]
0.007035388 0.0030088227 0.0045580054 0.0024247426
00000000: 1d89 e63b ab2f 453b 525b 953b 6ee8 1e3b

inc.double_conv.4.running_var f4 [4]
0.00034129582 8.598461e-05 0.0003716307 0.00019707474
00000000: f3ef b239 a352 b438 6ed7 c239 d9a5 4e39

down1.maxpool_conv.1.double_conv.0.weight f4 [8, 4, 3, 3]
0.08284707 -0.08876722 0.1081618 0.093937345 -0.11590132 0.12946856 -0.010625826 0.008407306
0.09222133 -0.09778668 -0.106007464 -0.0762851 -0.06733304 -0.09304158 0.07177221 -0.0036620747
0.09193046 0.081410736 -0.15182747 -0.058196615 -0.16029543 -0.059358224 0.009112639 -0.06758509
0.082067184 0.13037254 0.029497284 -0.082939945 0.14201452 -0.11325676 0.06340541 0.08381543
-0.014751156 0.12571129 -0.02804253 0.051236965 0.030517073 0.010117004 -0.06381659 0.13216458
0.047568303 -0.024216518 -0.040519986 0.15532579 0.10177164 0.055243958 -0.10087872 0.089160904
-0.016783549 -0.007595028 0.16241553 -0.026302781 -0.04530997 0.110436924 0.0431847 0.07013282
0.10887525 0.02050345 0.08909725 0.15252437 -0.064841606 0.02140528 -0.026891703 -0.12634353
0.029901773 -0.017284235 -0.040205885 0.06253893 0.11086515 0.14907694 -0.04944391 0.018712316
0.07139574 -0.068193756 -0.1325328 -0.06956762 -0.04107922 0.118508 -0.13256983 -0.10272402
-0.09343421 -0.009887969 -0.0408522 0.07693769 -0.0058260504 -0.0033034403 0.17678635 -0.10923181
0.15579273 -0.017392216 -0.008891709 0.06423767 -0.019526837 0.12323767 -0.12807749 0.082409665
0.030475553 0.13908859 -0.110639326 -0.049496204 0.101480246 -0.08547294 0.076895006 0.17541587
-0.1104474 -0.068258926 0.13285662 0.10234926 0.1531533 -0.003225727 0.06255935 0.15986304
0.1484804 0.08760026 0.05943722 0.14966334 -0.096341856 -0.11152031 -0.11911674 -0.104184136
-0.047453016 0.005447288 0.16826987 0.12878403 0.003793018 -0.0017866642 -0.08848532 0.030593807
-0.07803088 0.10831213 0.119028814 -0.03196366 -0.116420515 0.032621957 -0.14475547 -0.049903356
0.04445429 0.15714528 0.15165725 0.009432463 0.089641094 -0.10802425 0.17331639 -0.12006734
0.08188399 -0.15771143 0.061408482 0.101794764 0.07154289 -0.04166472 0.14254594 0.10775466
0.07022503 -0.18054998 -0.05551112 -0.01889874 -0.033364534 -0.093547374 0.11087603 -0.1660361
-0.10365187 0.091803715 0.100660875 0.06365519 -0.0013541363 0.14037108 -0.020916084 -0.11728911
-0.1633738 -0.08888803 -0.14578797 -0.15742065 -0.041369516 0.08738561 -0.17183174 -0.120675944
-0.12340701 -0.023963206 0.040585015 0.0030708371 -0.08302667 -0.020034412 -0.060375214 -0.07822598
0.054220263 0.16292036 0.11727783 -0.113543354 0.09045364 0.016122758 0.0969825 0.03754354
0.14637475 -0.04720385 -0.09107125 0.15011875 0.17123476 0.15262628 -0.0041504926 0.10387186
0.083197564 -0.1075955 0.16915703 0.07037083 0.1722597 0.0048218733 0.03029297 -0.01945553
0.1551525 0.13909763 0.09541129 -0.07756528 0.16662541 -0.013295919 -0.13155693 0.005519849
0.103126675 -0.0002014691 0.07058396 -0.112281114 0.03785983 -0.12837407 0.029789118 -0.14202161
0.035781246 -0.18113 -0.12178408 -0.087404124 -0.09489822 -0.14305665 0.1774614 0.040462986
-0.0079154745 0.07210726 0.11562724 -0.12912172 0.112122476 -0.023054028 -0.15538847 0.113083206
0.0062748264 -0.07403924 -0.08995523 -0.042761642 0.045277856 0.106678106 0.0073029613 0.13715477
0.16284661 -0.124274455 -0.14907137 0.13935341 -0.099689044 -0.0812288 0.033502933 -0.088557325
00000000: baab a93d 97cb b5bd ef83 dd3d 3962 c03d
00000010: ac5d edbd 6893 043e f217 2ebc ccbe 093c
00000020: 89de bc3d 6244 c8bd 711a d9bd 5d3b 9cbd
00000030: e8e5 89bd 958c bebd 4ffd 923d 6bff 6fbb
00000040: 0946 bc3d acba a63d a978 1bbe 935f 6ebd
00000050: 7c24 24be 9c21 73bd 2e4d 153c 0d6a 8abd
00000060: d712 a83d 6180 053e 4aa4 f13c 6bdc a9bd
00000070: 416c 113e 29f3 e7bd b2da 813d 6da7 ab3d
00000080: d5ae 71bc 76ba 003e 73b9 e5bc dadd 513d
00000090: f1fe f93c cac1 253c 46b2 82bd 2756 073e
000000a0: fbd6 423d b861 c6bc 49f8 25bd b90d 1f3e
000000b0: a66d d03d 7d47 623d 8199 cebd fe99 b63d
000000c0: a77d 89bc b6df f8bb 4250 263e ee78 d7bc
000000d0: f296 39bd c12c e23d 71e2 303d cca1 8f3d
000000e0: fdf9 de3d daf6 a73c 9e78 b63d 592f 1c3e
000000f0: adcb 84bd 205a af3c fd4b dcbc 3360 01be
00000100: 90f4 f43c ab97 8dbc edae 24bd 6914 803d
00000110: 450d e33d a0a7 183e b385 4abd 924a 993c
00000120: ee37 923d 2ba9 8bbd aeb6 07be 7879 8ebd
00000130: af42 28bd 53b4 f23d 63c0 07be f960 d2bd
00000140: 6f5a bfbd 2601 22bc a354 27bd 8291 9d3d
00000150: 74e8 bebb 887e 58bb 7b07 353e edb4 dfbd
00000160: 2188 1f3e 1f7a 8ebc 88ae 11bc 0a8f 833d
00000170: bff6 9fbc 0864 fc3d bf26 03be 66c6 a83d
00000180: dea7 f93c 3d6d 0e3e df96 e2bd 88bc 4abd
00000190: e0d4 cf3d 700c afbd 217b 9d3d 38a0 333e
000001a0: 3f32 e2bd 56cb 8bbd 910b 083e 7d9c d13d
000001b0: 38d4 1c3e b866 53bb 1e1f 803d 23b3 233e
000001c0: 3f0b 183e c467 b33d 7174 733d 5941 193e
000001d0: e14e c5bd c364 e4bd 7af3 f3bd 7e5e d5bd
000001e0: 185e 42bd 2a7f b23b f04e 2c3e f6df 033e
000001f0: 4894 783b 812e eaba cb37 b5bd dd9f fa3c
00000200: a7ce 9fbd c0d2 dd3d 61c5 f33d 54ec 02bd
00000210: e16d eebd 9a9e 053d c73a 14be 7667 4cbd
00000220: b415 363d b1ea 203e 0a4c 1b3e 9e8a 1a3c
00000230: c095 b73d d13b ddbd da79 313e dee5 f5bd
00000240: cbb2 a73d 1b7f 21be 7687 7b3d c679 d03d
00000250: 1485 923d a0a8 2abd 90f7 113e 7aae dc3d
00000260: 24d2 8f3d 18e2 38be a15f 63bd 88d1 9abc
00000270: 40a9 08bd c495 bfbd f912 e33d 5e05 2abe
00000280: 6e47 d4bd 9603 bc3d 4a27 ce3d a75d 823d
00000290: 467d b1ba 70bd 0f3e 3558 abbc 4635 f0bd
000002a0: 764b 27be ed0a b6bd 7149 15be e132 21be
000002b0: 1573 29bd 3af7 b23d a9f4 2fbe f324 f7bd
000002c0: d1bc fcbd 7c4e c4bc 793c 263d 1940 493b
000002d0: e309 aabd 351f a4bc 004c 77bd f134 a0bd
000002e0: 1116 5e3d 98d4 263e 5c2f f03d 6b89 e8bd
000002f0: c23f b93d e013 843c c39e c63d 41c7 193d
00000300: 43e3 153e d358 41bd 9083 babd bbb8 193e
00000310: 2a58 2f3e 104a 1c3e db00 88bb c5ba d43d
00000320: 7c63 aa3d 085b dcbd 8037 2d3e 951e 903d
00000330: d964 303e ce00 9e3b f628 f83c 3461 9fbc
00000340: 4ce0 1e3e 9c6f 0e3e ff66 c33d 8cda 9ebd
00000350: da9f 2a3e 20d7 59bc dcb6 06be d9df b43b
00000360: 1434 d33d 7341 53b9 538e 903d a4f3 e5bd
00000370: e912 1b3d 7e74 03be 4f08 f43c 1d6e 11be
00000380: 5b8f 123d 257a 39be ef69 f9bd ef00 b3bd
00000390: ff59 c2bd 717d 12be 71b8 353e 84bc 253d
000003a0: e8af 01bc f9ac 933d f9cd ec3d 7c38 04be
000003b0: 78a0 e53d cddb bcbc 281e 1fbe 2b98 e73d
000003c0: 0f9d cd3b e3a1 97bd 733a b8bd d526 2fbd
000003d0: 4675 393d 0d7a da3d ae4d ef3b 4d72 0c3e
000003e0: 43c1 263e 9b83 febd 2aa6 18be a9b2 0e3e
000003f0: c529 ccbd 495b a6bd 5f3a 093d 8b5d b5bd

down1.maxpool_conv.1.double_conv.1.weight f4 [8]
1.0162902 0.9830546 1.0182565 0.998314 0.9837215 1.0092043 0.99158895 1.0263224
00000000: cc15 823f 77a9 7b3f 3b56 823f 8291 7f3f
00000010: 2cd5 7b3f 9b2d 813f c6d8 7d3f 885e 833f

down1.maxpool_conv.1.double_conv.1.bias f4 [8]
0.032018118 0.0005863932 0.02246105 0.031819083 0.04469999 -0.006364717 -0.020218197 0.022330083
00000000: 6e25 033d 2eb8 193a 3c00 b83c ba54 023d
00000010: 5617 373d 1e8f d0bb a2a0 a5bc 94ed b63c

down1.maxpool_conv.1.double_conv.1.running_mean f4 [8]
0.0142527865 0.19044453 0.041060958 0.14282578 -0.13952939 0.2708939 -0.051947337 0.0054816185
00000000: 8584 693c e403 433e 892f 283d ec40 123e
00000010: cbe0 0ebe 9bb2 8a3e bbc6 54bd 269f b33b

down1.maxpool_conv.1.double_conv.1.running_var f4 [8]
0.5387936 1.133351 0.16645789 1.5553423 0.3778899 1.5081198 0.4475103 0.42850497
00000000: 61ee 093f a511 913f f073 2a3e 7515 c73f
00000010: c97a c13e 120a c13f 1220 e53e 0165 db3e

down1.maxpool_conv.1.double_conv.3.weight f4 [8, 8, 3, 3]
-0.11976607 -0.0009468352 -0.09002937 0.067215465 0.043482058 0.061051708 0.031900156 -0.015369548
-0.060497094 0.010203828 0.0054900646 0.08411028 -0.022148564 -0.12456129 6.216533e-05 0.09314119
0.014211071 0.027791046 -0.021596922 -0.136317 -0.020274429 -0.12967283 -0.119446695 -0.078876995
0.024660084 -0.10112914 -0.0562596 -0.07509244 0.030027326 0.09068102 -0.13541423 -0.062154535
0.084449485 -0.13628857 0.0729341 -0.089574814 0.01207165 0.10168708 -0.021914542 -0.03772147
0.055975683 0.09234055 0.07176714 0.05840312 -0.066194914 0.016599258 -0.043330543 -0.09178687
0.054792047 -0.133742 -0.08951076 0.06965204 0.029415501 -0.06282032 -0.11561465 -0.030848052
-0.07416881 -0.084344134 0.001334932 -0.0022046433 0.013441307 -0.08377559 0.02520655 -0.07464201
-0.030475281 -0.050208792 -0.08841314 -0.11010266 0.06670319 0.081118934 -0.10473396 0.051703624
0.032147318 0.0595382 0.02573774 -0.04370822 -0.06400514 -0.10450111 -0.12323391 -0.016518427
-0.0090129245 -0.063224085 0.014579185 -0.06114606 0.05854204 -0.1194511 0.016030606 -0.10645475
0.071679674 -0.079545274 0.049375463 0.0036426852 0.08211057 0.077379085 0.10603326 -0.036760665
-0.14254193 0.029243546 0.13305308 0.028859802 -0.018428858 0.032909535 0.058997016 0.047446076
-0.07591725 0.026740693 -0.11667353 -0.0834526 -0.10110321 -0.092460364 0.08013693 -0.02164527
0.0006180974 -0.060038682 -0.10076298 0.089594446 0.062708296 -0.13082401 -0.11007631 0.088176236
0.010145826 0.035523064 -0.035949953 -0.11157173 0.04883157 0.022468628 0.060395073 0.11910148
0.00785357 -0.11585311 -0.016533183 0.089355975 -0.020898368 0.13354343 -0.05219108 -0.08692438
-0.09667234 0.0029160324 0.044346415 -0.00982686 0.018670328 -0.004520935 0.112913504 0.052477974
0.04909403 -0.0670687 -0.061672453 0.052979566 0.09217536 -0.020718304 0.016133241 0.10762337
0.019131241 -0.005626221 -0.054172736 -0.029899245 -0.051887434 -0.0058164494 0.07457295 0.086209975
0.106958665 -0.085941546 0.059184253 -0.06122663 -0.053481393 0.08778778 0.016035963 0.009494525
0.12243868 0.116960995 -0.022719257 0.009230405 -0.03358738 0.10109111 -0.049051244 0.120048635
-0.0674094 -0.032056388 -0.06792094 0.10865224 0.1033706 0.035013493 0.0033377588 0.08938942
0.11076091 0.11760088 0.04163256 -0.051227525 -0.07812136 -0.07374591 -0.034145076 0.093277715
-0.016218385 0.087938346 -0.03845831 0.08936077 -0.07068518 -0.04930567 -0.08537384 -0.097249344
-0.106638 -0.06777832 -0.07151531 -0.015155479 -0.07160694 -0.049854256 0.05435754 0.1369743
0.03388779 0.051960815 -0.017286751 0.0628992 0.10514107 0.101498105 0.048439797 0.061653405
0.08205047 0.074797675 0.057153825 0.058329128 0.014242112 -0.023528669 0.07276232 -0.012754224
0.09207049 0.051528055 -0.030299831 -0.05453116 0.09401253 0.01483905 0.058576897 0.014028892
0.053731415 -0.092465125 -0.07607154 -0.01786635 0.037464403 0.12318076 0.09311691 0.020435337
0.09100345 -0.029579569 -0.06268589 -0.108897336 -0.049667213 0.023566803 -0.09826491 0.055572152
0.04635202 0.10789438 0.05067923 -0.012250582 -0.09432228 0.1310791 -0.04628678 0.039631974
00000000: ea47 f5bd 0935 78ba 5161 b8bd 43a8 893d
00000010: 3e1a 323d 5b11 7a3d bda9 023d 8fd0 7bbc
00000020: cdcb 77bd f52d 273c 00e6 b33b 0342 ac3d
00000030: e870 b5bc fd19 ffbd c25e 8238 cfc0 be3d
00000040: 8dd5 683c 0caa e33c 07ec b0bc af96 0bbe
00000050: 8f16 a6bc f4c8 04be 78a0 f4bd 438a a1bd
00000060: f203 ca3c cb1c cfbd 7770 66bd 11ca 99bd
00000070: defb f53c f8b6 b93d 07aa 0abe c195 7ebd
00000080: daf3 ac3d 3b8f 0bbe 795e 953d 0073 b7bd
00000090: 2bc8 453c 5141 d03d 2086 b3bc d481 1abd
000000a0: c246 653d 0b1d bd3d a6fa 923d 1c38 6f3d
000000b0: 3391 87bd 2bfb 873c 5e7b 31bd c1fa bbbd
000000c0: a06d 603d aaf3 08be 6b51 b7bd bba5 8e3d
000000d0: c7f8 f03c f1a7 80bd 60c7 ecbd 0eb5 fcbc
000000e0: d1e5 97bd 9ebc acbd e3f8 ae3a c77b 10bb
000000f0: ed38 5c3c 8992 abbd f77d ce3c e9dd 98bd
00000100: 4ca7 f9bc bca7 4dbd f311 b5bd 817d e1bd
00000110: af9b 883d af21 a63d c27e d6bd 2ec7 533d
00000120: e8ac 033d 54de 733d f4d7 d23c 6407 33bd
00000130: 2015 83bd ae04 d6bd 0f62 fcbd a751 87bc
00000140: f2aa 13bc a17b 81bd 89dd 6e3c 4a74 7abd
00000150: c7c9 6f3d c7a2 f4bd 9e52 833c f304 dabd
00000160: cbcc 923d a2e8 a2bd ed3d 4a3d 1eba 6e3b
00000170: 9629 a83d ed78 9e3d f727 d93d 5a92 16bd
00000180: 83f6 11be 2990 ef3c 113f 083e 646b ec3c
00000190: 1ef8 96bc 26cc 063d dba6 713d d156 423d
000001a0: 817a 9bbd 4c0f db3c 88f2 eebd 32e9 aabd
000001b0: 330f cfbd dc5b bdbd d51e a43d 6c51 b1bc
000001c0: d007 223a 1feb 75bd d25c cebd 4b7d b73d
000001d0: 356d 803d bbf6 05be b06f e1bd be95 b43d
000001e0: ae3a 263c a280 113d 4240 13bd b87f e4bd
000001f0: 9d03 483d 2110 b83c d360 773d 7aeb f33d
00000200: 43ac 003c 6544 edbd 9970 87bc 4400 b73d
00000210: 0e33 abbc 9cbf 083e 50c6 55bd 6905 b2bd
00000220: 26fc c5bd e81a 3f3b 96a4 353d d700 21bc
00000230: 84f2 983c 5a24 94bb 323f e73d 25f3 563d
00000240: d216 493d 515b 89bd 419c 7cbd 1a01 593d
00000250: 6fc6 bc3d 6fb9 a9bc dc29 843c a469 dc3d
00000260: 1fb9 9c3c 2a5c b8bb 3be4 5dbd 43ef f4bc
00000270: eb87 54bd ea97 bebb b4b9 983d db8e b03d
00000280: 250d db3d 1f02 b0bd 306b 723d c6c8 7abd
00000290: 4e0f 5bbd 14ca b33d da5d 833c ed8e 1b3c
000002a0: 21c1 fa3d 3f89 ef3d bc1d babc 203b 173c
000002b0: ec92 09bd db08 cf3d f5e9 48bd 0fdc f53d
000002c0: f10d 8abd 8f4d 03bd 221a 8bbd 1185 de3d
000002d0: f7b3 d33d 4f6a 0f3d 4dbe 5a3b cd11 b73d
000002e0: 9ed6 e23d bbd8 f03d e786 2a3d f4d3 51bd
000002f0: 17fe 9fbd 1808 97bd b5db 0bbd 6308 bf3d
00000300: 6bdc 84bc 0519 b43d 7686 1dbd c802 b73d
00000310: 64c3 90bd bef4 49bd 7bd8 aebd aa2a c7bd
00000320: 0665 dabd 5ccf 8abd 9e76 92bd b04e 78bc
00000330: a9a6 92bd fa33 4cbd 03a6 5e3d fe42 0c3e
00000340: eccd 0a3d ddd4 543d f29c 8dbc 4cd1 803d
00000350: 3454 d73d 3dde cf3d cf68 463d 4888 7c3d
00000360: 140a a83d 862f 993d 211a 6a3d 86ea 6e3d
00000370: bf57 693c 32bf c0bc 6904 953d 18f7 50bc
00000380: 748f bc3d 150f 533d 5a37 f8bc 115c 5fbd
00000390: a489 c03d 7d1f 733c 54ee 6f3d 70d9 653c
000003a0: 7915 5c3d 5b5e bdbd 65cb 9bbd 745c 92bc
000003b0: 4674 193d 3246 fc3d 14b4 be3d 0268 a73c
000003c0: 0460 ba3d da50 f2bc 7661 80bd 9105 dfbd
000003d0: d96f 4bbd 2b0f c13c 1d3f c9bd a09f 633d
000003e0: 9edb 3d3d bbf7 dc3d 0695 4f3d aab6 48bc
000003f0: 0a2c c1bd 9939 063e 3597 3dbd 2355 223d

down1.maxpool_conv.1.double_conv.4.weight f4 [8]
0.9805899 0.9478634 0.9648616 0.97269315 0.9802432 0.9896492 0.9834275 0.9880723
00000000: f107 7b3f 2da7 723f 2b01 773f 6b02 793f
00000010: 38f1 7a3f a659 7d3f e8c1 7b3f 4ef2 7c3f

down1.maxpool_conv.1.double_conv.4.bias f4 [8]
-0.044124592 -0.017945463 -0.03128014 0.017251994 -0.037312288 0.011395981 0.025061553 0.025382835
00000000: fdbb 34bd 5d02 93bc 9b1f 00bd 0e54 8d3c
00000010: c5d4 18bd 35b6 3a3c e34d cd3c aaef cf3c

down1.maxpool_conv.1.double_conv.4.running_mean f4 [8]
-0.12651858 -0.08263742 0.13723353 0.13790174 -0.13220784 -0.117722265 -0.18438065 -0.09656377
00000000: 168e 01be cf3d a9bd f286 0c3e 1d36 0d3e
00000010: 7e61 07be 5f18 f1bd 48ce 3cbe 3ac3 c5bd

down1.maxpool_conv.1.double_conv.4.running_var f4 [8]
0.9505534 0.25521028 0.5407355 0.6887956 0.50130653 0.4410796 1.1223494 0.78641045
00000000: 7857 733f ecaa 823e a46d 0a3f e954 303f
00000010: a055 003f 2fd5 e13e 25a9 8f3f 3252 493f

down2.maxpool_conv.1.double_conv.0.weight f4 [16, 8, 3, 3]
0.030471545 0.064943716 -0.085610166 -0.005162089 0.0030286794 -0.07766769 0.060274944 0.084978245
0.03980906 0.115092024 0.017833002 -0.07464584 -0.005384602 0.0710211 -0.013794878 -0.08783845
0.022830999 -0.029277507 0.1116361 0.09618968 -0.13158202 0.06131408 -0.053235196 -0.008361324
-0.10232721 -0.008324391 -0.014954282 -0.030165397 0.114304036 0.054339517 -0.096487194 -0.0149805285
-0.116337985 -0.091119274 0.019287638 -0.021815192 -0.034017432 0.13307992 -0.03831801 0.102824256
-0.07680539 -0.020395454 0.08914429 0.014060465 -0.01242372 0.0144507745 -0.029440057 -0.115832075
-0.030866783 -0.10908881 -0.083661765 0.1173743 -0.047964387 0.01684068 0.10069073 0.03970861
0.108295806 0.05042669 -0.0065452456 0.108217105 0.08790755 -0.046884086 0.073257565 -0.045361646
0.05234953 -0.09529597 -0.13073967 0.051480323 -0.011724266 -0.11586963 -0.12201749 0.100385696
0.052304853 -0.03344222 -0.01931637 -0.06620443 0.08583904 -0.0971966 -0.04424888 0.066019274
0.076313846 -0.08141487 0.05777898 0.046885584 0.028723089 -0.04099635 -0.041970424 0.083160676
-0.042462967 -0.076190144 0.07101256 0.08470006 0.11327426 0.019052183 -0.008927979 0.03190205
-0.11197018 -0.11015909 0.022294948 0.009301171 0.035638645 0.035819434 -0.08263466 -0.04375687
0.042260338 -0.086864404 -0.08950425 0.106441036 -0.10846825 0.013132115 0.004739958 0.11632335
-0.063253134 -0.07162482 0.009532882 0.07188509 -0.08295875 -0.07436517 0.014229174 -0.050889544
-0.106744595 -0.0006358732 0.08110141 0.030795747 -0.04001818 -0.028796276 0.09710288 -0.08637584
-0.04537135 0.09298454 0.022452665 0.10973696 0.04780535 0.0043258867 0.06993563 0.11390673
0.11129873 0.049481813 0.050005075 0.072637655 -0.11199544 0.085270315 -0.023480356 -0.03803614
0.09339223 0.0025998843 -0.023972576 -0.078359194 0.09725968 0.10832898 -0.0074318773 0.008348383
-0.03058502 -0.1005381 0.086487405 0.02482384 -0.028625611 -0.044786945 0.09013383 0.116280854
0.093266174 0.07223043 0.09852166 -0.06155319 -0.13026847 -0.070838235 -0.088237025 -0.113112964
0.06390313 0.038172934 -0.11870752 -0.050642215 0.0865813 -0.103725284 0.14894041 -0.02406313
0.04161227 0.011685015 0.085137546 -0.09404153 0.13054249 -0.030150287 0.116336115 -0.044306163
0.1143115 0.084778935 0.0042620483 0.04339627 0.05325085 0.031353693 0.032383773 0.0076868352
0.00051693415 0.08913772 -0.051619448 -0.0063218237 0.107907996 -0.09164043 -0.01800278 0.032992918
0.014052365 0.03232184 0.05724458 -0.008793116 -0.010913192 0.046080086 0.02696944 0.010212457
0.07579982 0.10915716 -0.06659132 0.049231786 -0.018781908 0.04328023 0.0038946094 0.0084301075
0.030993965 0.011259891 0.107682236 0.09957029 -0.09739578 -0.013615346 -0.0987202 -0.09254207
-0.08931328 -0.117987886 -0.1097271 -0.10940465 0.110384375 0.106824644 -0.08878391 -0.11184018
-0.06403146 -0.11493083 -0.06820213 0.09352688 0.07907735 -0.026991894 -0.09143256 -0.07177551
-0.03948047 0.04173048 0.07397329 -0.033674758 -0.10505569 -0.06804384 -0.033137754 -0.118353136
-0.0010528055 -0.10885701 0.025715882 0.046758708 -0.0047938116 -0.022250265 -0.06990157 -0.028666351
00000000: 769f f93c 3601 853d 6254 afbd be26 a9bb
00000010: cf7c 463b 3d10 9fbd dce2 763d 1309 ae3d
00000020: d30e 233d 5eb5 eb3d 8416 923c ebdf 98bd
00000030: 5171 b0bb 8373 913d e903 62bc a5e4 b3bd
00000040: 1308 bb3c 62d7 efbc 78a1 e43d 18ff c43d
00000050: 70bd 06be 7924 7b3d 260d 5abd effd 08bc
00000060: ee90 d1bd 0763 08bc ce02 75bc 6c1d f7bc
00000070: 3c18 ea3d 1d93 5e3d 149b c5bd e470 75bc
00000080: 9c42 eebd be9c babd 1c01 9e3c c6b5 b2bc
00000090: dd55 0bbd 1a46 083e 58f3 1cbd 8695 d23d
000000a0: 254c 9dbd 5e14 a7bc 4891 b63d dd5d 663c
000000b0: dc8c 4bbc f1c2 6c3c 462c f1bc 5e39 edbd
000000c0: 56dc fcbc f469 dfbd dc56 abbd f061 f03d
000000d0: 4e76 44bd 77f5 893c f136 ce3d 7fa5 223d
000000e0: 31ca dd3d 388c 4e3d 8079 d6bb eea0 dd3d
000000f0: e008 b43d 8709 40bd 1008 963d 22cd 39bd
00000100: 766c 563d 892a c3bd 9fe0 05be 08dd 523d
00000110: 2317 40bc 0e4d edbd 4ee4 f9bd 0497 cd3d
00000120: 9d3d 563d b6fa 08bd 5d3d 9ebc 3096 87bd
00000130: 61cc af3d 030f c7bd 503e 35bd 1d35 873d
00000140: 6f4a 9c3d d7bc a6bd a7a9 6c3d 190b 403d
00000150: af4c eb3c caeb 27bd 2ee9 2bbd 2550 aa3d
00000160: a6ed 2dbd 9409 9cbd 086f 913d 3a77 ad3d
00000170: 56fc e73d 5313 9c3c a846 12bc b9ab 023d
00000180: 9f50 e5bd 179b e1bd e5a3 b63c f063 183c
00000190: d4f9 113d 66b7 123d 5c3c a9bd 673a 33bd
000001a0: 2d19 2d3d f7e5 b1bd 014e b7bd c2fd d93d
000001b0: 9a24 debd 1528 573c a651 9b3b f03a ee3d
000001c0: dc8a 81bd 09b0 92bd ce2f 1c3c 7d38 933d
000001d0: 47e6 a9bd c44c 98bd 7b21 693c 8e71 50bd
000001e0: e99c dabd bab0 26ba 7f18 a63d 5d47 fc3c
000001f0: 1aea 23bd 2be6 ebbc e0dd c63d d1e5 b0bd
00000200: 4fd7 39bd ae6e be3d a7ee b73c c5bd e03d
00000210: 8bcf 433d 2bc0 8d3b 693a 8f3d ef47 e93d
00000220: 97f0 e33d 71ad 4a3d 1fd2 4c3d 0dc3 943d
00000230: de5d e5bd 34a2 ae3d e059 c0bc c9cb 1bbd
00000240: 6d44 bf3d d262 2a3b 2362 c4bc c97a a0bd
00000250: 1530 c73d 96db dd3d 1b87 f3bb a8c7 083c
00000260: 708d fabc ebe6 cdbd 4f20 b13d 5e5b cb3c
00000270: 4280 eabc 8472 37bd 1698 b83d a824 ee3d
00000280: 5602 bf3d 8ced 933d b9c5 c93d 331f 7cbd
00000290: 1965 05be a313 91bd 9db5 b4bd c5a7 e7bd
000002a0: a5df 823d 395b 1c3d ee1c f3bd 366e 4fbd
000002b0: 8951 b13d ec6d d4bd d683 183e 0b20 c5bc
000002c0: a171 2a3d 8172 3f3c 985c ae3d d898 c0bd
000002d0: eeac 053e bcfd f6bc a141 ee3d 617a 35bd
000002e0: 261c ea3d 94a0 ad3d a7a8 8b3b 4ac0 313d
000002f0: 901d 5a3d bb6c 003d d9a4 043d d9e1 fb3b
00000300: dd82 073a d68d b63d ea6e 53bd 4d27 cfbb
00000310: defe dc3d faad bbbd 917a 93bc 9523 073d
00000320: e43b 663c e863 043d 4b79 6a3d 0011 10bc
00000330: 3fcd 32bc 79be 3c3d 04ef dc3c 2652 273c
00000340: f03c 9b3d ca8d df3d 0861 88bd 45a7 493d
00000350: 84dc 99bc 9c46 313d b43c 7f3b 6f1e 0a3c
00000360: 0ee7 fd3c 687b 383c 8188 dc3d 82eb cb3d
00000370: 7077 c7bd e612 5fbc d12d cabd b286 bdbd
00000380: e2e9 b6bd a2a3 f1bd 9ab8 e0bd 8c0f e0bd
00000390: 3411 e23d e1c6 da3d 57d4 b5bd 770c e5bd
000003a0: ed22 83bd db60 ebbd 8fad 8bbd 058b bf3d
000003b0: 4ef3 a13d 1b1e ddbc fe40 bbbd 0aff 92bd
000003c0: 46b6 21bd 94ed 2a3d 4f7f 973d 8bee 09bd
000003d0: 7027 d7bd 925a 8bbd 74bb 07bd 2163 f2bd
000003e0: 4afe 89ba 6df0 debd 1daa d23c 0f86 3f3d
000003f0: 6815 9dbb 3046 b6bc 8e28 8fbd b2d5 eabc

down2.maxpool_conv.1.double_conv.1.weight f4 [16]
0.98886925 1.0087317 0.99634755 0.9967711 1.0123646 1.0010968 0.99658287 1.0184271
0.99255717 1.0622435 0.9934328 1.0016644 1.0050696 0.9851327 0.9819127 1.0133061
00000000: 8926 7d3f 1f1e 813f a210 7f3f 642c 7f3f
00000010: 2a95 813f f123 803f 0e20 7f3f d25b 823f
00000020: 3a18 7e3f 98f7 873f 9d51 7e3f 8a36 803f
00000030: 1fa6 803f a831 7c3f a15e 7b3f 04b4 813f

down2.maxpool_conv.1.double_conv.1.bias f4 [16]
-0.024235481 0.038630653 -0.010040729 0.007308105 0.018845897 -0.0033114408 0.037197437 -0.0057547386
-0.0027473194 0.059471313 -0.008969926 0.0077428184 -0.0015350573 -0.01259965 0.0073013203 0.028256597
00000000: 7d89 c6bc 2d3b 1e3d df81 24bc d478 ef3b
00000010: b662 9a3c c204 59bb 575c 183d 3f92 bcbb
00000020: 5f0c 34bb 3198 733d 99f6 12bc 78b7 fd3b
00000030: fa33 c9ba c36e 4ebc ea3f ef3b 617a e73c

down2.maxpool_conv.1.double_conv.1.running_mean f4 [16]
-0.03380631 0.063433066 0.15684932 -0.19393906 0.16578235 0.050484087 0.039581023 -0.12206284
-0.25639632 -0.37616768 0.388606 0.109489396 0.21616942 0.2153662 -0.10006664 -0.03357573
00000000: 7c78 0abd 32e9 813d 1c9d 203e f697 46be
00000010: d9c2 293e 67c8 4e3d b61f 223d 15fc f9bd
00000020: 6146 83be 0d99 c0be 5ef7 c63e fa3b e03d
00000030: 845b 5d3e f588 5c3e bdef ccbd b486 09bd

down2.maxpool_conv.1.double_conv.1.running_var f4 [16]
0.180839 0.23660675 0.18418185 0.32836646 0.21613283 0.08927688 0.12524813 0.14297278
0.2447232 0.14770259 0.348057 0.08270553 0.37932318 0.373693 0.17900424 0.085081495
00000000: dc2d 393e 0a49 723e 2b9a 3c3e a61f a83e
00000010: ed51 5d3e ccd6 b63d 0c41 003e 7567 123e
00000020: b898 7a3e 593f 173e 8734 b23e 8461 a93d
00000030: a636 c23e b054 bf3e e34c 373e 353f ae3d

down2.maxpool_conv.1.double_conv.3.weight f4 [16, 16, 3, 3]
0.07310912 0.0011321888 -0.05813472 0.01749126 0.03807912 -0.01543851 -0.035865795 0.035882544
0.026476586 -0.07721452 -0.032413207 -0.06111081 0.040499136 -0.066314474 0.093381196 -0.02247228
-0.017484719 -0.009840943 -0.0043043895 -0.016602874 0.08255759 0.081452824 0.04507542 -0.026615879
-0.0061464543 0.011529861 -0.039464753 0.018044043 -0.06907843 -0.04233822 -0.044513896 -0.012346868
0.02851538 -0.084982485 -0.028774908 -0.06062927 0.025244093 -2.1717346e-05 -0.011834581 0.06158979
0.045288194 0.017495926 0.044806186 -0.037095714 -0.0013005799 0.0044197566 0.026023975 0.08355208
0.032465253 0.060324196 -0.023472654 0.06833475 0.007792495 0.055782896 0.0037093428 0.06563789
-0.0016219503 -0.019327952 0.04835735 0.004719345 -0.017787544 0.06007983 0.045563795 0.090309456
0.020473985 0.03530541 -0.067280814 0.08892001 -0.018497054 0.0033250535 0.026285524 -0.02721028
0.028224112 0.055776503 -0.025385756 -0.08274478 0.01891179 -0.037113678 0.014813062 -0.038749866
-0.012271296 -0.08725097 -0.07480333 -0.055002786 -0.10698094 -0.0626184 -0.0123151215 0.008433363
-0.09212693 -0.0444569 0.045404382 -0.03059056 -0.041775614 0.018921643 0.06328305 0.049893796
0.048724744 -0.04191948 -0.031618673 0.098341055 -0.021267816 -0.0241025 0.10384909 0.071010925
0.025357243 0.012911638 -0.05970553 -0.050481405 -0.019379048 0.029443834 -0.06359624 -0.06475731
0.013215992 -0.025794795 -0.0075099235 -0.0069406386 -0.027442547 -0.027530275 0.040935807 0.05379738
0.015622355 -0.027987542 0.0012464111 -0.013844984 0.07890433 -0.074073225 -0.03624663 0.059104882
0.021246182 0.029347058 -0.059944745 0.04265529 0.07941051 -0.066162966 0.02685347 0.008874343
-0.02076754 0.0054276045 0.07892907 0.033437148 0.027301304 0.016844274 -2.495061e-05 0.007689056
-0.057838686 0.06866618 -0.010044307 0.035476994 -0.0079838615 -0.017729148 0.05444741 -0.055519577
-0.04190989 0.02679802 0.011732901 -0.06841464 -0.040168375 -0.011961798 0.024263298 0.06745323
0.0004351603 -0.0128369015 0.081344895 -0.048409294 -0.05128878 0.04247651 -0.045733415 -0.04843914
-0.024306145 0.0015148837 0.028242495 -0.069242895 -0.050758753 -0.012600535 0.028081136 -0.031276155
-0.037885536 -0.05239503 -0.00070986425 0.011602032 0.036532328 -0.09370201 -0.033200525 0.0039233216
-0.042378623 -0.037252586 0.07277581 -0.061634507 0.016389113 -0.008880864 0.00904055 0.06052432
-0.057109326 0.00035943702 -0.058136698 -0.042638283 -0.064332336 0.06132751 -0.027447144 -0.04755271
-0.045172196 -0.036523998 0.0083227 0.051725768 0.051575303 0.05424656 0.004906099 -0.0033411907
0.07184524 -0.03737037 0.026017794 -0.04083373 0.05970179 -0.065580115 -0.040603578 -0.050066005
-0.023567835 0.002800399 0.01088619 0.025072198 -0.044789203 -0.042260747 -0.021465873 0.050933093
0.045843527 0.0040873536 -0.090278305 0.07641503 0.03932677 -0.08618255 0.063546814 -0.076387025
0.017261634 -0.07187162 0.06865179 0.011512786 0.07153138 -0.08468827 -0.07957909 -0.08530195
0.069893755 -0.043776225 0.02918526 0.03847595 0.033142503 0.073872134 -0.029072553 0.013434671
-0.08303538 0.0374119 -0.07451772 0.06511265 -0.07701886 -0.081468016 0.07227369 0.073537946
00000000: 3cba 953d f465 943a ac1e 6ebd d549 8f3c
00000010: daf8 1b3d cef1 7cbc 03e8 12bd 93f9 123d
00000020: 6de5 d83c a522 9ebd b6c3 04bd 544f 7abd
00000030: 6ce2 253d e2cf 87bd a43e bf3d c917 b8bc
00000040: 1d3c 8fbc e83b 21bc d60b 8dbb c002 88bc
00000050: f413 a93d bdd0 a63d 01a1 383d 8b09 dabc
00000060: 3268 c9bb bee7 3c3c cba5 21bd 1ad1 933c
00000070: fe78 8dbd d76a 2dbd 3454 36bd 854a 4abc
00000080: 1699 e93c 4c0b aebd 5bb9 ebbc 6656 78bd
00000090: b3cc ce3c a52d b6b7 d5e5 41bc 9345 7c3d
000000a0: 1d80 393d 9e53 8f3c b186 373d adf1 17bd
000000b0: 3878 aaba 9bd3 903b 3b30 d53c 5a1d ab3d
000000c0: 49fa 043d 8116 773d b949 c0bc 17f3 8b3d
000000d0: 3058 ff3b 9b7c 643d 7218 733b 286d 863d
000000e0: 9f97 d4ba a755 9ebc 5b12 463d bca4 9a3b
000000f0: 2fb7 91bc 4516 763d 1aa1 3a3d 2af4 b83d
00000100: 0fb9 a73c 689c 103d 86ca 89bd b21b b63d
00000110: 2287 97bc 24e9 593b bd54 d73c 18e8 debc
00000120: 4136 e73c e775 643d caf5 cfbc 1876 a9bd
00000130: e6ec 9a3c 8304 18bd 7cb2 723c 2eb8 1ebd
00000140: 8c0d 49bc a3b0 b2bd 7d32 99bd 9a4a 61bd
00000150: d318 dbbd 133e 80bd 5dc5 49bc 172c 0a3c
00000160: 0bad bcbd 7018 36bd f2f9 393d 0e99 fabc
00000170: e81c 2bbd 9001 9b3c 8b9a 813d 705d 4c3d
00000180: 9993 473d c3b3 2bbd 9582 01bd 0967 c93d
00000190: d839 aebc 9b72 c5bc d5ae d43d 2d6e 913d
000001a0: feb9 cf3c 568b 533c c98d 74bd 97c5 4ebd
000001b0: cfc0 9ebc 3234 f13c bf3e 82bd 7b9f 84bd
000001c0: e387 583c 9b4f d3bc ce15 f6bb 4c6e e3bb
000001d0: 31cf e0bc 2c87 e1bc 4eac 273d a45a 5c3d
000001e0: e8f4 7f3c 2146 e5bc 9e5e a33a 12d6 62bc
000001f0: 9898 a13d b4b3 97bd 5977 14bd f617 723d
00000200: 790c ae3c 3e69 f03c 9f88 75bd 50b7 2e3d
00000210: faa1 a23d 7380 87bd cffb db3c b165 113c
00000220: b020 aabc 0cda b13b 90a5 a13d 64f5 083d
00000230: fca6 df3c 01fd 893c 074d d1b7 7af4 fb3b
00000240: 42e8 6cbd dba0 8c3d e190 24bc 5350 113d
00000250: bece 02bc b83c 91bc 3f04 5f3d 7f68 63bd
00000260: b4a9 2bbd 8587 db3c 5b3b 403c fa1c 8cbd
00000270: 9887 24bd 6bfb 43bc d3c3 c63c eb24 8a3d
00000280: 3a26 e439 de51 52bc 2798 a63d d348 46bd
00000290: 2f14 52bd d9fb 2d3d f652 3bbd 1f68 46bd
000002a0: ae1d c7bc 108f c63a ce5c e73c 38cf 8dbd
000002b0: 69e8 4fbd 7972 4ebc 690a e63c 6d1b 00bd
000002c0: dd2d 1bbd 2c9c 56bd 2f16 3aba 7316 3e3c
000002d0: eca2 153d d7e6 bfbd 46fd 07bd 358f 803b
000002e0: 3595 2dbd 2b96 18bd 7c0b 953d 7774 7cbd
000002f0: 7642 863c 0b81 11bc d11e 143c 59e8 773d
00000300: 78eb 69bd d272 bc39 bf20 6ebd 7ba5 2ebd
00000310: acc0 83bd 8e32 7b3d d5d8 e0bc a1c6 42bd
00000320: 7b06 39bd 309a 15bd ef5b 083c 66de 533d
00000330: a040 533d a431 5e3d 57c3 a03b e1f7 5abb
00000340: 9923 933d ac11 19bd 4523 d53c 4541 27bd
00000350: dd89 743d de4e 86bd f04f 26bd 0312 4dbd
00000360: 5511 c1bc e686 373b fe5b 323c 3664 cd3c
00000370: e274 37bd 9b19 2dbd 33d9 afbc 389f 503d
00000380: 6cc6 3b3d 35ef 853b d5e3 b8bd 7c7f 9c3d
00000390: 1b15 213d 7a80 b0bd d524 823d cd70 9cbd
000003a0: 4568 8d3c 6e31 93bd 4f99 8c3d 20a0 3c3c
000003b0: 0b7f 923d 0b71 adbd 5dfa a2bd cab2 aebd
000003c0: 7524 8f3d b34e 33bd ed15 ef3c f598 1d3d
000003d0: 6fc0 073d 464a 973d 9029 eebc 181d 5c3c
000003e0: 740e aabd 383d 193d bf9c 98bd c859 853d
000003f0: 10bc 9dbd b4d8 a6bd 3a04 943d 109b 963d

down2.maxpool_conv.1.double_conv.4.weight f4 [16]
1.0046456 0.9965349 0.9783802 1.0417637 1.0195985 1.0213223 0.99971503 0.9883651
1.0086892 1.0357175 1.0031017 1.0048325 0.9916904 0.9906921 0.99929065 0.9913524
00000000: 3a98 803f e91c 7f3f 2077 7a3f 8358 853f
00000010: 3482 823f b0ba 823f 53ed 7f3f 7f05 7d3f
00000020: ba1c 813f 6492 843f a365 803f 5a9e 803f
00000030: 6cdf 7d3f ff9d 7d3f 83d1 7f3f 45c9 7d3f

down2.maxpool_conv.1.double_conv.4.bias f4 [16]
0.012809353 0.00053659023 -0.020856116 0.027346332 0.011320559 0.020763913 0.009556915 0.0042002467
0.011005043 0.030911513 -0.006454487 -0.02380094 -0.0040168534 0.010570853 -0.010372503 0.0018523918
00000000: 52de 513c f6a9 0c3a 72da aabc 6a05 e03c
00000010: de79 393c 1519 aa3c 9b94 1c3c 39a2 893b
00000020: 7f4e 343c 243a fd3c 2980 d3bb 30fa c2bc
00000030: cf9f 83bb 5f31 2d3c 6ef1 29bc f4cb f23a

down2.maxpool_conv.1.double_conv.4.running_mean f4 [16]
-0.024905348 -0.19838795 0.18525416 -0.089299716 0.2988766 -0.32435173 0.12885769 0.20534025
-0.008355742 -0.08756518 -0.029686585 -0.093973845 -0.15418507 -0.022883005 0.016188283 -0.23242047
00000000: 4d06 ccbc 3626 4bbe 44b3 3d3e c5e2 b6bd
00000010: 5b06 993e 6e11 a6be 45f3 033e b744 523e
00000020: 86e6 08bc 6055 b3bd 4831 f3bc 5c75 c0bd
00000030: b1e2 1dbe 2475 bbbc 4a9d 843c a2ff 6dbe

down2.maxpool_conv.1.double_conv.4.running_var f4 [16]
0.19241147 0.22909673 0.29975438 0.122196525 0.346125 0.8097576 0.1573061 0.7879786
0.1685371 0.30291483 0.20550895 0.10872231 0.16646284 0.08064028 0.11256946 0.20237826
00000000: 8307 453e 5598 6a3e 6879 993e 2c42 fa3d
00000010: 4c37 b13e 464c 4f3f da14 213e f7b8 493f
00000020: fd94 2c3e a717 9b3e f070 523e cda9 de3d
00000030: 3c75 2a3e bb26 a53d d18a e63d 3f3c 4f3e

down3.maxpool_conv.1.double_conv.0.weight f4 [32, 16, 3, 3]
0.0023232384 0.020293098 -0.0681831 0.022386365 0.051268417 0.025139954 -0.041609112 0.053469207
-0.007226051 -0.04489078 0.016957158 0.06319744 -0.0015526208 0.03249564 -0.00094108743 -0.041259333
0.013290079 0.063847505 0.0328245 0.07609592 -0.057784032 0.009138008 0.03463705 0.07727414
0.071663626 -0.068084285 0.03573747 -0.0269429 -0.058139537 -0.08318837 -0.069394045 0.015879666
-0.07917767 0.0682681 -0.038724013 0.011405638 -0.014457007 0.0336451 0.016031982 0.087840006
-0.028454646 0.05203158 0.056949385 -0.032242637 0.015106656 -0.007376406 -0.085506745 -0.049687725
0.07490428 -0.052810412 -0.05795951 -0.053718235 -0.074589595 -0.037332624 0.058237087 0.03632495
0.010541726 0.000571154 0.01874048 -0.05141537 0.04915595 0.009160424 -0.027037878 0.08030933
0.060824584 -0.018079467 0.00846591 0.006739546 0.06428266 -0.02868027 0.050218 0.009167084
0.06603521 0.004148941 0.062259726 -0.062408943 -0.008614256 0.031197993 0.025852274 0.01958673
0.01562986 0.013880419 0.060683016 0.054527156 -0.06777258 -0.03709094 0.026690241 -0.038999524
0.06629896 -0.030187963 -0.06954886 -0.0056319 0.011859762 0.05678667 -0.0011595939 0.0031362765
0.016018685 -0.056120645 0.08093246 -0.0649614 0.027645444 0.03354903 -0.08080958 -0.016266467
0.006825357 0.04213837 0.025760861 -0.085561484 0.03449733 0.011729563 -0.034523707 -0.04374106
-0.038339492 0.059691247 -0.01003361 -0.07567672 0.004170019 0.033866625 -0.0037246703 -0.02034143
0.037815496 0.058002062 -0.022695359 0.051061325 0.0111203855 -0.032890934 0.050922215 -0.057704438
-0.03462165 -0.011367875 0.052520066 0.028605925 0.07228438 0.034187622 0.02546684 0.0032587256
-0.043352526 -0.055367626 -0.05768121 0.04473689 0.08136164 0.06425446 0.04696222 -0.031057373
0.00488047 -0.052433576 0.030408353 -0.08582297 -0.028192777 -0.076566346 0.012212402 0.06348421
-0.038819112 0.043327555 0.021000173 -0.03132786 -0.046041694 -0.068321146 0.06449941 -0.07972683
-0.027106622 0.0309515 0.069315076 0.03571159 -0.07955101 0.06950963 0.04085919 0.0028214476
-0.0341643 0.0189406 0.044737857 -0.053297196 0.04400374 -0.028931953 0.06953679 0.04310143
0.00550907 0.0017371622 0.051552225 -0.07317674 0.0113466075 -0.07851778 -0.05274246 0.031975858
0.06476327 0.008504311 0.0072357627 -0.035981473 -0.056593236 0.0015886623 0.028970007 -0.059068006
0.020273412 -0.00023741614 -0.01751236 -0.06579972 0.033947736 -0.015271797 -0.073885754 0.057913687
0.09974731 -0.07422385 0.04272194 -0.008957336 0.036883447 -0.0062714396 0.043254413 -0.042194813
0.053967055 -0.049967766 0.020041173 -0.022198958 -0.07438527 -0.037188817 0.0051185926 0.080890514
0.024617778 -0.014632824 0.014238453 0.029803399 -0.08162563 0.030141268 -0.040241797 -0.01505737
0.0740067 -0.031234697 -0.07298138 0.026442617 -0.076548114 -0.049959447 -0.036916096 -0.08507689
-0.024657458 0.02405417 -0.012114118 0.0064227968 0.009856985 0.059160825 0.061738946 -0.019411864
-0.038993888 0.04978583 -0.08083512 0.057923164 -0.031828698 0.104886875 -0.09726706 -0.06932988
0.023209352 -0.011227492 0.061696094 -0.00880646 -0.053005848 0.075713955 0.06823337 0.07020445
00000000: 7941 183b b63d a63c 95a3 8bbd 9c63 b73c
00000010: d5fe 513d 4ef2 cd3c 516e 2abd 8702 5b3d
00000020: 82c8 ecbb 65df 37bd bde9 8a3c a96d 813d
00000030: 4f81 cbba 261a 053d 4fb3 76ba 8cff 28bd
00000040: a2be 593c 7bc2 823d fc72 063d 2dd8 9b3d
00000050: f3ae 6cbd 95b7 153c 94df 0d3d e841 9e3d
00000060: 61c4 923d c66f 8bbd 7461 123d 5bb7 dcbc
00000070: b923 6ebd aa5e aabd 771e 8ebd 1316 823c
00000080: e727 a2bd 25d0 8b3d 129d 1ebd b7de 3a3c
00000090: 15dd 6cbc 72cf 093d 8155 833c 76e5 b33d
000000a0: b819 e9bc 111f 553d c243 693d db10 04bd
000000b0: e881 773c c7b5 f1bb 291e afbd 5b85 4bbd
000000c0: 6a67 993d bb4f 58bd f366 6dbd a707 5cbd
000000d0: 6ec2 98bd 18ea 18bd 038a 6e3d 79c9 143d
000000e0: 34b7 2c3c 7fb9 153a a385 993c ec98 52bd
000000f0: c057 493d 9a15 163c 8a7e ddbc 3879 a43d
00000100: 3323 793d 641b 94bc 9ab4 0a3c 69d7 dc3b
00000110: a1a6 833d e3f2 eabc 64b1 4d3d 8931 163c
00000120: 783d 873d d7f3 873b 0e04 7f3d 85a0 7fbd
00000130: cf22 0dbc ef92 ff3c 26c8 d33c 5a74 a03c
00000140: 310a 803c b26a 633c c18e 783d de57 5f3d
00000150: 5acc 8abd abec 17bd 7ea5 da3c f7bd 1fbd
00000160: c0c7 873d bf4c f7bc a26f 8ebd cd8b b8bb
00000170: 724f 423c 2499 683d 84fd 97ba fd89 4d3b
00000180: 9e39 833c c3de 65bd ebbf a53d 7c0a 85bd
00000190: b378 e23c b56a 093d 7e7f a5bd 4141 85bc
000001a0: 3fa7 df3b 4999 2c3d 7108 d33c dc3a afbd
000001b0: 134d 0d3d 5a2d 403c bb68 0dbd d329 33bd
000001c0: df09 1dbd cf7e 743d 0364 24bc 65fc 9abd
000001d0: a8a4 883b bbb7 0a3d 9919 74bb 12a3 a6bc
000001e0: 6ce4 1a3d 9293 6d3d 9eeb b9bc ae25 513d
000001f0: 4732 363c a5b8 06bd d093 503d 7d5b 6cbd
00000200: 6ecf 0dbd 5340 3abc 481f 573d f956 ea3c
00000210: d509 943d 5208 0c3d d69f d03c 5890 553b
00000220: 6b92 31bd 2ac9 62bd 2243 6cbd 073e 373d
00000230: eea0 a63d d897 833d 755b 403d 086c febc
00000240: 5aec 9f3b 97c4 56bd f01a f93c f4c3 afbd
00000250: 8af4 e6bc d1ce 9cbd 8716 483c 0204 823d
00000260: ca00 1fbd 3c78 313d 8e08 ac3c a451 00bd
00000270: 3796 3cbd f5eb 8bbd 4418 843d d247 a3bd
00000280: b50e debc 008e fd3c 10f5 8d3d 5146 123d
00000290: a4eb a2bd 115b 8e3d f75b 273d 09e8 383b
000002a0: ddef 0bbd 5129 9b3c 0b3f 373d 294e 5abd
000002b0: 443d 343d b402 edbc 4e69 8e3d 208b 303d
000002c0: 6e85 b43b 7eb1 e33a 6d28 533d b0dd 95bd
000002d0: 1fe7 393c eecd a0bd 7a08 58bd 1ef9 023d
000002e0: 9ba2 843d aa55 0b3c fa19 ed3b 4f61 13bd
000002f0: 4fce 67bd a93a d03a 8252 ed3c 4bf1 71bd
00000300: 6d14 a63c e9f2 78b9 1576 8fbc 01c2 86bd
00000310: c80c 0b3d 8f36 7abc 6a51 97bd e736 6d3d
00000320: 5148 cc3d ad02 98bd 33fd 2e3d cac1 12bc
00000330: 1913 173d a680 cdbb 8a2b 313d 78d4 2cbd
00000340: 8f0c 5d3d 00ab 4cbd 632d a43c 97da b5bc
00000350: 4e57 98bd 4d53 18bd deb9 a73b eda9 a53d
00000360: 39ab c93c 83be 6fbc 6648 693c 4226 f43c
00000370: 572b a7bd d2ea f63c 95d4 24bd 30b3 76bc
00000380: d390 973d e8df ffbc 4377 95bd 309e d83c
00000390: 42c5 9cbd 47a2 4cbd 5535 17bd cb3c aebd
000003a0: 70fe c9bc 400d c53c 4b7a 46bc 5376 d23b
000003b0: 317f 213c 9f52 723d fae1 7c3d a105 9fbc
000003c0: 0eb8 1fbd 3aec 4b3d e28c a5bd d740 6d3d
000003d0: cf5e 02bd eece d63d f433 c7bd d3fc 8dbd
000003e0: 8a21 be3c 84f3 37bc 0bb5 7c3d f848 10bc
000003f0: a91c 59bd eb0f 9b3d f0bd 8b3d 5ac7 8f3d

down3.maxpool_conv.1.double_conv.1.weight f4 [32]
0.99909985 1.0021923 0.99807733 1.0121313 0.99821705 0.9893908 0.9999471 0.9867811
1.0208344 1.0041611 0.98661894 1.0007547 0.9865055 0.9850172 1.004169 0.9992441
0.998945 1.0162468 0.999004 0.9987676 0.99618334 1.0162219 0.9828862 1.0025779
0.99983966 0.9946722 1.0116249 0.99985117 0.99964106 1.0104448 0.99534285 1.0050833
00000000: 02c5 7f3f d647 803f ff81 7f3f 858d 813f
00000010: 278b 7f3f b748 7d3f 88fc 7f3f b09d 7c3f
00000020: b4aa 823f 5a88 803f 0f93 7c3f bb18 803f
00000030: a08b 7c3f 162a 7c3f 9c88 803f 76ce 7f3f
00000040: dcba 7f3f 6014 823f babe 7f3f 3caf 7f3f
00000050: df05 7f3f 8f13 823f 6e9e 7b3f 7954 803f
00000060: 7ef5 7f3f d6a2 7e3f ed7c 813f 3ff6 7f3f
00000070: 7ae8 7f3f 4156 813f cace 7e3f 92a6 803f

down3.maxpool_conv.1.double_conv.1.bias f4 [32]
-0.011119588 -0.004496238 -0.02001562 0.018152805 0.0007180836 0.0073623043 0.010722516 -0.011653913
0.0097191455 0.012255855 -0.0015027428 0.0023653156 -0.0023811962 -0.013352715 0.012754171 0.011889339
0.001310081 0.028856957 -0.008795703 0.0019320864 -0.0008899018 0.015389782 0.0031498424 0.009815005
-0.002301094 0.006431449 0.0070775338 0.005011466 0.0044263494 0.008516438 0.0018113807 0.0025587934
00000000: ef2e 36bc 2e55 93bb ccf7 a3bc 31b5 943c
00000010: c63d 3c3a 7c3f f13b 7ead 2f3c 0ef0 3ebc
00000020: 0d3d 1f3c c8cc 483c aef7 c4ba 6903 1b3b
00000030: d80d 1cbb 59c5 5abc dff6 503c 81cb 423c
00000040: 06b7 ab3a 6d65 ec3c da1b 10bc 103e fd3a
00000050: 4d48 69ba 6d25 7c3c 966d 4e3b 1dcf 203c
00000060: f3cd 16bb e8be d23b a8ea e73b 3937 a43b
00000070: e90a 913b 8888 0b3c da6b ed3a 6eb1 273b

down3.maxpool_conv.1.double_conv.1.running_mean f4 [32]
0.25255287 0.024668837 0.16014479 0.07696975 -0.18818073 -0.3093404 0.35757643 0.15516582
0.45885903 -0.08496928 -0.7058077 0.44631523 -0.18274958 -0.3096995 0.0021034328 -0.4047062
0.19949326 0.2683659 -0.14616852 0.47296852 0.2667591 0.57510155 -0.18022592 0.545269
-0.26852804 -0.0901429 -0.04937017 -0.46678144 -0.28398082 0.06867841 -0.067684226 0.40517956
00000000: 9c4e 813e 4d16 ca3c fffc 233e 51a2 9d3d
00000010: 73b2 40be dd61 9ebe 4214 b73e cae3 1e3e
00000020: 92ef ea3e 6004 aebd d0af 34bf 6e83 e43e
00000030: b522 3bbe ef90 9ebe bfd9 093b a735 cfbe
00000040: f647 4c3e 4167 893e 33ad 15be ee28 f23e
00000050: a694 883e db39 133f 258d 38be c096 0b3f
00000060: 827c 89be d79c b8bd 6038 4abd fafd eebe
00000070: ef65 91be 44a7 8c3d 079e 8abd b273 cf3e

down3.maxpool_conv.1.double_conv.1.running_var f4 [32]
1.1410991 0.2390465 0.24936017 0.35360816 0.35701707 0.5707235 0.15452991 0.28301802
1.7802052 0.64241976 1.3291502 1.074299 0.24994741 0.5511962 0.6707421 0.88938266
0.20857178 0.60249615 0.27039498 1.1039461 0.35026357 1.6735774 0.820032 1.1077782
0.5229769 0.85265476 0.42761856 0.8475262 1.1737845 0.39083412 0.24213737 1.9589201
00000000: 890f 923f 9bc8 743e 4658 7f3e 210c b53e
00000010: f1ca b63e ef1a 123f 173d 1e3e bde7 903e
00000020: c4dd e33f 9f75 243f 9821 aa3f a182 893f
00000030: 37f2 7f3e 321b 0d3f c1b5 2b3f 95ae 633f
00000040: d793 553e 303d 1a3f 3671 8a3e 1b4e 8d3f
00000050: bf55 b33e c937 d63f 9eed 513f adcb 8d3f
00000060: d0e1 053f 9547 5a3f d2f0 da3e 7af7 583f
00000070: 923e 963f 691b c83e dcf2 773e e5bd fa3f
