model_weights.pth (torch, 533218 bytes, 99 tensors)

inc.double_conv.0.weight f4 [4, 1, 3, 3]
0.4021933 -0.15410036 -0.04754806 0.019625204 0.11115411 -0.05474539 -0.18988003 0.13366511
-0.2540559 0.23696259 -0.5526065 0.19256833 0.23871343 0.36943462 -0.2928501 -0.28129247
0.07183782 0.2905299 -0.19565512 -0.055187266 0.053523783 -0.14293058 0.43552673 0.11381659
0.3038079 -0.03848229 0.043311212 0.23559403 -0.51100177 -0.06761492 -0.14515026 0.055686623
0.0624565 -0.33477303 -0.27546337 -0.13466012
00000000: 48ec cd3e 7ccc 1dbe c1c1 42bd 09c5 a03c
00000010: c4a4 e33d b43c 60bd e96f 42be 82df 083e
00000020: 9d13 82be 52a6 723e 9f77 0dbf a230 453e
00000030: 4b71 743e 8926 bd3e 73f0 95be 9105 90be
00000040: b51f 933d 56c0 943e d159 48be 0b0c 62bd
00000050: c13b 5b3d 655c 12be 5cfd de3e ac18 e93d
00000060: b68c 9b3e 9b9f 1dbd 1967 313d 903f 713e
00000070: 03d1 02bf b179 8abd 45a2 14be a817 643d
00000080: 63d2 7f3d 5f67 abbe 8909 8dbe 58e4 09be

inc.double_conv.1.weight f4 [4]
1.037499 0.9328278 1.0487648 1.0897003
00000000: c4cc 843f cdcd 6e3f ed3d 863f 4d7b 8b3f

inc.double_conv.1.bias f4 [4]
-4.8726477e-05 -0.055802878 -0.0007701353 -0.001237169
00000000: a85f 4cb8 8f91 64bd e8e2 49ba 8128 a2ba

inc.double_conv.1.running_mean f4 [4]
-1.3270831e-07 1.0681621e-06 2.0234029e-06 -4.3578334e-06
00000000: 957e 0eb4 c55d 8f35 ccc9 0736 8139 92b6

inc.double_conv.1.running_var f4 [4]
4.5596305e-09 1.1748152e-08 5.4426157e-09 8.837776e-09
00000000: efaa 9c31 ebd4 4932 c101 bb31 f3d4 1732

inc.double_conv.3.weight f4 [4, 4, 3, 3]
0.31042457 0.034459803 0.3133792 -0.20718108 -0.40222842 0.002464748 -0.17703593 0.054511283
0.034426183 -0.34179777 -0.051785257 -0.39044848 0.15637931 -0.33214155 -0.04812673 0.059442155
0.30603674 -0.083104245 0.49296835 -0.028633416 -0.10479479 -0.2129576 -0.08770777 -0.14244866
0.37781978 -0.50906146 -0.31544286 0.19083585 0.4871312 -0.114369914 -0.1841134 0.42744082
-0.07546259 -0.1530575 0.10912843 -0.01675687 -0.26380265 -0.2621288 -0.40495986 -0.62209487
0.015118226 0.11253584 0.14887786 0.517949 -0.16202085 0.09916342 0.09985689 -0.089842506
0.022655247 -0.123575464 0.47400177 -0.12675804 0.104431 0.1509913 -0.036762632 -0.18217847
-0.4069232 -0.09090731 0.05992026 -0.16800934 -0.3732376 0.055587072 -0.43177915 -0.29720208
-0.22256997 -0.60109323 0.09147192 -0.36168396 0.34278983 -0.11088099 0.22450322 -0.17679705
-0.34794196 0.009891927 -0.13004318 0.17164126 -0.12003473 -0.1759526 -0.34626392 -0.048821412
-0.1323186 -0.28049916 0.2070514 0.10501345 0.12603387 -0.38589686 0.17122501 -0.06063253
-0.35881916 0.04976101 0.016234228 0.029508155 0.274978 0.1417527 0.04475895 -0.30288872
-0.124656364 0.2413234 0.18977891 0.030188745 -0.168278 0.1593388 -0.03472232 -0.073206894
-0.0789595 0.022680074 -0.4933581 -0.34270123 0.050788846 0.09961502 0.29357827 0.17257246
0.11548351 0.19996454 -0.014157111 -0.07143297 -0.14347455 -0.25045142 -0.010024688 -0.23825897
0.29935634 0.1559564 -0.20506406 -0.49931568 0.30379096 -0.23319054 0.38505602 0.28886208
-0.1422524 0.048621945 -0.40481758 -0.13099925 -0.050331425 0.12987152 0.1777659 -0.2196793
0.009518134 0.14009465 -0.02966697 -0.085486 0.19368207 0.016761094 -0.029181838 -0.10489099
00000000: f8ef 9e3e b925 0d3d 3d73 a03e 4727 54be
00000010: e2f0 cdbe 9c87 213b e848 35be 3947 5f3d
00000020: 7802 0d3d 1e00 afbe c71c 54bd dde8 c7be
00000030: e621 203e 750e aabe 8920 45bd 9e79 733d
00000040: d9b0 9c3e 8f32 aabd 5966 fc3e a090 eabc
00000050: a79e d6bd 8f11 5abe 22a0 b3bd 10de 11be
00000060: 9871 c13e da51 02bf ba81 a1be 796a 433e
00000070: 4369 f93e c63a eabd 3988 3cbe 86d9 da3e
00000080: 218c 9abd 1bbb 1cbe ba7e df3d b445 89bc
00000090: 2411 87be bf35 86be e656 cfbe 9c41 1fbf
000000a0: 70b2 773c 3179 e63d 7073 183e 4e98 043f
000000b0: cbe8 25be 3116 cb3d c581 cc3d 59ff b7bd
000000c0: 7f97 b93c 2215 fdbd 5cb0 f23e dccc 01be
000000d0: ecdf d53d 779d 1a3e 6a94 16bd fe8c 3abe
000000e0: 3d58 d0be 9d2d babd f26e 753d a40a 2cbe
000000f0: 0019 bfbe 45af 633d 2812 ddbe df2a 98be
00000100: 62e9 63be 3fe1 19bf a155 bb3d a42e b9be
00000110: 2682 af3e 9315 e3bd 2ce4 653e 490a 35be
00000120: 7325 b2be c011 223c 0a2a 05be bac2 2f3e
00000130: c5d4 f5bd eb2c 34be 8149 b1be f6f8 47bd
00000140: 877e 07be 969d 8fbe 4805 543e 4b11 d73d
00000150: 060f 013e 4694 c5be 9c55 2f3e d159 78bd
00000160: 25b7 b7be 33d2 4b3d a5fd 843c 16bb f13c
00000170: ebc9 8c3e 9f27 113e 2955 373d 3b14 9bbe
00000180: d64b ffbd 7b1d 773e 6755 423e 634e f73c
00000190: 1151 2cbe b629 233e fe38 0ebd 7fed 95bd
000001a0: 85b5 a1bd 90cb b93c 6f99 fcbe 8976 afbe
000001b0: f707 503d f602 cc3d e44f 963e d6b6 303e
000001c0: 9e82 ec3d 81c3 4c3e 3af3 67bc 734b 92bd
000001d0: feea 12be 2b3b 80be 973e 24bc 29fa 73be
000001e0: 3c45 993e 09b3 1f3e 50fc 51be 4ea6 ffbe
000001f0: 7d8a 9b3e 80c9 6ebe 1026 c53e bbe5 933e
00000200: 9daa 11be ce27 473d 4044 cfbe ab24 06be
00000210: 5328 4ebd 0afd 043e 4408 363e 9cf3 60be
00000220: f3f1 1b3c f974 0f3e 2508 f3bc 4913 afbd
00000230: 9854 463e 904e 893c c00e efbc 16d1 d6bd

inc.double_conv.4.weight f4 [4]
0.92307955 0.93778604 0.9350043 0.84485793
00000000: f14e 6c3f bf12 703f 715c 6f3f 9c48 583f

inc.double_conv.4.bias f4 [4]
-0.051584978 -0.0116381 -0.0062662996 -0.053223014
00000000: c54a 53bd bbad 3ebc 8855 cdbb 6000 5abd

inc.double_conv.4.running_mean f4 [4]
-0.0010416667 -0.0024368914 -0.001307568 4.52923e-05
00000000: 8988 88ba 41b4 1fbb b462 abba 3df8 3d38

inc.double_conv.4.running_var f4 [4]
0.00065232726 0.0008198957 0.0003712738 0.0007133068
00000000: f100 2b3a 45ee 563a 87a7 c239 36fd 3a3a

down1.maxpool_conv.1.double_conv.0.weight f4 [8, 4, 3, 3]
-0.26095372 -0.100816086 -0.23696129 -0.29337677 0.051253755 0.050993115 0.05942233 0.20601335
-0.38695595 0.12621671 -0.27404436 -0.36503518 -0.22082247 0.05789358 -0.48256332 -0.03892493
-0.17515133 -0.03271412 0.044064112 0.08934563 0.08796944 0.04443803 0.11517875 0.07635708
0.0059534223 -0.09315927 -0.30347148 -0.14124508 -0.08033822 -0.19903615 -0.054018673 -0.30549452
0.004748342 -0.41575763 -0.09872595 0.4340491 -0.13439354 -0.13783191 0.08738598 0.12876013
-0.39120668 0.061320428 0.07903073 0.18391192 0.10485812 -0.14309052 0.0435072 0.19197042
0.36965844 0.35567436 0.275114 0.028306475 0.21714948 0.2610591 -7.97685e-05 -0.104752675
0.293229 -0.074571796 -0.07086107 -0.04920916 -0.014589837 -0.09919785 0.14454637 0.019543644
0.03261912 0.016914869 -0.11152556 0.02959901 -0.108380996 0.09282359 0.18023251 -0.07408891
0.18763924 -0.09790906 0.03436998 -0.116643235 0.20042524 -0.14629795 -0.004085552 -0.002829231
-0.29492196 0.012529642 -0.12168673 0.27873325 -0.0056774165 0.07756253 0.0708258 -0.00062537857
0.14796461 -0.13742186 0.0016667026 0.37869295 0.097551085 -0.11733935 -0.016674902 -0.01288244
-0.023944745 -0.13576344 0.13865559 0.111718714 0.20571905 0.08161349 0.015139375 0.12704065
-0.18351515 -0.103472725 0.019807052 0.18160878 0.2450623 -0.06842372 -0.010145804 -0.10141118
-0.28529912 0.21420072 -0.14111008 -0.025950424 0.057644237 0.036299556 0.032274522 -0.048555598
-0.06816295 0.03324697 -0.053442203 -0.19473545 0.13269973 0.02376995 -0.33960113 0.021678064
0.1607936 -0.061074816 0.14401717 0.09735857 -0.12376356 0.27787772 -0.0143182 0.28409192
-0.10419186 0.070461154 0.0010218984 0.19894278 0.27635163 -0.29064855 -0.028898384 -0.16772367
-0.14590876 -0.11625582 -0.1816296 -0.19323656 -0.060126197 -0.15031247 -0.3518151 0.2460365
0.13837557 -0.014598773 -0.20763859 0.07522313 0.12597862 0.021084052 -0.042853706 0.28183904
-0.058863938 -0.15887597 0.0082090655 0.3515773 -0.090456344 -0.13455825 -0.022948394 0.32790875
0.28091618 0.034531914 -0.16650158 0.21073347 -0.1972554 -0.040529303 0.25483552 -0.5719917
0.06923843 0.30260196 -0.16543348 -0.2182475 -0.08346994 -0.18825972 0.27440828 0.26190373
0.28868955 0.061733484 -0.0878251 -0.049304355 0.26269093 0.06390982 0.05506063 0.016119028
0.23241678 0.23440164 0.05808776 -0.03939752 0.2737771 0.11197725 0.029386457 0.10338854
-0.17042519 0.10249579 0.023480458 0.16343993 -0.17061785 0.106143765 0.10655152 0.029337494
0.22235431 0.011450653 -0.024311237 -0.14625333 0.10901526 0.1173981 -0.058106158 -0.25286654
0.23691973 -0.008449296 0.054238293 0.011052805 0.14441465 -0.007862555 0.052000016 -0.19729573
-0.08454448 -0.025541142 -0.24236655 -0.10794117 0.14943175 0.12821762 0.14857179 -0.19226494
0.011162846 -0.40736946 -0.2634314 -0.24328488 -0.17872381 -0.46134743 -0.1396496 -0.15377104
0.258126 -0.0458944 -0.16352768 -0.16798337 -0.24427022 -0.20540006 0.08897484 0.28064802
0.0481673 0.11078116 0.14279443 -0.12721524 -0.12909852 -0.28016964 0.18499067 0.046293203
00000000: ba9b 85be aa78 cebd fba5 72be 7b35 96be
00000010: 75ef 513d 28de 503d d464 733d 2af5 523e
00000020: 171f c6be f43e 013e 8b4f 8cbe e4e5 babe
00000030: 491f 62be d221 6d3d 8a12 f7be bf6f 1fbd
00000040: df5a 33be 3eff 05bd 927c 343d d7fa b63d
00000050: 5229 b43d a704 363d d6e2 eb3d 1a61 9c3d
00000060: ed14 c33b 4aca bebd 9d60 9bbe 8da2 10be
00000070: 5d88 a4bd 22d0 4bbe af42 5dbd c769 9cbe
00000080: fb97 9b3b 2fde d4be d530 cabd af3b de3e
00000090: 769e 09be cf23 0dbe 6cf7 b23d b2d9 033e
000000a0: 3e4c c8be 212b 7b3d ddda a13d 6853 3c3e
000000b0: dbbf d63d 5286 12be 9b34 323d e593 443e
000000c0: df43 bd3e f31a b63e bedb 8c3e fbe2 e73c
000000d0: 6f5c 5e3e 8aa9 853e 6349 a7b8 9288 d6bd
000000e0: 1d22 963e 19b9 98bd 9c1f 91bd 8b8f 49bd
000000f0: 360a 6fbc 3e28 cbbd f703 143e fe19 a03c
00000100: a09b 053d 0d91 8a3c 8367 e4bd 9f79 f23c
00000110: dbf6 ddbd 4b1a be3d df8e 383e edbb 97bd
00000120: 8024 403e 8c84 c8bd 89c7 0c3d a6e2 eebd
00000130: 463c 4d3e 21cf 15be 18e0 85bb 9f6a 39bb
00000140: 0300 97be 2149 4d3c e436 f9bd 20b6 8e3e
00000150: 9f09 babb 1bd9 9e3d 1e0d 913d 72f0 23ba
00000160: 0984 173e 51b8 0cbe 4275 da3a 0be4 c13e
00000170: ddc8 c73d 9d4f f0bd ce99 88bc df10 53bc
00000180: c527 c4bc 9205 0bbe bbfb 0d3e c8cc e43d
00000190: 04a8 523e f924 a73d 240b 783c f216 023e
000001a0: 65eb 3bbe 82e9 d3bd 6642 a23c a7f7 393e
000001b0: 9df1 7a3e bc21 8cbd 963a 26bc aab0 cfbd
000001c0: ba12 92be 6f57 5b3e 297f 10be fc95 d4bc
000001d0: 5d1c 6c3d d8ae 143d 4a32 043d 3ce2 46bd
000001e0: 0499 8bbd fa2d 083d 36e6 5abd bb68 47be
000001f0: 70e2 073e 33b9 c23c 33e0 adbe 3296 b13c
00000200: 14a7 243e 9629 7abd 3d79 133e ee63 c73d
00000210: c077 fdbd fd45 8e3e e296 6abc 7f74 913e
00000220: 8b62 d5bd f04d 903d 38f1 853a a8b7 4b3e
00000230: f67d 8d3e e3cf 94be 4ebc ecbc c1bf 2bbe
00000240: 1b69 15be 8817 eebd 1cfd 39be cedf 45be
00000250: e346 76bd 83eb 19be 1c21 b4be fef0 7b3e
00000260: 53b2 0d3e b12f 6fbc 369f 54be 960e 9a3d
00000270: 8a00 013e 76b8 ac3c 5e87 2fbd 354d 903e
00000280: 501b 71bd 62b0 22be 517f 063c f101 b43e
00000290: 2d41 b9bd a3c9 09be 45fe bbbc a8e3 a73e
000002a0: 3fd4 8f3e 5671 0d3d 647f 2abe 84ca 573e
000002b0: 52fd 49be 0e02 26bd cd79 823e 0c6e 12bf
000002c0: e1cc 8d3d a5ee 9a3e 6567 29be 467c 5fbe
000002d0: 4af2 aabd 28c7 40be 3e7f 8c3e 3f18 863e
000002e0: 1ecf 933e 40dc 7c3d a5dd b3bd 5df3 49bd
000002f0: 6d7f 863e 27e3 823d 4187 613d 0d0c 843c
00000300: aafe 6d3e fc06 703e 6eed 6d3d 4b5f 21bd
00000310: 832c 8c3e 5454 e53d debb f03c 5fbd d33d
00000320: f183 2ebe 50e9 d13d 175a c03c cc5c 273e
00000330: 72b6 2ebe e761 d93d af37 da3d 2f55 f03c
00000340: d9b0 633e 859b 3b3c 5c28 c7bc 6fc3 15be
00000350: 6543 df3d 6a6e f03d b900 6ebd b977 81be
00000360: 169b 723e ea6e 0abc f928 5e3d d316 353c
00000370: 6fe1 133e f2d1 00bc f8fd 543d e407 4abe
00000380: a825 adbd a83b d1bc f02e 78be 4310 ddbd
00000390: a304 193e 7b4b 033e 3423 183e 1ae1 44be
000003a0: 5fe4 363c bb92 d0be 7be0 86be ac1f 79be
000003b0: 6003 37be bb35 ecbe 4e00 0fbe 2876 1dbe
000003c0: 1729 843e c4fb 3bbd cd73 27be d503 2cbe
000003d0: f921 7abe 6554 52be 7138 b63d 19b1 8f3e
000003e0: 134b 453d 3ce1 e23d b438 123e b644 02be
000003f0: 6732 04be 6572 8fbe 326e 3d3e f19d 3d3d

down1.maxpool_conv.1.double_conv.1.weight f4 [8]
0.9900041 1.0165867 1.0006545 0.9566842 0.98536265 0.97811985 0.9751499 1.0512404
00000000: e970 7d3f 831f 823f 7215 803f 41e9 743f
00000010: ba40 7c3f 1066 7a3f 6da3 793f 0c8f 863f

down1.maxpool_conv.1.double_conv.1.bias f4 [8]
0.01908838 0.015426709 0.036213983 0.053324495 -0.01677287 0.029349176 0.0549688 0.048144024
00000000: 3c5f 9c3c 4fc0 7c3c 1d55 143d c96a 5a3d
00000010: 4267 89bc af6d f03c f726 613d ab32 453d

down1.maxpool_conv.1.double_conv.1.running_mean f4 [8]
-0.2687758 0.15192573 0.086852275 0.022035822 -0.03442826 0.17212048 -0.17521408 0.16987991
00000000: fb9c 89be 6b92 1b3e 9bdf b13d 7884 b43c
00000010: a604 0dbd 5a40 303e 526b 33be 00f5 2d3e

down1.maxpool_conv.1.double_conv.1.running_var f4 [8]
1.536073 0.25090948 0.2872527 0.46695295 0.6192529 0.49262488 0.60538 1.4860529
00000000: 0a9e c43f 3577 803e c912 933e 7514 ef3e
00000010: 5c87 1e3f 5439 fc3e 2ffa 1a3f fb36 be3f

down1.maxpool_conv.1.double_conv.3.weight f4 [8, 8, 3, 3]
-0.30562556 -0.14037554 0.10703277 -0.12622179 -0.29326138 0.006729934 -0.09423292 -0.015020375
0.0729932 -0.3007873 0.20912491 -0.273302 0.123585775 -0.058654077 0.013223354 -0.07400646
-0.2702771 -0.21841703 -0.018817049 -0.12796131 0.17776692 -0.119151674 0.106984556 -0.12839584
-0.06229223 -0.15824893 -0.25696725 0.117035285 -0.30716938 -0.16482773 -0.23438601 -0.11682612
-0.4013809 -0.05158056 -0.24471867 -0.012021421 -0.1489926 -0.11093658 0.048494354 0.089219086
-0.12056724 -0.035531078 -0.34776974 -0.22510621 0.058531377 0.16022593 0.017223181 -0.35693833
-0.15851784 -0.06325474 -0.34286335 0.30595928 0.13644598 -0.20716122 -0.06869896 0.20112714
-0.080419175 0.0909929 -0.09754327 -0.29368657 -0.08637703 0.058181666 0.07619407 -0.004653982
-0.078386165 0.05331835 -0.079371154 -0.027282828 -0.035526264 -0.27454162 -0.13026431 -0.2756155
-0.089802414 0.3174118 -0.076062985 -0.16556455 -0.061124984 -0.048118543 -0.061588313 0.25496244
-0.06709906 0.017337319 -0.040394608 -0.036210712 -0.088644415 -0.08293947 -0.5065229 -0.11404297
0.04534647 0.008747682 -0.10002025 0.15557237 -0.48745617 -0.04451542 -0.06662449 -0.050198577
0.05365404 -0.00069416186 0.2099047 -0.103583366 0.2553403 0.2011571 0.05770976 0.044888165
-0.29285643 0.0018642086 0.2161953 -0.05739957 0.028196827 -0.1316023 0.16849248 0.024118865
-0.46258602 -0.10793999 -0.20833065 0.032438498 0.033041283 0.0412955 -0.057558656 0.035271052
-0.0626412 -0.12626618 -0.1286184 -0.22040136 -0.1841733 0.20727466 -0.08158742 0.20457472
0.22482301 0.11284294 -0.04159403 -0.02619828 -0.20022324 0.0828625 -0.2938256 -0.09092064
-0.15064518 -0.22282161 -0.1463723 0.03788816 -0.06825885 0.04625104 0.17656486 -0.22451143
0.09979567 -0.08612301 -0.284653 -0.22376177 -0.44542366 0.061731037 0.33707544 0.020066107
0.12142668 0.28078562 -0.23780617 -0.093257055 -0.2877037 0.009645021 0.04015558 0.040014055
-0.096485205 0.16168733 -0.12947023 -0.24040878 -0.4426927 0.04286726 0.15170167 -0.0028753788
0.16712238 0.039300032 0.10194921 -0.021056294 -0.12419962 0.02006842 -0.050523218 -0.050879348
0.0065712254 -0.0954888 -0.0047902754 0.08672295 0.019500162 0.09759151 -0.17497946 -0.41005677
0.13436987 -0.2011135 0.099659026 -0.04723684 -0.26957834 0.29503536 0.3195434 -0.22812715
0.13550016 -0.07398509 -0.2681673 -0.10275397 -0.1161595 -0.14229666 -0.37919915 0.23849289
0.31837043 0.0917916 0.23812906 -0.21637714 -0.08425404 -0.1336387 -0.061967943 -0.3533824
-0.048546635 -0.20586689 -0.0130004035 0.054996278 -0.28592816 -0.058782924 0.21156722 -0.082635246
-0.21681778 -0.17748095 0.030940097 0.16384244 0.49827746 -0.056278795 0.039164513 0.15326807
0.006983542 -0.0518272 -0.2439242 -0.4158672 -0.24690229 -0.07458966 0.04566987 -0.25086033
-0.12968075 0.1344219 0.19165869 0.14623354 -0.14001058 0.10963305 -0.0857146 0.045022216
-0.17451277 0.054990556 0.1592998 -0.14856026 0.0040922444 -0.24232796 -0.1992742 0.12914121
-0.00784954 -0.13567664 -0.07964751 0.027072512 -0.09518266 0.12815186 -0.17736593 0.17722423
00000000: f47a 9cbe 9bbe 0fbe ff33 db3d 4940 01be
00000010: 5b26 96be c786 dc3b 30fd c0bd 0518 76bc
00000020: 757d 953d cb00 9abe d724 563e 3dee 8bbe
00000030: 8a1a fd3d 423f 70bd c4a6 583c b390 97bd
00000040: c361 8abe b7a8 5fbe 3626 9abc 4a08 03be
00000050: 8808 363e cb05 f4bd b81a db3d 337a 03be
00000060: 2326 7fbd 020c 22be 3691 83be 32b0 ef3d
00000070: 4e45 9dbe 9ac8 28be e302 70be 8842 efbd
00000080: cc81 cdbe 2346 53bd 8897 7abe 7ff5 44bc
00000090: 8491 18be b832 e3bd 04a2 463d 7fb8 b63d
000000a0: f5eb f6bd 0989 11bd e00e b2be 3e82 66be
000000b0: 99be 6f3d 4412 243e a117 8d3c 9fc0 b6be
000000c0: 8052 22be b38b 81bd c98b afbe b2a6 9c3e
000000d0: 7fb8 0b3e 1222 54be 0ab2 8cbd 46f4 4d3e
000000e0: cfb2 a4bd 7c5a ba3d c4c4 c7bd 165e 96be
000000f0: 71e6 b0bd e64f 6e3d a30b 9c3d 6e80 98bb
00000100: ed88 a0bd 5864 5a3d 588d a2bd 3d80 dfbc
00000110: fd83 11bd b890 8cbe 0264 05be 7a1d 8dbe
00000120: 54ea b7bd cd83 a23e e9c6 9bbd c189 29be
00000130: 315e 7abd f317 45bd 0744 7cbd 708a 823e
00000140: 3b6b 89bd fe06 8e3c d174 25bd af51 14bd
00000150: 348b b5bd 2bdc a9bd 7cab 01bf 5c8f e9bd
00000160: 38bd 393d 7052 0f3c 6bd7 ccbd 5d4e 1f3e
00000170: db93 f9be cd55 36bd 6c72 88bd 069d 4dbd
00000180: 57c4 5b3d 6af8 35ba 42f1 563e 8423 d4bd
00000190: f7bb 823e 20fc 4d3e 1261 6c3d a7dc 373d
000001a0: 47f1 95be 7658 f43a 4d62 5d3e d01b 6bbd
000001b0: 08fd e63c c1c2 06be 4b89 2c3e ed94 c53c
000001c0: 13d8 ecbe a40f ddbd a154 55be 3bde 043d
000001d0: 4c56 073d 7825 293d a0c2 6bbd 6178 103d
000001e0: 084a 80bd ec4b 01be 8bb4 03be e5b0 61be
000001f0: ed97 3cbe cf3f 543e 4e17 a7bd 097c 513e
00000200: 0138 663e 331a e73d 805e 2abd c69d d6bc
00000210: 5207 4dbe d0b3 a93d 4f70 96be 9a34 babd
00000220: bb42 1abe 592b 64be 9fe2 15be 9e30 1b3d
00000230: 4ccb 8bbd bb71 3d3d 6bcd 343e 53e6 65be
00000240: ac61 cc3d 4361 b0bd 0abe 91be ce21 65be
00000250: 920e e4be afd9 7c3d 2795 ac3e ad61 a43c
00000260: 8dae f83d 22c3 8f3e 7683 73be 8efd bebd
00000270: e64d 93be 2606 1e3c 2d7a 243d c7e5 233d
00000280: 099a c5bd 5d91 253e d893 04be b82d 76be
00000290: 9ea8 e2be 9495 2f3d af57 1b3e da70 3cbb
000002a0: 2122 2b3e 12f9 203d bfca d03d 407e acbc
000002b0: 5f5c febd 8766 a43c 6ff1 4ebd dd66 50bd
000002c0: 6f53 d73b a28f c3bd bef7 9cbb cd9b b13d
000002d0: cebe 9f3c 0fde c73d d12d 33be f6f2 d1be
000002e0: 4198 093e b3f0 4dbe 081a cc3d 6b7b 41bd
000002f0: 2c06 8abe e00e 973e 319b a33e 2a9a 69be
00000300: 8ec0 0a3e 7f85 97bd 394d 89be ac70 d2bd
00000310: 08e5 edbd 37b6 11be 6426 c2be 7b37 743e
00000320: 7301 a33e 3cfd bb3d 1bd8 733e f891 5dbe
00000330: 628d acbd 95d8 08be 19d2 7dbd 8aee b4be
00000340: d6d8 46bd c5ce 52be a5ff 54bc c743 613d
00000350: 2d65 92be 5dc6 70bd 14a5 583e ab3c a9bd
00000360: 7b05 5ebe 91bd 35be 1676 fd3c 50c6 273e
00000370: 391e ff3e 9884 66bd f86a 203d 4ef2 1c3e
00000380: 32d6 e43b c248 54bd 44c7 79be 8cec d4be
00000390: f4d3 7cbe 77c2 98bd 5410 3b3d c470 80be
000003a0: 08cb 04be e5a5 093e 2d42 443e 3fbe 153e
000003b0: ef5e 0fbe 4b87 e03d 238b afbd 3769 383d
000003c0: 7ab3 32be c73d 613d 7d1f 233e 2e20 18be
000003d0: 3c18 863b d224 78be 890e 4cbe 983d 043e
000003e0: 5b9b 00bc d1ee 0abe 3c1e a3bd 2cc7 dd3c
000003f0: 20ef c2bd 3e3a 033e 6a9f 35be 457a 353e

down1.maxpool_conv.1.double_conv.4.weight f4 [8]
1.0488675 1.0341754 0.9528064 0.9511894 0.968099 0.95557123 0.9410836 0.9599145
00000000: 4a41 863f dc5f 843f 1feb 733f 2681 733f
00000010: 56d5 773f 51a0 743f dbea 703f f5bc 753f

down1.maxpool_conv.1.double_conv.4.bias f4 [8]
0.054978743 0.03750015 -0.050086427 -0.022592539 0.00036596952 0.02665381 -0.06945117 -0.063739166
00000000: 6431 613d c299 193d 6d27 4dbd fd13 b9bc
00000010: 99df bf39 1759 da3c 6a3c 8ebd ae89 82bd

down1.maxpool_conv.1.double_conv.4.running_mean f4 [8]
-0.76946384 -0.33078793 -0.3568982 -0.13998781 -0.13673463 -0.4024137 -0.3435056 -0.23015015
00000000: 95fb 44bf 095d a9be 5cbb b6be f758 0fbe
00000010: 2a04 0cbe 2b09 cebe f7df afbe 7bac 6bbe

down1.maxpool_conv.1.double_conv.4.running_var f4 [8]
7.6749015 2.455737 2.0117865 2.5960336 1.9056114 4.9964433 2.2925303 2.4480145
00000000: cb98 f540 cc2a 1d40 1cc1 0040 6a25 2640
00000010: 13eb f33f dde2 9f40 d1b8 1240 45ac 1c40

down2.maxpool_conv.1.double_conv.0.weight f4 [16, 8, 3, 3]
-0.08995435 -0.021577755 0.019171163 0.26433685 0.099483706 -0.10969628 -0.1410666 -0.055614263
-0.12589847 -0.016088411 -0.1530353 -0.0032367238 -0.17808445 -0.003104923 0.06546757 0.057205234
-0.013775347 -0.052808292 0.3052543 0.16498673 0.11841932 0.102182776 -0.15367983 0.019900357
-0.03588164 0.12627602 -0.23003909 0.055782292 0.19124886 0.13475107 -0.13085294 -0.028782533
-0.04212747 -0.076718695 0.027685866 0.1193773 0.16011079 -0.054976754 -0.042289905 0.051590648
0.051948443 0.12904876 -0.03515192 0.017656608 0.15336242 0.049036477 -0.09950795 0.032629635
-0.034604758 0.071044244 0.01327228 0.26263568 0.0078001204 -0.10886208 0.07578428 0.0302558
0.20450015 -0.087987185 0.12550418 0.15119873 0.068756536 0.027155206 0.030166484 0.07092158
0.17150868 0.096786804 -0.24295157 0.0053358227 -0.073441364 0.02882097 -0.035603218 0.13266818
-0.015676606 0.21851195 -0.018501872 0.024046985 -0.3185946 0.10176862 -0.11587804 -0.093075395
-0.04118918 -0.06037271 -0.10647162 -0.24507928 0.047225337 -0.037047967 0.24851504 0.16086812
-0.29998884 0.013411908 -0.057992846 -0.071290165 0.08905947 -0.118451476 -0.018470857 0.03775767
0.03141924 0.15819883 0.2846609 -0.03642187 0.0046904874 0.062293965 -0.03955913 -0.0129738655
0.14042458 -0.08281313 0.111481026 -0.090907976 -0.23213741 0.008375685 -0.07116758 0.023634486
-0.05062039 -0.039945234 -0.1061395 -0.09719797 -0.033660147 -0.15916191 0.08641717 0.14047578
0.06463741 -0.029004 -0.1271674 -0.121633925 -0.023008788 -0.020155171 0.18087082 0.049588837
-0.016501047 -0.12552467 0.016783424 -0.08951634 0.10204172 0.032563377 0.009079954 0.08286197
0.14342067 -0.11765425 0.05551331 -0.032207422 0.052674454 -0.01773874 -0.021193225 -0.0013573609
-0.037657537 0.013789109 -0.3651766 0.13782649 -0.021967348 -0.13051495 0.029835083 0.16769013
0.05708502 0.032678824 -0.01889625 -0.078452654 -0.17092618 0.019255515 0.041313745 -0.015104815
-0.008336456 0.06325263 -0.0779395 -0.04961507 -0.06849265 -0.048917647 -0.1199052 0.10534136
0.13633989 -0.042961713 0.061646923 -0.054641303 0.025582163 -0.02795682 0.07221157 0.117595226
-0.08454618 -0.094133854 0.121869005 -0.019743437 0.011052563 0.047322854 -0.0031174636 -0.24522449
0.11659755 0.06572607 0.11909687 0.034017257 -0.07801098 -0.0151512595 0.24280089 -0.27702734
-0.06341769 0.031581424 0.1721356 0.20865452 0.055053785 -0.07531596 0.08969186 0.07203556
0.29827678 0.2631004 0.15231283 0.0022221266 0.243398 0.011702988 0.015429458 0.15389094
0.040272985 0.1908624 0.0705361 0.05535152 0.058780648 0.14462458 0.068524495 0.047003593
-0.12635039 -0.14042623 0.2301349 -0.1489232 -0.006154872 0.08163287 0.07043364 0.016592016
-0.070452556 0.19794492 -0.056847166 -0.21727824 -0.105764635 -0.08001226 0.114654124 0.19202334
0.18288875 0.07134729 -0.10234137 0.040271975 0.1802211 -0.08848068 -0.120667495 -0.016548833
0.032255877 0.096178345 0.08028792 -0.15471768 -0.20239815 -0.18451653 -0.06279332 0.024165584
-0.015510475 -0.13745521 0.022858048 0.042441387 0.16141462 -0.029903853 -0.20572019 -0.00864535
00000000: fc39 b8bd d5c3 b0bc d80c 9d3c 2957 873e
00000010: 1dbe cb3d 71a8 e0bd c373 10be c8cb 63bd
00000020: 87eb 00be d8cb 83bc 49b5 1cbe 371f 54bb
00000030: c55b 36be f77b 4bbb dd13 863d 0950 6a3d
00000040: feb1 61bc 824d 58bd 4b4a 9c3e 48f2 283e
00000050: d485 f23d 3445 d13d 3f5e 1dbe 1306 a33c
00000060: a0f8 12bd 804e 013e 5e8f 6bbe f97b 643d
00000070: bed6 433e 2ffc 093e 50fe 05be 59c9 ebbc
00000080: db8d 2cbd b11e 9dbd 78cd e23c 167c f43d
00000090: 15f4 233e 4e2f 61bd 2e38 2dbd b750 533d
000000a0: e4c7 543d 5c25 043e 76fb 0fbd 97a4 903c
000000b0: 0a0b 1d3e 79da 483d d3ca cbbd a7a6 053d
000000c0: b8bd 0dbd a57f 913d fa73 593c 2f78 863e
000000d0: 2798 ff3b 15f3 debd ca34 9b3d 03db f73c
000000e0: 7d68 513e a032 b4bd 2b84 003e d7d3 1a3e
000000f0: 3ad0 8c3d 9874 de3c b41f f73c 553f 913d
00000100: f99f 2f3e 2938 c63d 4cc8 78be 20d8 ae3b
00000110: 6d68 96bd f419 ec3c aed4 11bd 2bda 073e
00000120: 3a6c 80bc 99c1 5f3e 3d91 97bc 2ffe c43c
00000130: d51e a3be 116c d03d 7751 edbd 509e bebd
00000140: fcb5 28bd 6049 77bd cb0d dabd 10f6 7abe
00000150: 5b6f 413d 9cbf 17bd ba7a 7e3e 9dba 243e
00000160: 2398 99be 9fbd 5b3c e889 6dbd 9400 92bd
00000170: d064 b63d b096 f2bd 3250 97bc c9a7 1a3d
00000180: 76b1 003d e0fe 213e 13bf 913e 192f 15bd
00000190: a9b2 993b f527 7f3d c108 22bd 5690 54bc
000001a0: 76cb 0f3e ee99 a9bd 2a50 e43d f62d babd
000001b0: 6eb5 6dbe 2b3a 093c 4fc0 91bd 1c9d c13c
000001c0: 5357 4fbd 9d9d 23bd ab5f d9bd bb0f c7bd
000001d0: 39df 09bd 57fb 22be 7cfb b03d e2d8 0f3e
000001e0: 9e60 843d cc99 edbc 2c38 02be 351b f9bd
000001f0: ed7c bcbc 751c a5bc 3336 393e aa1d 4b3d
00000200: 342d 87bc 8a89 00be 647d 893c 5854 b7bd
00000210: 40fb d03d 2d61 053d 16c4 143c 89b3 a93d
00000220: dedc 123e b6f4 f0bd ed61 633d eeeb 03bd
00000230: 2bc1 573d d650 91bc 6a9d adbc 79e9 b1ba
00000240: ca3e 1abd b7eb 613c 6df8 babe 6322 0d3e
00000250: def4 b3bc b6a5 05be b468 f43c f6b6 2b3e
00000260: fbd1 693d 3bda 053d 4fcc 9abc c9ab a0bd
00000270: 4607 2fbe bebd 9d3c 9a38 293d 307a 77bc
00000280: a195 08bc 988a 813d bf9e 9fbd 2c39 4bbd
00000290: e045 8cbd df5d 48bd dc90 f5bd 36bd d73d
000002a0: af9c 0b3e 9ff8 2fbd 7c81 7c3d 8fcf 5fbd
000002b0: af91 d13c b305 e5bc a9e3 933d c4d5 f03d
000002c0: 8c26 adbd 40c9 c0bd 7596 f93d fdbc a1bc
000002d0: cf15 353c 9cd5 413d 5c4e 4cbb 211c 7bbe
000002e0: b2ca ee3d 649b 863d 0fe9 f33d ae55 0b3d
000002f0: 38c4 9fbd fd3c 78bc cca0 783e 87d6 8dbe
00000300: 22e1 81bd 865b 013d 5144 303e 88a9 553e
00000310: 1480 613d 413f 9abd 5eb0 b73d 6187 933d
00000320: bcb7 983e 18b5 863e e5f7 1b3e 19a1 113b
00000330: 533d 793e e4bd 3f3c d6cb 7c3c 9695 1d3e
00000340: 49f5 243d 6f71 433e 3b75 903d 47b8 623d
00000350: fac3 703d 7718 143e 9256 8c3d d786 403d
00000360: ff61 01be e5cb 0fbe 7ca8 6b3e 537f 18be
00000370: cfae c9bb 222f a73d 833f 903d fbeb 873c
00000380: 6e49 90bd 13b2 4a3e 93d8 68bd 307e 5ebe
00000390: 219b d8bd 78dd a3bd c8cf ea3d c4a1 443e
000003a0: 3047 3b3e 871e 923d 5a98 d1bd 3af4 243d
000003b0: e18b 383e 5c35 b5bd 8520 f7bd 6b91 87bc
000003c0: bd1e 043d 27f9 c43d fe6d a43d 506e 1ebe
000003d0: 7641 4fbe e7f1 3cbe c999 80bd e7f6 c53c
000003e0: a61f 7ebc 0fc1 0cbe cd40 bb3c 05d7 2d3d
000003f0: e049 253e edf8 f4bc 50a8 52be 3aa5 0dbc

down2.maxpool_conv.1.double_conv.1.weight f4 [16]
1.029845 1.0160036 1.0169967 0.9921259 0.99747604 0.98975056 1.0008769 1.0212736
0.976358 0.9628849 0.9736034 1.02411 1.0064021 0.980198 0.983339 0.9928569
00000000: f6d1 833f 680c 823f f32c 823f f7fb 7d3f
00000010: 975a 7f3f 4b60 7d3f bc1c 803f 18b9 823f
00000020: 99f2 793f a07f 763f 133e 793f 0916 833f
00000030: c9d1 803f 42ee 7a3f 1bbc 7b3f df2b 7e3f

down2.maxpool_conv.1.double_conv.1.bias f4 [16]
0.050229527 0.015065665 0.037286293 -0.0026817082 -0.012470958 0.010092053 0.0077417325 0.07785922
0.013205003 -0.01511847 -0.0077012307 0.04712442 -0.0025988638 0.014237696 0.028061295 0.032117106
00000000: 7abd 4d3d fbd5 763c 83b9 183d 99bf 2fbb
00000010: fd52 4cbc 2359 253c 5cae fd3b a874 9f3d
00000020: cc59 583c 76b3 77bc 9b5a fcbb 8905 413d
00000030: b351 2abb 3a45 693c cde0 e53c 3a8d 033d

down2.maxpool_conv.1.double_conv.1.running_mean f4 [16]
0.17320839 -0.18081793 0.19973406 -0.049138043 -0.1227117 0.17256866 -0.17176315 0.07232468
-0.35087237 0.10067796 -0.21636376 -0.28668058 0.10630067 -0.0671302 0.14257276 -0.17453457
00000000: 8a5d 313e 5628 39be 1687 4c3e f944 49bd
00000010: 4650 fbbd d7b5 303e aee2 2fbe f61e 943d
00000020: 8ba5 b3be 3f30 ce3d 768e 5dbe ccc7 92be
00000030: 2ab4 d93d 8f7b 89bd 98fe 113e 31b9 32be

down2.maxpool_conv.1.double_conv.1.running_var f4 [16]
0.05058159 0.022919605 0.12021946 0.038983166 0.052515987 0.032209232 0.012935107 0.06178435
0.033002764 0.02032199 0.061765533 0.06590356 0.043398913 0.036312953 0.040106498 0.038166378
00000000: a42e 4f3d e5c1 bb3c 9f35 f63d d0ac 1f3d
00000010: 011b 573d d4ed 033d c5ed 533c 9611 7d3d
00000020: e82d 073d 4d7a a63c dbfd 7c3d 72f8 863d
00000030: 0fc3 313d e4bc 143d b646 243d 5954 1c3d

down2.maxpool_conv.1.double_conv.3.weight f4 [16, 16, 3, 3]
-0.022829233 0.03985413 0.098265305 -0.029692812 -0.013172939 -0.16412424 -0.071838215 -0.065891914
-0.11136191 0.004114941 0.0005061602 -0.16948275 0.31025332 0.30265552 -0.16678682 0.12836163
-0.11486312 0.019749088 -0.12066797 -0.13124874 0.17424694 0.096062444 -0.04234639 -0.21178427
0.15597503 -0.05165744 -0.123707466 0.12363852 -0.1227767 -0.13799918 -0.24561639 -0.089996435
-0.018334428 -0.063091464 0.23553716 0.3354772 -0.15427545 0.005003117 0.12676786 -0.24937674
-0.0020874816 0.1368785 -0.18458436 -0.3267467 -0.055156745 0.28321156 0.24514993 0.053071972
-0.0075954893 0.04444757 -0.03985584 -0.0614865 0.26470244 0.02048249 -0.10261655 -0.06024792
-0.17021428 -0.018470922 -0.048357815 0.12508169 0.0011341798 0.07259186 0.1296175 -0.23801142
0.095510535 -0.0005294838 0.23039807 0.15774621 0.15028833 -0.16391423 -0.12675406 -0.024511354
0.13985871 -0.08079231 0.07692112 0.038362045 -0.08988511 0.09209047 -0.23769383 0.11508401
-0.12970528 0.023379581 0.19848807 -0.0037998173 -0.08026957 -0.16375375 -0.028631277 0.09155257
-0.0045761974 -0.17180051 0.049642477 0.023873163 -0.07288676 -0.11408024 0.1322041 0.16755138
-0.025762534 -0.25822598 -0.13465239 0.02142451 -0.05215066 -0.029813064 -0.115527146 0.18824914
-0.18463811 -0.015169728 -0.06551671 -0.1414186 0.18998864 0.01654807 -0.18245743 -0.18403232
-0.014188054 -0.07889553 -0.01577618 0.17654146 0.046244256 -0.012398911 0.08164476 0.025687162
0.10025384 -0.1674445 -0.13517891 -0.108523674 -0.058648117 -0.109892346 0.104709655 0.011082797
0.11362097 -0.09729108 -0.00068578165 -0.18533133 -0.13886645 -0.10019406 0.023257349 -0.13864589
-0.13138999 -0.0012581568 0.17017044 -0.20345347 -0.092329256 -0.04982168 -0.044047207 0.11091788
-0.17402719 -0.049248528 -0.29019472 0.07863036 -0.11929686 0.10924861 -0.023418294 -0.009846206
0.02812847 -0.0035965114 0.15297578 -0.041718412 -0.16204455 -0.15161334 -0.115326874 0.0140849175
-0.038150996 0.057714872 -0.12962191 -0.055148486 -0.038085256 -0.06539544 0.20289737 0.04990083
-0.054470036 0.04846111 -0.13973282 -0.07847897 0.055261638 -0.0882868 0.036324613 -0.1507073
-0.1610202 -0.3744559 -0.13401161 0.11024094 0.08603739 0.05728527 0.038410332 -0.034261346
0.03744905 -0.11166874 -0.08557527 0.14897105 -0.18893969 -0.104000546 -0.084298894 -0.22394554
-0.08917132 -0.055030808 -0.12346012 0.23905633 -0.026531857 -0.17000912 -0.0947016 0.09696039
0.086428165 -0.2037468 0.13306262 -0.09708954 -0.15625814 -0.009600912 -0.016583553 -0.073649965
0.10104738 0.13479386 -0.19928679 -0.15615156 0.052961975 -0.09891722 -0.26504895 -0.061331976
-0.04262684 0.0037389568 0.22462615 -0.07544494 -0.089786686 2.8175518e-06 -0.018615086 0.04579931
0.11738317 -0.042049963 -0.015721772 0.09599407 -0.09695743 -0.02289334 -0.15013564 -0.05678212
-0.07118602 -0.24183482 -0.108459085 -0.11036053 0.1045566 0.0956044 -0.0053472803 -0.18040733
-0.015368136 0.05244467 0.028564306 -0.04199985 -0.07109515 -0.07745236 0.16934338 0.041731782
-0.118874535 0.058080614 0.10142349 0.14124139 0.05002381 0.16405988 0.07189627 -0.040923882
00000000: 5f04 bbbc 163e 233d 523f c93d 573e f3bc
00000010: 50d3 57bc 2f10 28be ea1f 93bd 57f2 86bd
00000020: b711 e4bd a1d6 863b d6af 043a e38c 2dbe
00000030: 86d9 9e3e aaf5 9a3e 2aca 2abe 3b71 033e
00000040: 5b3d ebbd d7c8 a13c c520 f7bd 1266 06be
00000050: ca6d 323e 63bc c43d 6973 2dbd fadd 58be
00000060: ebb7 1f3e c096 53bd 575a fdbd 3136 fd3d
00000070: 5a72 fbbd a84f 0dbe dd82 7bbe 0d50 b8bd
00000080: 1532 96bc 1936 81bd a730 713e abc3 ab3e
00000090: 62fa 1dbe 30f1 a33b 6fcf 013e 9e5c 7fbe
000000a0: 21ce 08bb e129 0c3e af03 3dbe 584b a7be
000000b0: 0aec 61bd 1b01 913e 9508 7b3e ff61 593d
000000c0: 95e3 f8bb a80e 363d e13f 23bd 45d9 7bbd
000000d0: 1487 873e e5ca a73c a028 d2bd 86c6 76bd
000000e0: a74c 2ebe 5550 97bc d812 46bd 6a15 003e
000000f0: c2a8 943a 0bab 943d 73ba 043e 44b9 73be
00000100: 079b c33d 0ecd 0aba 79ed 6b3e 3988 213e
00000110: 2fe5 193e 22d9 27be d1cb 01be 09cc c8bc
00000120: 1f37 0f3e 7076 a5bd d288 9d3d 8521 1d3d
00000130: af15 b8bd ee99 bc3d 0366 73be 2ab1 eb3d
00000140: 76d1 04be 8986 bf3c 7540 4b3e 5b06 79bb
00000150: 5f64 a4bd 10af 27be 248c eabc ea7f bb3d
00000160: edf3 95bb 79ec 2fbe e955 4b3d a791 c33c
00000170: a745 95bd e7a2 e9bd 8360 073e 9792 2b3e
00000180: f30b d3bc 3236 84be 51e2 09be 7482 af3c
00000190: ee9b 55bd 873a f4bc 7f99 ecbd 62c4 403e
000001a0: c611 3dbe 738a 78bc a02d 86bd 0ad0 10be
000001b0: 628c 423e d18f 873c 1fd6 3abe f872 3cbe
000001c0: 0375 68bc fb93 a1bd 0c3d 81bc 49c7 343e
000001d0: 9e6a 3d3d cd24 4bbc 5e35 a73d e26d d23c
000001e0: e351 cd3d 9276 2bbe 576c 0abe a941 debd
000001f0: 0239 70bd 3d0f e1bd 0472 d63d 9f94 353c
00000200: 1cb2 e83d 8c40 c7bd 07c6 33ba 7fc7 3dbe
00000210: 0233 0ebe 8b32 cdbd 3286 be3c 30f9 0dbe
00000220: 198b 06be bde8 a4ba 2941 2e3e 1b56 50be
00000230: 1f17 bdbd d111 4cbd d86a 34bd ea28 e33d
00000240: 2f34 32be d3b8 49bd 6794 94be f408 a13d
00000250: ea51 f4bd bcbd df3d b9d7 bfbc fb51 21bc
00000260: ad6d e63c 73b3 6bbb afa5 1c3e ede0 2abd
00000270: 02ef 25be 8740 1bbe 7f30 ecbd 6dc4 663c
00000280: 3844 1cbd 6e66 6c3d 9bbb 04be 61e3 61bd
00000290: 49ff 1bbd 0bee 85bd 54c4 4f3e d064 4c3d
000002a0: f91b 5fbd 287f 463d 1f16 0fbe 95b9 a0bd
000002b0: 075a 623d b6cf b4bd 1ec9 143d 0453 1abe
000002c0: 7be2 24be afb8 bfbe 573a 09be 00c6 e13d
000002d0: 5f34 b03d f6a3 6a3d 2754 1d3d a055 0cbd
000002e0: 2d64 193d 95b2 e4bd 1642 afbd de8b 183e
000002f0: 6879 41be 3dfe d4bd e6a4 acbd fb51 65be
00000300: 749f b6bd fc67 61bd a9d8 fcbd 2fcb 743e
00000310: 5659 d9bc df16 2ebe eaf2 c1bd 2b93 c63d
00000320: 4001 b13d 00a3 50be 9141 083e e1d6 c6bd
00000330: 2202 20be 254d 1dbc 3bda 87bc cbd5 96bd
00000340: eef1 ce3d 6707 0a3e d611 4cbe 32e6 1fbe
00000350: a8ee 583d 1d95 cabd 7fb4 87be 3d37 7bbd
00000360: 7b99 2ebd 4909 753b 6604 663e e082 9abd
00000370: 15e2 b7bd 2c15 3d36 aa7e 98bc 0f98 3b3d
00000380: 9666 f03d 953c 2cbd f2ca 80bc 8a98 c43d
00000390: 9e91 c6bd d08a bbbc 28bd 19be 5e94 68bd
000003a0: fac9 91bd 8ca3 77be cc1f debd b404 e2bd
000003b0: c521 d63d 3dcc c33d 3d38 afbb b3bc 38be
000003c0: a2ca 7bbc 39d0 563d b1ff e93c 0908 2cbd
000003d0: 569a 91bd 589f 9ebd 5a68 2d3e f2ee 2a3d
000003e0: 7e74 f3bd f0e5 6d3d 1eb7 cf3d 95a1 103e
000003f0: c4e5 4c3d 50ff 273e 5a3e 933d cd9f 27bd

down2.maxpool_conv.1.double_conv.4.weight f4 [16]
0.9787743 1.0171654 0.9710325 0.99443203 0.9542886 0.96692276 1.0291594 0.99762994
0.97455513 0.9368663 0.95677567 0.9655032 0.97232354 0.95573884 0.9827923 0.9752683
00000000: f490 7a3f 7a32 823f 9695 783f 1993 7e3f
00000010: 424c 743f 4088 773f 7fbb 833f ad64 7f3f
00000020: 727c 793f 78d6 6f3f 40ef 743f 382b 773f
00000030: 32ea 783f 4dab 743f 4798 7b3f 2fab 793f

down2.maxpool_conv.1.double_conv.4.bias f4 [16]
0.0061052074 0.02640362 -0.023792338 0.009187123 -0.028092302 -0.032816835 0.033083566 0.016374286
-0.040108923 -0.056947183 -0.006693363 -0.027508767 0.015125092 -0.012111466 0.025339087 -0.04977262
00000000: 310e c83b 684c d83c 26e8 c2bc 9685 163c
00000010: d421 e6bc f26a 06bd a282 073d 5e23 863c
00000020: 4149 24bd 7341 69bd 0054 dbbb 115a e1bc
00000030: 3ccf 773c 2c6f 46bc eb93 cf3c 60de 4bbd

down2.maxpool_conv.1.double_conv.4.running_mean f4 [16]
-0.38734373 -0.5937756 -0.6058273 -0.3500663 0.71536636 -0.56189895 -0.7897714 -0.64336663
-0.070413165 -0.51652867 0.22835608 0.28692847 0.47418746 0.5224372 0.8458695 -0.27939028
00000000: eb51 c6be ad01 18bf 7f17 1bbf e43b b3be
00000010: 4022 373f 9cd8 0fbf 752e 4abf adb3 24bf
00000020: c734 90bd 393b 04bf 2dd6 693e 4ae8 923e
00000030: b3c8 f23e 72be 053f e78a 583f 3e0c 8fbe

down2.maxpool_conv.1.double_conv.4.running_var f4 [16]
3.3308797 3.4353921 2.2292304 4.164102 5.285534 1.2572428 5.553888 4.187027
2.6517997 1.1618135 3.8543446 2.7540257 4.194064 4.753914 7.360687 2.4100573
00000000: 222d 5540 77dd 5b40 b6ab 0e40 5340 8540
00000010: 1823 a940 55ed a03f 73b9 b140 20fc 8540
00000020: 16b7 2940 4eb6 943f 95ad 7640 f541 3040
00000030: c635 8640 1020 9840 bf8a eb40 613e 1a40

down3.maxpool_conv.1.double_conv.0.weight f4 [32, 16, 3, 3]
0.0037925062 -0.02140403 0.06267367 0.11781102 0.05538007 0.03913428 0.12674506 -0.08020964
-0.024036845 0.037183587 0.054084875 0.06148239 0.031611048 -0.06532468 0.013478501 0.0017526179
-0.045490786 0.087319605 -0.080011025 0.041541997 -0.14048858 0.081156276 0.060958397 0.0046036565
0.031269245 -0.016259708 0.00045230964 -0.029808374 0.06282563 -0.101552166 0.00020551585 -0.1140828
0.046401914 -0.00974637 0.08341839 0.021134568 -0.08642764 -0.072647095 0.014986872 -0.061326865
0.08178964 0.07678021 0.08656705 0.05060482 0.02728885 -0.15752405 -0.09051219 -0.053626273
-0.14482519 -0.14079873 -0.014998671 0.06494538 0.062631615 0.030314747 -0.08683071 0.020275444
0.06640342 0.015621271 -0.0811991 0.08105119 0.00768671 -0.049819443 -0.19201116 -0.06929133
-0.016794896 -0.057699155 -0.09763898 -0.10813331 0.008219939 0.056828663 0.12628809 -0.07642124
-0.017109284 -0.027667454 0.027068777 -0.046223607 0.048513625 0.06528275 0.041621853 0.07678522
-0.044920072 -0.14349101 -0.023746869 -0.10114104 -0.111737 0.089626744 0.008766196 -0.07756857
-0.13015841 -0.0054003005 -0.16428886 -0.045367472 0.13987699 -0.15666763 0.052172575 0.022742927
0.12593262 0.13035783 -0.027239278 0.118451856 -0.08716789 0.05241783 0.018489001 0.1627685
-0.05238434 0.0076553174 0.021635307 0.14744991 -0.040922977 -0.050411794 -0.05717614 0.012850052
-0.019902624 0.16257025 -0.08370346 0.024041956 0.10626394 -0.0049549225 0.023566673 0.06826679
0.04808228 0.17880568 0.08407756 -0.07160501 0.08004099 0.111947306 0.10767108 -0.05694115
0.06690849 -0.14996843 -0.05872091 -0.009812285 0.053718735 -0.0141475415 0.03335858 -0.014398133
0.085809804 0.043174755 -0.046816457 -0.09778484 0.107935324 0.07508348 -0.032558084 -0.010742749
-0.017917464 -0.0673646 -0.017586527 0.10198168 -0.061862916 0.04586962 -0.07921797 -0.16648944
-0.13033296 -0.08710651 -0.10838391 -0.13222517 0.045811363 0.02182531 -0.1311789 -0.009214003
-0.032406334 -0.073099844 -0.01079641 0.021149203 0.019567883 -0.08712329 -0.003174113 -0.011658762
-0.01660302 0.029660426 -0.051867858 0.07032474 0.0067548617 -0.006643848 0.024157226 -0.036824577
-0.12102022 -0.012805766 -0.008121122 0.0644615 0.19693343 0.080471076 0.045768816 0.045733463
0.04415038 -0.0313975 0.004009467 -0.011624339 -0.025394445 -0.12507765 0.1568229 -0.08850618
-0.16499504 0.12222821 0.054020915 -0.08271003 -0.0022493287 0.03672623 -0.12567702 -0.2603102
-0.0868402 -0.22926049 0.012785129 0.148763 0.0018692721 -0.19755343 0.015321655 -0.04890624
0.019540537 -0.21477975 0.077212065 -0.01411213 -0.21830308 -0.037588213 0.139613 0.071071
0.0503523 -0.10398192 -0.024532048 -0.13505533 0.02793336 0.13601153 0.105940305 -0.1399491
-0.034844667 -0.08274639 0.06599339 0.07732374 0.042061396 0.028765101 -0.04000614 0.051055685
0.012121293 0.06680704 0.22996712 0.06940721 0.07157802 -0.018646287 -0.12064112 0.024736201
0.024473123 -0.019298706 -0.01434364 0.106289715 0.06349521 0.058487207 0.06416594 -0.03875692
-0.062465325 -0.04366958 -0.020048676 -0.029601892 0.15590525 0.011027012 0.12888248 0.0050624246
00000000: b28b 783b 8157 afbc 0e5b 803d e746 f13d
00000010: 36d6 623d 444b 203d 75c9 013e f444 a4bd
00000020: ebe8 c4bc d14d 183d 1a88 5d3d f5d4 7b3d
00000030: 967a 013d f2c8 85bd eed4 5c3c 19b8 e53a
00000040: 8c54 3abd 9fd4 b23d d2dc a3bd f127 2a3d
00000050: 3ddc 0fbe 4335 a63d 83af 793d 45da 963b
00000060: 2e14 003d 1433 85bc f923 ed39 b130 f4bc
00000070: b9aa 803d 95fa cfbd be7f 5739 3ea4 e9bd
00000080: ef0f 3e3d 3daf 1fbc 43d7 aa3d 6722 ad3c
00000090: f900 b1bd 00c8 94bd 7f8b 753c e131 7bbd
000000a0: 5481 a73d f13e 9d3d 114a b13d 0047 4f3d
000000b0: de8c df3c fc4d 21be 745e b9bd 39a7 5bbd
000000c0: 0e4d 14be 8b2d 10be fcbc 75bc 1502 853d
000000d0: 0145 803d a256 f83c 4dd4 b1bd b018 a63c
000000e0: 84fe 873d 5cf0 7f3c b74b a6bd 2bfe a53d
000000f0: cce0 fb3b 790f 4cbd 939e 44be 9de8 8dbd
00000100: 7395 89bc f355 6cbd f2f6 c7bd ff74 ddbd
00000110: ecac 063c 2cc5 683d aa51 013e bd82 9cbd
00000120: c528 8cbc dba6 e2bc 57bf dd3c f754 3dbd
00000130: 39b6 463d f6b2 853d ad7b 2a3d 9241 9d3d
00000140: 1cfe 37bd 4fef 12be cb88 c2bc 0923 cfbd
00000150: 5ed6 e4bd 3a8e b73d 17a0 0f3c 45dc 9ebd
00000160: 3f48 05be 01f5 b0bb 573b 28be 3ed3 39bd
00000170: ea3b 0f3e 7b6d 20be e9b2 553d 604f ba3c
00000180: 7bf4 003e 867c 053e e824 dfbc e396 f23d
00000190: 1485 b2bd 14b4 563d 3f76 973c c9ac 263e
000001a0: f690 56bd 75d9 fa3b 873c b13c 1cfd 163e
000001b0: da9e 27bd 997c 4ebd 8731 6abd 0689 523c
000001c0: d40a a3bc d178 263e b86c abbd a3f3 c43c
000001d0: e9a0 d93d e75c a2bb e50e c13c 75cf 8b3d
000001e0: edf1 443d d618 373e db30 ac3d a6a5 92bd
000001f0: 88ec a33d a144 e53d a882 dc3d 203b 69bd
00000200: 5207 893d 5391 19be 5685 70bd b5c3 20bc
00000210: 2d08 5c3d 17cb 67bc 02a3 083d 26e6 6bbc
00000220: 0dbd af3d 03d8 303d 9dc2 3fbd 6b43 c8bd
00000230: 320d dd3d 5ec5 993d a05b 05bd 5b02 30bc
00000240: a5c7 92bc 74f6 89bd 9f11 90bc c5db d03d
00000250: f863 7dbd c8e1 3b3d 083d a2bd 357c 2abe
00000260: 0176 05be e664 b2bd 62f8 ddbd 0966 07be
00000270: b2a4 3b3d feca b23c c353 06be 54f6 16bc
00000280: 81bc 04bd 5fb5 95bd 6de3 30bc 1841 ad3c
00000290: d34c a03c b26d b2bd c804 50bb 6404 3fbc
000002a0: 0e03 88bc 6cfa f23c 6473 54bd 6b06 903d
000002b0: e357 dd3b a3b4 d9bb 60e5 c53c 5ed5 16bd
000002c0: 73d9 f7bd 47cf 51bc 740e 05bc 6404 843d
000002d0: eba8 493e 05ce a43d 1578 3b3d 0353 3b3d
000002e0: 07d7 343d aa9a 00bd d961 833b 0374 3ebc
000002f0: 0308 d0bc 5b14 00be 2f96 203e ba42 b5bd
00000300: 76f4 28be c952 fa3d 0945 5d3d e063 a9bd
00000310: 7969 13bb 3e6e 163d 7ab1 00be 6147 85be
00000320: 46d9 b1bd 43c3 6abe b878 513c 5455 183e
00000330: 5d02 f53a 724b 4abe ae07 7b3c e951 48bd
00000340: 7a13 a03c 39ef 5bbe 5c21 9e3d 9036 67bc
00000350: d88a 5fbe 19f6 19bd b6f6 0e3e ac8d 913d
00000360: 373e 4e3d 79f4 d4bd 6ff7 c8bc f24b 0abe
00000370: 80d4 e43c 9b46 0b3e 3bf7 d83d d14e 0fbe
00000380: 48b9 0ebd f076 a9bd 8b27 873d e95b 9e3d
00000390: 9248 2c3d caa4 eb3c 7add 23bd c41f 513d
000003a0: 6398 463c 21d2 883d 807c 6b3e 5e25 8e3d
000003b0: 7f97 923d 19c0 98bc b112 f7bd 93a3 ca3c
000003c0: dc7b c83c 5218 9ebc 9601 6bbc 6cae d93d
000003d0: c709 823d 4890 6f3d 6f69 833d 93bf 1ebd
000003e0: a4db 7fbd e0de 32bd 1f3d a4bc ab7f f2bc
000003f0: a0a5 1f3e a4aa 343c c5f9 033e b2e2 a53b

down3.maxpool_conv.1.double_conv.1.weight f4 [32]
0.9959772 1.0075333 0.9938561 1.001782 1.0276326 1.0126828 0.99892294 0.9942366
0.995472 1.0166124 0.9998259 1.0214137 0.99793 0.9985718 0.9987201 1.0116082
0.99266815 1.0033573 0.98110735 0.99664444 1.0036511 1.0048482 0.97624683 1.004921
0.9781999 0.99326456 0.99906325 1.003491 0.9957854 1.0042129 1.005384 0.9887917
00000000: 5df8 7e3f daf6 803f 5a6d 7e3f 643a 803f
00000010: 7789 833f 979f 813f 6ab9 7f3f 4a86 7e3f
00000020: 41d7 7e3f 5b20 823f 97f4 7f3f afbd 823f
00000030: 5778 7f3f 67a2 7f3f 1fac 7f3f 617c 813f
00000040: 801f 7e3f 036e 803f da29 7b3f 1724 7f3f
00000050: a477 803f de9e 803f 50eb 793f 40a1 803f
00000060: 4f6b 7a3f 9646 7e3f 9cc2 7f3f 6572 803f
00000070: cbeb 7e3f 0c8a 803f 6cb0 803f 7421 7d3f

down3.maxpool_conv.1.double_conv.1.bias f4 [32]
0.0052791825 0.0009444116 -0.0017867606 0.005966599 0.030934634 0.0023221888 0.021611229 -0.0043461155
0.0028062516 0.008213777 0.013530178 0.023751758 -0.006755724 -0.0061058933 -0.001364015 0.031436175
-0.0090498375 0.005894365 -0.011033252 0.007897704 0.01628887 0.020970864 -0.010341766 -0.0005852378
-0.022233916 -0.010817936 0.00083705655 0.006502368 -0.0139642805 0.012810147 -0.0014575251 -0.006135045
00000000: fefc ac3b 6492 773a bd31 eaba 7683 c33b
00000010: a16a fd3c dd2f 183b 080a b13c dc69 8ebb
00000020: 17e9 373b 1493 063c aead 5d3c 0c93 c23c
00000030: 1f5f ddbb f213 c8bb c0c8 b2ba 38c3 003d
00000040: c545 14bc 8425 c13b d0c4 34bc 5f65 013c
00000050: 3c70 853c 17cb ab3c 8370 29bc a56a 19ba
00000060: e723 b6bc b63d 31bc ea6d 5b3a d111 d53b
00000070: 70ca 64bc a7e1 513c 6d0a bfba 7d08 c9bb

down3.maxpool_conv.1.double_conv.1.running_mean f4 [32]
0.20694058 -0.12290626 0.32242167 -0.4927849 -0.4657331 0.27596715 0.38597533 0.033546407
0.32455608 0.020996107 0.33852646 -0.20578188 0.20928581 0.1565481 0.369643 0.18077593
0.015762663 -0.068184726 0.03881001 0.2659153 0.078583114 0.77270997 -0.16205005 -0.17821224
-0.17460817 -0.27269173 0.31993762 0.3275976 0.07038747 -0.0029531247 -0.11170937 -0.050083946
00000000: 3be8 533e 47b6 fbbd 7414 a53e 4d4e fcbe
00000010: 9274 eebe 914b 8d3e 8f9e c53e f567 093d
00000020: 372c a63e 0700 ac3c 5753 ad3e 7cb8 52be
00000030: 054f 563e 254e 203e d941 bd3e 531d 393e
00000040: b320 813c 6fa4 8bbd 3ff7 1e3d 0d26 883e
00000050: 2ff0 a03d 52d0 453f 73f0 25be 457d 36be
00000060: 7ccc 32be 409e 8bbe ddce a33e dfba a73e
00000070: 4e27 903d 3689 41bb e2c7 e4bd d324 4dbd

down3.maxpool_conv.1.double_conv.1.running_var f4 [32]
1.5584234 1.892062 0.46526363 0.8930172 1.1307664 1.8666856 1.6144989 0.4918168
0.4113567 0.51781577 1.2676288 1.0898882 1.1849221 0.99416995 0.596926 1.6089631
0.6130274 1.5310599 0.396754 0.5489698 0.6072667 1.7027105 0.56550026 0.41814402
0.3494686 0.60967815 0.68768454 0.81673825 1.1724647 0.72550017 0.27120543 0.5379114
00000000: 6b7a c73f 162f f23f 0937 ee3e c69c 643f
00000010: f4bc 903f 8eef ee3f e6a7 ce3f 69cf fb3e
00000020: 589d d23e 938f 043f a941 a23f 7581 8b3f
00000030: 87ab 973f ec81 7e3f 24d0 183f 81f2 cd3f
00000040: 5def 1c3f c5f9 c33f 5723 cb3e 4989 0c3f
00000050: d575 1b3f 6bf2 d93f a0c4 103f f916 d63e
00000060: 8ced b23e de13 1c3f 180c 303f c215 513f
00000070: 5313 963f 61ba 393f 70db 8a3e 90b4 093f
