2D_Shape_Completion/model_weights.pth (torch, 533218 bytes, 99 tensors)

inc.double_conv.0.weight f4 [4, 1, 3, 3]
000000 99 60 7e 3e 6c 7d b2 3e 26 e7 6a 3e d8 2f 81 be
       0.24841537 0.34861314 0.22939739 -0.25231814
000010 a2 7b 28 be 12 94 f7 bd f9 6a e8 3b 0a 95 15 3c
       -0.16453412 -0.12088789 0.0070928303 0.009129772
000020 b4 52 a0 3d fa 02 49 be de cd e7 bd 02 35 81 be
       0.07828274 -0.19630042 -0.11318563 -0.25235754
000030 0f d9 55 be 0f 06 63 be 15 5b 7f 3d 5b f2 67 be
       -0.20883583 -0.2217028 0.062342722 -0.22651045
000040 92 d5 bb 3d 12 31 07 be a4 b1 59 3e 4f 3a a8 3e
       0.09171595 -0.13202313 0.21259171 0.32856986
000050 68 00 9f 3d f8 7a 0c 3d f9 a0 b7 be f2 8f 86 be
       0.07763749 0.03429696 -0.35865 -0.26281697
000060 38 1a 07 3e 01 87 9b bd 07 60 93 3c 4f 31 6e 3d
       0.13193595 -0.07594109 0.017990125 0.058152493
000070 24 77 9b be e6 ee 26 be 2e 40 8b bc 30 82 a0 be
       -0.30364335 -0.1630207 -0.016998377 -0.31349325
000080 ab 69 56 bd 06 9a 81 be c4 41 2f 3d 9d a1 22 3d
       -0.052346867 -0.25312823 0.04278733 0.039704908

inc.double_conv.1.weight f4 [4]
000000 aa 8c 85 3f b2 16 6f 3f 82 7e 6d 3f cb 14 7a 3f
       1.0433552 0.93394005 0.9277116 0.9768798

inc.double_conv.1.bias f4 [4]
000000 5d 1b a0 bd 9b 18 73 bd a8 72 1e bd df 24 35 bc
       -0.07817719 -0.059349637 -0.038683563 -0.011056154

inc.double_conv.1.running_mean f4 [4]
000000 17 4d c9 35 8d f0 9c b6 bb ca dd 34 2e 3d 7c b6
       1.4998103e-06 -4.677166e-06 4.1311964e-07 -3.7586537e-06

inc.double_conv.1.running_var f4 [4]
000000 8c 27 bb 31 be 25 b1 31 52 73 c6 31 57 77 a7 31
       5.4469123e-09 5.155669e-09 5.775669e-09 4.873907e-09

inc.double_conv.3.weight f4 [4, 4, 3, 3]
000000 8d 6d 74 3a fa 9f ef bd dd 54 3a 3b 42 27 99 3d
       0.00093241857 -0.11700435 0.002843193 0.07478191
000010 4a 9b 82 3d 5f 1a fb bc 73 3b e3 bd 5c 26 2d 3b
       0.06377275 -0.030652223 -0.110953234 0.002642057
000020 4f e2 85 bd de 66 2c 3d 34 ea 2f bd 81 42 8c bd
       -0.065373056 0.04209029 -0.042947963 -0.06848622
000030 78 94 0f be c0 a6 af 3d c4 66 fb bd bc 25 2e bc
       -0.1402148 0.08576727 -0.1227546 -0.010629114
000040 d5 19 c7 3c b6 4a bb bc 24 45 da bd 2f f1 7f bd
       0.02430431 -0.022862773 -0.10657719 -0.06248587
000050 30 8a 48 3d 44 15 8d 3d 4f ad f8 3d 7d af b1 3b
       0.04895991 0.06888822 0.12142431 0.005422531
000060 2e 9b 23 be 2f a1 00 be 85 37 a5 3d f0 c3 1b be
       -0.15977165 -0.12561487 0.0806723 -0.15211463
000070 03 db 27 bd 63 a0 d4 3c 1d f7 e9 bd 02 65 b5 3d
       -0.04098035 0.025955385 -0.11424086 0.08857156
000080 c9 1a 23 bc 5a 73 99 3d a1 10 25 be 1e 0c 87 bd
       -0.009955117 0.07492705 -0.16119625 -0.06594108
000090 ee 02 05 bc 56 d6 7d 3d d1 fc 6c 3d 43 e7 3c 3e
       -0.008118374 0.061971985 0.057858292 0.18447594
0000a0 31 84 0e 3e e1 20 61 3d eb 3e b8 bd 83 6a 8c bd
       0.13917615 0.054962996 -0.08996376 -0.06856253
0000b0 54 74 93 bd 44 aa e7 3b 60 de cc bd e3 b4 98 3d
       -0.07199922 0.007069858 -0.10003352 0.074563764
0000c0 95 de 21 be 04 bc 9c bd d0 2e f2 3d c1 3d 9f bc
       -0.15807565 -0.07653049 0.11825335 -0.019438626
0000d0 c1 0d 83 bc c5 71 37 be 93 94 94 3d fc 43 27 bd
       -0.01599777 -0.17914493 0.07254901 -0.04083632
0000e0 d4 6b 30 bd c6 3f 38 3d 5e f7 22 3d 3e 7d 22 ba
       -0.043071583 0.044982694 0.03978669 -0.0006198472
0000f0 25 e0 98 3c 7d 0d b2 bc be 66 06 be 33 a0 28 be
       0.018661568 -0.021734947 -0.1312513 -0.16467361
000100 63 60 3c 3d 23 4b 44 3d 66 1d 03 3e 78 33 e5 bd
       0.04599036 0.04792322 0.12804183 -0.111914575
000110 fc 9d 34 be 9b 6e 1d 3e 53 76 08 bd a7 8e f1 3b
       -0.17638391 0.15374224 -0.033315968 0.007371742
000120 30 52 09 3d 17 5e 57 bc 3e 11 1a be e8 f8 84 3d
       0.033525646 -0.013144991 -0.1504564 0.064927876
000130 ec e9 bd bd fc 4b 24 bd 46 35 36 be 37 8d 22 3d
       -0.09273133 -0.040111527 -0.1779376 0.039685454
000140 82 ac f8 3c 4f 64 b2 bd 31 d5 9c 3d d2 36 6a bd
       0.030355696 -0.087105386 0.076578505 -0.057181187
000150 2b dd c3 bd 90 d7 14 3e f7 b7 87 bd 7d 2a 86 bc
       -0.09563669 0.14535356 -0.066268854 -0.016377682
000160 45 14 eb 3d 73 f6 94 3d b6 48 84 3d 95 29 e1 bd
       0.114784755 0.07273569 0.06459181 -0.10994259
000170 2f 72 0c 3e b7 78 3f bd e8 7e 30 bd c6 60 03 be
       0.13715433 -0.046745982 -0.043089777 -0.12829885
000180 6a f6 75 bd 90 bd b5 bc b4 65 18 be 2e b8 f8 3d
       -0.060049452 -0.022185117 -0.14882547 0.121445045
000190 27 c5 62 bd 35 09 20 3d aa 49 f4 3d 2a fb a8 bd
       -0.0553638 0.03907128 0.11928113 -0.08251031
0001a0 63 d6 e2 3d f8 98 7f bd 76 b2 da bd 61 28 ec 3d
       0.11076047 -0.06240174 -0.1067857 0.11531139
0001b0 bc 6b 8f 3b 81 e4 ad 3c 08 b3 a3 bb 2c ff d2 3d
       0.0043768566 0.021227123 -0.0049957074 0.103025764
0001c0 a7 1b 6b 3e 38 1b 5c 3d b2 3d 5f 3c 70 1c 4d bd
       0.22959767 0.053736895 0.013625549 -0.05007595
0001d0 d5 33 f0 3d 0c 25 6c bd ee 14 f9 bd 45 2e 38 3d
       0.11728636 -0.05765252 -0.12162195 0.044966
0001e0 d3 95 4a bd 7e a3 14 bd ff 3e 88 bd ae f0 c3 3d
       -0.04945929 -0.03628873 -0.066526406 0.095673904
0001f0 3a 1c a3 3c 3a 0d ef 3d 21 c1 bf 3d 13 d7 73 3d
       0.01991092 0.11672445 0.09363008 0.059531283
000200 b2 7a 3d 3d 36 3b 2a 3d 1e b2 16 bc e2 21 37 3c
       0.04625959 0.041560374 -0.00919774 0.011177512
000210 c9 e5 c3 3d 4e bb cb 3d 2b d9 bd 3c 42 da a3 3d
       0.095653124 0.09947835 0.023174843 0.08000614
000220 bb 4a 24 3e 32 da b6 bd 54 29 20 3e 99 bb a2 3c
       0.16044132 -0.08928336 0.15640765 0.019864844
000230 ce 16 a0 3d ff 9c 95 bd 5b fb 9b 3d 9c 74 b3 bd
       0.0781685 -0.07305335 0.076163016 -0.08762476

inc.double_conv.4.weight f4 [4]
000000 e7 56 71 3f 23 97 7a 3f d7 41 7c 3f 81 10 70 3f
       0.9427323 0.97886866 0.98537964 0.9377518

inc.double_conv.4.bias f4 [4]
000000 29 ab 03 bd 18 99 25 bd cd 8b a7 bc 28 4a a3 bd
       -0.032145653 -0.040429205 -0.020452404 -0.079731286

inc.double_conv.4.running_mean f4 [4]
000000 c2 7c 90 b9 10 b8 12 39 03 24 ed b9 e5 27 3d 3a
       -0.00027558772 0.00013992214 -0.00045230993 0.00072157226

inc.double_conv.4.running_var f4 [4]
000000 d7 f9 81 38 91 31 84 38 0f 89 18 38 a5 fe 88 38
       6.197736e-05 6.303483e-05 3.636727e-05 6.5324166e-05

down1.maxpool_conv.1.double_conv.0.weight f4 [8, 4, 3, 3]
000000 16 77 89 bd ed 98 b3 bc 10 b3 29 3e 61 00 1c bd
       -0.06712167 -0.021923507 0.16572213 -0.0380863
000010 e9 b0 0f be 6c 08 21 be 10 be e3 3d 59 f0 33 be
       -0.1403233 -0.15725869 0.11120236 -0.17572154
000020 0f 0b 2a bd 9a b3 0e 3d 6b ec 0b bd 02 17 f2 bd
       -0.041514453 0.03483925 -0.034161013 -0.11820795
000030 dc c6 cd 3d a0 7e b6 bd 5a 93 4f 3d a9 ba a4 3c
       0.10047695 -0.089108706 0.050677635 0.020108538
000040 8a b8 6d 3d b8 1a 20 be 12 58 cb bc 49 7a 26 bd
       0.05803732 -0.15635192 -0.024822269 -0.040643964
000050 de 28 08 bd dd 74 a5 3d 59 be 8d bd 5e 67 10 bd
       -0.0332421 0.080789305 -0.069210716 -0.03525483
000060 d1 1f da 3d 78 18 29 3e 1e 4a a5 bd 23 a4 ef 3d
       0.106506 0.1651324 -0.08070777 0.117012285
000070 5c ce a9 3d e2 43 33 3c 10 45 82 bd 42 a9 7f bd
       0.08291313 0.0109414775 -0.06360829 -0.062417276
000080 f5 aa 11 bc f2 25 cf 3c 2c bd 01 3e 1e 10 01 be
       -0.008890857 0.025286648 0.1266982 -0.12603804
000090 3f 71 d0 3d cf 1c 8f 3d 51 ab 81 3d cd 42 03 be
       0.1017785 0.06987917 0.06331504 -0.12818451
0000a0 86 e1 b4 3c 3d 1e 18 3e c3 fa 40 bd 76 e8 0b bd
       0.022080194 0.14855285 -0.047114145 -0.03415724
0000b0 45 80 5f 3d f1 6e 8d bd 40 71 04 3c 74 30 37 bd
       0.054565687 -0.06905926 0.0080836415 -0.044723943
0000c0 8a ff 02 3e 37 c4 91 3d 0b e1 d0 bd 95 04 5d 3d
       0.12792793 0.07117503 -0.101991735 0.053959448
0000d0 7a 33 b7 bd e3 e7 26 b9 de f3 aa bc 0e d5 f9 3d
       -0.08945365 -0.00015917378 -0.020868238 0.1219884
0000e0 8c 67 b1 bb 63 6d e2 bc 71 f1 30 3e 15 85 12 3e
       -0.005413955 -0.02764005 0.17279603 0.1430858
0000f0 c8 3b ba bc 88 c5 4a bd ca 3d 45 3d 4b 1e 01 be
       -0.022733584 -0.049504787 0.04815463 -0.12609212
000100 23 78 51 bd 18 71 7e bc ef 9c 42 3e 16 c8 6a bd
       -0.051139962 -0.015529893 0.19005178 -0.057319723
000110 16 65 96 bc a8 62 47 3e 00 15 22 3e 6c d1 55 bb
       -0.018358748 0.19471228 0.15828323 -0.0032626046
000120 c3 eb 29 bd 05 11 cb bd ce 06 74 bd aa 81 f4 3d
       -0.041484606 -0.099153556 -0.059576802 0.11938794
000130 f7 40 77 3d 9c 44 cb bd cf 6d 0d 3e a5 f5 99 bd
       0.06036469 -0.099251956 0.1381142 -0.07517556
000140 f8 88 84 bd ed ca 98 bc 4b e0 e0 bd cc d6 14 3e
       -0.06471437 -0.01865145 -0.109802805 0.14535064
000150 b5 8a cd 3c 58 ae 98 bc ca 0a a1 bd ed 73 5a 3c
       0.025090555 -0.018637821 -0.07863386 0.013333303
000160 5e 4d 32 3d 50 19 a2 3d e9 9f 04 be fa 5a db 3d
       0.043530814 0.07914984 -0.12951626 0.10710712
000170 ce a9 2f 3c d2 97 c2 bd 95 cb 2b 3b fa e3 7b 3d
       0.010721637 -0.09501614 0.0026213874 0.061496712
000180 22 84 c8 3d aa 70 1e 3e 4f 35 0b bc d2 ea a8 bd
       0.09790827 0.15472665 -0.0084965965 -0.082479134
000190 0e 80 f9 3c cd 01 dd bd ad 3d 17 3c 7f bb 1c be
       0.030456569 -0.10791359 0.009231013 -0.15305899
0001a0 03 0f 09 bd 4d 07 2b 3e 7c cc 1e be f9 16 9e 3d
       -0.033461582 0.16702004 -0.15507692 0.077192254
0001b0 dd 67 05 3e d8 d3 a6 3d f2 be 57 bd b6 6c 08 bd
       0.13027902 0.08145875 -0.052672334 -0.0333068
0001c0 b6 a7 2a bb 26 b3 ff 3d f4 56 45 bd 95 37 59 3d
       -0.0026039905 0.12485342 -0.048178628 0.053031523
0001d0 72 af c9 38 6f 5f 2e 3e f0 c4 45 bc ac 28 14 3e
       9.617106e-05 0.17028593 -0.012070879 0.1446864
0001e0 b6 f2 03 3e 7a e8 0f 3e b8 6d 6c 3c 68 27 ac 3b
       0.12885556 0.14053527 0.014430456 0.005253721
0001f0 29 74 80 bd 45 3c 2a 3e 98 a1 61 3d 67 bc 35 3e
       -0.06272156 0.16624554 0.05508575 0.17747651
000200 7b 98 ad bd ec d7 74 3d d7 bc da 3b 69 9c 54 3d
       -0.08476349 0.05977623 0.0066753435 0.051906977
000210 ce ab 15 3e d1 16 e8 bd ce 73 aa bd 83 dd e8 bd
       0.1461632 -0.11332477 -0.08322869 -0.11370375
000220 f0 e1 1e bd 09 de 80 3d b6 82 76 bc 8e 8e fd bd
       -0.03878969 0.0629235 -0.015045812 -0.12380706
000230 b2 5b 4b bd ef 1e 23 be 39 96 85 bc ef 87 91 3d
       -0.049647994 -0.15929769 -0.016306983 0.071060054
000240 f0 bd 11 3d f8 cb 2b 3e bd 8e e7 3d 7a c8 4f 3d
       0.03558153 0.16777027 0.11306522 0.0507283
000250 07 b8 b1 bd 93 6b b2 3d 5b e0 ce 3d d8 06 df 3d
       -0.086776786 0.087119244 0.10101386 0.10889977
000260 92 ba 09 be a4 b1 df 3d 9d 77 0f 3e 96 9f c0 bc
       -0.13450077 0.10922554 0.14010473 -0.023513597
000270 4c d6 48 3d 75 78 34 3b 3f 58 e2 3d de 51 04 3e
       0.049032494 0.0027537618 0.11051988 0.12921855
000280 bf 5c 5e bd 5a df 96 3d 58 c9 ee 3d 70 b9 22 bd
       -0.05428767 0.0736682 0.11659497 -0.03972763
000290 c3 63 f2 bd b4 b9 38 bd 2a b1 e4 3d d2 6c 85 bd
       -0.11835434 -0.045098975 0.11166604 -0.065148965
0002a0 eb c6 d0 bc 47 3d 0e 3e 50 4f 04 3e 30 04 d0 bd
       -0.025485476 0.13890563 0.1292088 -0.10157049
0002b0 ce ed f4 3d ab 42 6e 3d 74 83 0d 3d aa be 09 3e
       0.1195942 0.05816905 0.03454919 0.13451639
0002c0 03 6e 97 3d ef 6d 7e 3d c8 51 2f 3b de 90 f0 bd
       0.0739403 0.06211656 0.0026751626 -0.11746381
0002d0 d3 81 b5 3d 7c a2 4a 3e 8b 9a 6b bc e0 19 10 3e
       0.08862653 0.19788545 -0.014380108 0.1407237
0002e0 30 9d e7 bc df c3 fb 3d a4 8e 28 bb ec d9 68 bd
       -0.028273195 0.12293219 -0.0025719786 -0.05684845
0002f0 c7 bf 18 3e 58 6b 91 bd c8 e0 95 bc e4 0d 1d 3e
       0.14916907 -0.07100552 -0.01829566 0.1533733
000300 e4 16 9c 3d 28 33 e5 3d bd 2c 53 3d 67 97 62 3d
       0.076215535 0.11191398 0.051556338 0.05532017
000310 ac a4 6b bc 02 5a b9 3d 47 f0 f5 3d d8 5d 90 bd
       -0.014382523 0.09050371 0.1200872 -0.07049149
000320 24 47 cf 3d 8c 88 d8 bd 56 c5 b2 3c 56 80 da bc
       0.10120991 -0.10572919 0.021822613 -0.026672523
000330 5a 66 38 3e 9f 31 a2 3d 05 ce 8d bd 4c 26 15 3e
       0.18007794 0.07919621 -0.06924061 0.1456539
000340 5a 8d 82 bc 6e 19 fb ba a5 f7 88 3c 87 7e 49 bd
       -0.015936542 -0.0019157359 0.016719649 -0.04919293
000350 7b be 55 3d c0 09 03 be b9 60 be bd 8e d3 21 be
       0.05218361 -0.12796688 -0.09295792 -0.15803358
000360 eb 84 55 bd 3e ec bc bd 55 5f 0f be 4d 2e 2d be
       -0.052128714 -0.09224747 -0.1400121 -0.16912194
000370 e9 d6 6e 3d 0c cb f9 bc 66 34 06 be 45 52 65 bd
       0.058310423 -0.030492328 -0.13105926 -0.05598666
000380 b6 51 01 3d c3 43 31 bd e1 37 30 bd 3b e3 4c bc
       0.031572066 -0.043277513 -0.04302204 -0.012505348
000390 52 16 a8 bc bc fa 8d 3d 1c 3d 2f 3d e4 d9 a7 bd
       -0.020518456 0.069325894 0.042782888 -0.08195856
0003a0 a4 38 9d 3d 0e d6 a7 bd c5 14 54 bd a5 49 be bd
       0.07676819 -0.081951246 -0.05177762 -0.0929139
0003b0 5a 18 0b 3d a9 8e d7 3c c2 64 02 3d 24 8b e7 3c
       0.03395877 0.026313143 0.03183437 0.02826459
0003c0 22 a0 d8 bc c3 e4 8f 3d 62 99 0e bd c8 10 3b be
       -0.026443545 0.07026055 -0.034814246 -0.1826812
0003d0 04 e0 24 ba d6 74 f8 bd 5a 86 28 be 58 8f 6d 3d
       -0.00062894844 -0.1213166 -0.16457501 0.05799803
0003e0 01 46 6b bd 0f 4d fe 3d 75 89 d5 3d f9 66 d7 3c
       -0.057439808 0.124170415 0.104266085 0.026294218
0003f0 02 44 18 bd 7b db 29 be d8 91 15 be 1e 62 c4 3b
       -0.037174232 -0.16587631 -0.14606416 0.005993142

down1.maxpool_conv.1.double_conv.1.weight f4 [8]
000000 06 af 79 3f 52 47 84 3f 09 19 7d 3f 6d 6f 79 3f
       0.9753269 1.0334265 0.98866326 0.9743565
000010 09 8e 82 3f 0d 0e 83 3f 8a 79 78 3f 3d 33 79 3f
       1.0199596 1.0238663 0.97060454 0.9734381

down1.maxpool_conv.1.double_conv.1.bias f4 [8]
000000 e3 1e 47 bc 94 e3 99 3b 25 28 91 bc 3d 1c 41 bb
       -0.01215336 0.004696319 -0.017719338 -0.0029466294
000010 72 fa e3 3c eb c4 a1 3c e3 89 c5 3a ca 42 5c bb
       0.027829383 0.019747218 0.0015071001 -0.0033609145

down1.maxpool_conv.1.double_conv.1.running_mean f4 [8]
000000 39 36 99 bc 7c c2 90 3d c3 fa ab bc 49 79 4b 3d
       -0.018702613 0.07068345 -0.020993596 0.049676213
000010 77 f4 08 3e cb f5 84 3d ac af 9c bd 55 67 e6 bd
       0.13374506 0.06492194 -0.07650694 -0.11250178

down1.maxpool_conv.1.double_conv.1.running_var f4 [8]
000000 ff 4f 57 3e 82 34 8f 3e 97 5a 8d 3e b7 26 5c 3e
       0.2102661 0.27969748 0.27608177 0.21499144
000010 18 d6 60 3f f1 2e b2 3e 8e db eb 3e 2b 37 06 3f
       0.8782668 0.34801438 0.46065944 0.5242793

down1.maxpool_conv.1.double_conv.3.weight f4 [8, 8, 3, 3]
000000 c0 c9 c5 3d 23 12 33 bd 6f fb 06 3d b0 19 5e 3d
       0.096576214 -0.04371847 0.03295463 0.054223716
000010 7c 1b 65 bd 19 4e ce bd ba 5d 09 be 5e 25 d2 3d
       -0.055934414 -0.1007349 -0.1341466 0.102610335
000020 69 53 ee bd 54 a2 47 3d bb 75 5c bd 6b a4 a2 bd
       -0.11637003 0.048738793 -0.053823214 -0.079415165
000030 83 09 ca bd d5 89 d0 bd 77 16 42 3d 7b 71 97 bd
       -0.098650955 -0.101825394 0.047384705 -0.073946916
000040 11 e3 09 bd 48 8a 92 bd 35 37 b7 3d 26 4d cf 3d
       -0.033663813 -0.07155281 0.08946077 0.10122137
000050 0e a9 69 bd 1b 90 8f 3b 32 40 c4 bc ac 5d 89 bd
       -0.05704599 0.0043811924 -0.023956392 -0.067073196
000060 21 38 84 bc 0b b5 b5 bd 9f 3d b0 3b 0b 25 b3 3d
       -0.016140046 -0.08872422 0.0053784396 0.087473
000070 5f 9e c6 3d 40 52 0a 3d f5 a0 04 3d b5 e1 6e 3d
       0.09698176 0.033769846 0.032380063 0.05832072
000080 30 10 3d 3c 69 ef da 3d 1a 04 64 bb 8f 46 f1 3c
       0.011539504 0.10690195 -0.0034792484 0.02945259
000090 1e 5b 0e 3d 92 03 b4 3d c5 39 2f 3d 1f 06 aa bd
       0.034754865 0.087897435 0.042779703 -0.08301949
0000a0 06 7e bf 3d 45 b3 c2 bd 3d 2c 31 bc 46 22 84 bd
       0.09350209 -0.09506849 -0.01081377 -0.0645185
0000b0 f1 a4 89 bc 95 8b cb bc 19 0d 06 bc c4 3d 09 bd
       -0.016802283 -0.024846831 -0.008181834 -0.03350617
0000c0 df 66 d0 bb 2e 58 b1 3d c0 82 be 3d 2a 9e 08 be
       -0.0063599194 0.08659397 0.09302282 -0.13341585
0000d0 69 0e 42 3d 7d 78 39 bd 8f 3c 99 3d 98 8e e8 bc
       0.047377024 -0.045280922 0.07482254 -0.028388306
0000e0 10 02 9d bd 3e fe 90 bd 06 21 27 bd 77 aa 90 3d
       -0.07666409 -0.07079743 -0.040802978 0.070637636
0000f0 4f e4 56 bd ed f7 91 3d aa 83 49 3d 0c f7 b5 bd
       -0.052463826 0.07127366 0.04919783 -0.08885011
000100 c6 bd 93 3c fb 0f 62 3d 2c 81 e2 3c 61 ac 43 3d
       0.018034827 0.05519102 0.027649485 0.047771815
000110 3a b2 b8 3d 9b ab 6a 3b bf ad c9 bc 5f 28 e5 bd
       0.09018369 0.0035807851 -0.024618981 -0.11189341
000120 71 de 8b bd 55 8d 07 be 0c dc 04 3d f4 96 d7 bd
       -0.06829537 -0.13237508 0.032436416 -0.10526839
000130 e6 1b 01 be d7 92 e1 ba 0e 23 cd 3d 30 20 3d bd
       -0.12608299 -0.0017209899 0.10016452 -0.046173275
000140 21 eb 53 3d 0d 4e 98 3d 50 f1 65 3c c8 62 17 3d
       0.05173791 0.07436762 0.014034584 0.03695944
000150 8a 45 24 3d 06 47 02 be 5f 38 f4 3c 35 9a 8d bd
       0.04010538 -0.12722406 0.029812036 -0.06914178
000160 49 cd f5 bd 50 29 83 3d 58 25 d3 3d 7f 8f 0a bd
       -0.12002046 0.06404364 0.10309857 -0.033828255
000170 52 48 50 3d 9b 5e 99 3d 98 ff f3 bd 47 f8 a6 bd
       0.05085022 0.07488748 -0.11913985 -0.08152824
000180 6d cc 96 3d dd 79 db bb bd 29 bf bc ca de d9 bd
       0.0736321 -0.006697877 -0.023335332 -0.10638197
000190 19 40 d1 bd 31 44 bb 3d 26 69 46 bb 29 01 7a bb
       -0.10217304 0.09143866 -0.0030275076 -0.0038147664
0001a0 fc d2 6d bd a9 1d a1 bd d4 a8 ee bd 78 b6 72 bd
       -0.05806254 -0.07866985 -0.11653295 -0.059256047
0001b0 1f be b4 bd 30 4a 89 bc 48 5b b8 bc b1 da c9 3d
       -0.08825325 -0.016759008 -0.022504464 0.09856165
0001c0 b5 0c 71 3d fe d2 05 be 89 48 99 bd 85 47 b9 3c
       0.05885001 -0.13068768 -0.07484538 0.022617111
0001d0 4a 56 b2 3d 7a f8 ae bd 75 56 57 3d 5e d5 4e 3d
       0.087078646 -0.08543487 0.052572686 0.05049645
0001e0 31 63 25 3d f0 6a a6 bd d1 94 e3 bd cb 57 26 bd
       0.0403778 -0.081258655 -0.11112369 -0.04061107
0001f0 03 c7 d5 bd ce 3e a1 bd e3 c6 d4 bd 09 e3 b8 3d
       -0.10438349 -0.07873307 -0.10389497 0.090276785
000200 72 96 3f bd a6 df e7 bd 5a 5d b1 bc 81 7d 7c 3c
       -0.046774335 -0.113219544 -0.021650959 0.015410782
000210 bb c5 e2 3d 48 6d 9e 3d bd a4 c0 3d 2e 28 be bd
       0.1107287 0.077356875 0.09406421 -0.092850074
000220 ba dc d7 bd 01 bb a2 3d 96 9d 10 3d 3c 02 a3 3d
       -0.10540147 0.079458244 0.035306536 0.079594105
000230 74 b3 03 3d 79 f2 b0 3d 9a 25 dc bd 07 10 b3 bd
       0.03215356 0.08639998 -0.107493594 -0.08743291
000240 fc 12 20 3d 52 f0 6e 3d 62 4d 40 3d a6 6b a2 3c
       0.039080605 0.058334656 0.046948798 0.019826721
000250 4d 58 9b 3c 2a a2 f9 bc 36 c1 47 3d 8c 8e c5 3d
       0.018963004 -0.030472834 0.048768245 0.09646329
000260 3f c2 a9 3d e9 5e 0e bd 8e 0f f4 bd 98 65 8b 3d
       0.082890026 -0.034758482 -0.11917029 0.06806487
000270 34 fc 0f 3d e7 c1 f1 bd 1f 85 1f 3b 96 33 94 bd
       0.03515263 -0.11804562 0.002434082 -0.07236402
000280 4e 0a 1d 3d 03 b0 36 bc c9 e1 1f bd 78 c6 cf bd
       0.038339905 -0.011150363 -0.039033685 -0.10145277
000290 8c 47 04 3d 7f 80 19 3d ed c4 bb bc 14 27 69 bd
       0.032294795 0.03747606 -0.02292105 -0.056922033
0002a0 28 a8 d6 bc 29 20 eb bd ea d0 aa bc fc f3 50 3c
       -0.02620323 -0.114807434 -0.020851571 0.012753483
0002b0 4a 96 74 bb 08 0b e4 bd c5 f0 7a bd e7 70 a7 3d
       -0.0037321025 -0.111349165 -0.061264772 0.08175831
0002c0 84 88 05 be 15 f9 cf 3d ad 61 c3 3c 1d 20 98 bd
       -0.13040358 0.101549305 0.023850286 -0.07428
0002d0 5f 68 f8 bd f8 0a c8 3d bf df aa 3c b2 ad 41 bd
       -0.12129282 0.09767717 0.020858644 -0.04728479
0002e0 44 08 c9 bd 89 d8 e2 bc 74 56 cd bd 9f d2 25 bd
       -0.0981603 -0.027691143 -0.10026255 -0.040484067
0002f0 f8 21 ac bd 59 80 9d bd e1 5d b2 3d e6 ed 8e bc
       -0.084049165 -0.07690496 0.08709312 -0.017447423
000300 d9 0f be bd aa b3 ee bd 6a 43 b2 bd 5e 14 66 3b
       -0.092803665 -0.11655362 -0.087042645 0.0035107355
000310 86 4f 17 3d f7 03 e5 bd a6 5b 94 bd b8 1f ab 3c
       0.036941074 -0.11182397 -0.07244043 0.020889148
000320 0c 6a 78 bc b7 db 9c bd ca 30 a7 3d 92 9d e4 bd
       -0.015162002 -0.07659095 0.08163603 -0.11162867
000330 35 10 c0 3c 3e 01 d6 3d 85 62 1d 3d 20 cf 8f 3d
       0.023445228 0.10449456 0.038424034 0.07021928
000340 36 51 ef 3c 70 7c 17 bd 7c 4a 83 3c fc 06 c2 bd
       0.02921353 -0.036983907 0.016026728 -0.094739884
000350 16 4d e4 bd 0d 94 3b 3b b3 e8 c2 bc 9c ee 50 3c
       -0.111475155 0.002862218 -0.0237926 0.012752201
000360 d4 9c c8 3d 76 63 96 3d a7 ea b8 bd da df 66 3d
       0.097955376 0.073431894 -0.090291314 0.056365825
000370 70 7a 65 3d 75 89 75 bd 4e ff 1e 3d 54 2d 22 3c
       0.05602497 -0.059945542 0.038817696 0.009898502
000380 b7 c5 88 bd cc 87 c1 3d ff 13 2a bd 25 09 78 3b
       -0.06678336 0.09449729 -0.041522976 0.0037847247
000390 8c 08 cc bc 02 42 ee 3d c5 f0 cd ba 0f 49 3c 3d
       -0.02490642 0.11633684 -0.0015712014 0.04596811
0003a0 8a 33 9c 3d 72 a2 ba 3d a3 d6 b3 3d 1b e8 2d 3c
       0.07627018 0.09113015 0.08781173 0.01061442
0003b0 94 d2 f2 3c eb 95 8d bd 9b 5d 34 bd 28 ff a0 ba
       0.029641427 -0.0691336 -0.04403458 -0.0012283074
0003c0 11 f9 d4 bd 97 f9 50 bd bb 5b 9a 3d 21 a1 75 3b
       -0.10399068 -0.051019277 0.075370274 0.0037480074
0003d0 53 e4 2a 3d b2 f7 b6 bd fb 8e 3e 38 07 ce 1f bd
       0.041721653 -0.08933963 4.543269e-05 -0.039014842
0003e0 f3 66 44 3d 8a f7 09 3d 04 75 b5 bd 97 02 72 bc
       0.047949743 0.033683337 -0.088602096 -0.014771125
0003f0 1c 52 be bb 2e 33 ab 3d f9 3d 73 bd 22 68 e6 3d
       -0.005808128 0.08359371 -0.059385274 0.112503305

down1.maxpool_conv.1.double_conv.4.weight f4 [8]
000000 ad 26 70 3f b9 b3 78 3f c5 41 77 3f 81 e8 71 3f
       0.93809015 0.97149235 0.9658473 0.944954
000010 6d 14 75 3f b9 90 75 3f dd 00 71 3f 5b 79 75 3f
       0.9573429 0.95923954 0.9414194 0.958883

down1.maxpool_conv.1.double_conv.4.bias f4 [8]
000000 14 d7 b2 bc 12 3c 26 bd 4b 52 59 bd 54 f2 54 bd
       -0.021831073 -0.04058463 -0.053056996 -0.051988915
000010 bf 3d 3d bd 8d a3 16 3d da 51 36 bd 9f b2 58 bd
       -0.046201464 0.036777068 -0.044511653 -0.05290472

down1.maxpool_conv.1.double_conv.4.running_mean f4 [8]
000000 9f de 96 bc 5c b3 00 be 65 86 1f be 7e 5a 62 3e
       -0.0184167 -0.1256842 -0.15578611 0.22104833
000010 5c fd 16 3e 2a c6 02 3e 74 07 e4 bd f8 37 b4 bd
       0.14745086 0.12770906 -0.11134234 -0.08799738

down1.maxpool_conv.1.double_conv.4.running_var f4 [8]
000000 0f 19 6a 3e a3 dc 05 3f c8 d7 2c 3f 2b 82 5e 3f
       0.22861122 0.5228979 0.67516756 0.8691737
000010 53 6d 2f 3f 12 21 12 3f 05 92 bb 3e 4b 96 d2 3e
       0.6852619 0.5708171 0.36634842 0.4113029

down2.maxpool_conv.1.double_conv.0.weight f4 [16, 8, 3, 3]
000000 45 0d c1 3d a5 41 f2 ba 8e ea 9f 3d fa 8d 23 bc
       0.09426359 -0.0018482698 0.0780841 -0.00998258
000010 58 68 91 3c d9 17 e7 bd 46 1a c7 bc 85 70 0f 3d
       0.01774995 -0.112838455 -0.02430452 0.035019416
000020 2f 49 ae bd 6d 1e 97 3d 6f 3b 15 3b 46 c9 aa 3d
       -0.085100524 0.0737885 0.002277102 0.08339171
000030 1c 49 90 3c ea 8d 52 3d ae 32 81 3d f4 54 c4 3d
       0.017612986 0.05140487 0.063084945 0.09586516
000040 40 cb 91 bd 47 4a 33 3d ed 51 b7 3d 70 9a c8 3c
       -0.07118845 0.04377201 0.08951173 0.024487704
000050 72 7a c6 bd 1c 05 11 bd c3 9c ed 3d c3 a9 99 3d
       -0.09691323 -0.035405263 0.116021655 0.075030826
000060 22 db a5 3d f5 7c b7 bc 92 75 62 3d 2c 28 74 bd
       0.08098437 -0.022398451 0.055287905 -0.059608623
000070 a8 8c 9a 3d 93 d7 15 bd 12 65 af ba aa b1 c8 3b
       0.07546359 -0.03658254 -0.0013381562 0.006124695
000080 28 55 ae bd 77 6c 98 bb 9a de 81 bd 85 6f e8 bd
       -0.08512336 -0.004651602 -0.06341286 -0.11349396
000090 24 61 2e 3d f7 9b 4c bb bf 16 8c 3d 38 81 e1 bc
       0.04257311 -0.0031220892 0.06840276 -0.027527437
0000a0 0b 1e 8f 3d 77 88 b4 bd 4e de 9a 3c a6 0b 69 bd
       0.06988152 -0.08815091 0.018904831 -0.056895874
0000b0 cf 36 3a 3d d5 16 09 3d 6d 9d af 3d cb 9e 9f 3c
       0.045462426 0.03346904 0.085749485 0.019484898
0000c0 ad 27 8e bd db b4 0a 3d 73 c6 26 3b 5c 56 ed 3c
       -0.06941161 0.033863883 0.0025447875 0.028971843
0000d0 7c f5 ea 3c fd 86 18 bd 04 9c d1 3d 93 37 2e bd
       0.02868151 -0.03723811 0.10234836 -0.04253347
0000e0 63 06 d1 bd eb e1 88 bd 41 ff 4c 3c fd 95 0c 3c
       -0.10206296 -0.066837154 0.012512029 0.008580682
0000f0 45 5c 2b bd 64 aa ce bd b9 7b 7b bd 06 02 b1 bd
       -0.041836042 -0.10091093 -0.061397288 -0.08642964
000100 15 d0 dc 3c 42 ff 76 bd 10 f6 d9 3d 00 eb bb 3d
       0.02695469 -0.060302027 0.10642636 0.09175682
000110 b5 4b e2 3d 03 9d 9b 3d 06 a8 e2 3c 8c aa bf 3d
       0.11049596 0.07598307 0.02766801 0.09358701
000120 95 ea 0f 3d 52 dc 71 3d 9a 5e fd 3d e9 7f 91 bd
       0.035135824 0.059048004 0.123715594 -0.07104475
000130 d9 6d 8b 3d 18 40 a9 3d 20 64 ae 3a 99 b3 d5 3d
       0.06808061 0.08264178 0.0013304986 0.10434646
000140 3e 46 d8 bd 67 b8 c6 3d dc b8 fe 3b 88 d1 7d 3c
       -0.10560273 0.09703141 0.007773502 0.015491851
000150 49 b9 b8 bd 4f 42 22 bd 87 5b 93 bd 43 6a ae bd
       -0.09019715 -0.039614018 -0.07195192 -0.085163616
000160 c1 63 8b bd 6a 76 ae bd b2 bb 0d bd 28 52 f0 3c
       -0.06806136 -0.085186794 -0.03460283 0.02933605
000170 03 8d eb bd 90 d1 3a bd 72 70 cc bc a9 7e 38 3a
       -0.11501505 -0.04561001 -0.024955962 0.0007037917
000180 69 8c a1 3d 19 dd b0 bd 59 cc ea bd 02 84 d1 bd
       0.07888109 -0.08635921 -0.114647575 -0.102302566
000190 8d e8 e9 bc 1b 93 a7 bb 5a e7 e4 bd a3 8d f4 3c
       -0.028553272 -0.005113972 -0.11176939 0.029852694
0001a0 39 5b 31 3d ae f4 40 bd 88 f1 cb 3d 21 b8 1f bd
       0.043299887 -0.047108345 0.09958178 -0.03899396
0001b0 68 ee c5 bc 63 d3 fb 3d be 60 80 3b 14 f0 87 3c
       -0.024161533 0.12296178 0.0039177826 0.01659397
0001c0 34 c1 b4 3c 5d c4 b3 3d 78 a4 e1 bd 3e 3e 34 bd
       0.022064783 0.08777688 -0.11017698 -0.04400467
0001d0 10 98 16 bc 6a 29 81 bd 85 60 dc 3d eb 39 2e bd
       -0.009191528 -0.06306727 0.10760597 -0.042535704
0001e0 75 f6 47 3d b5 6d ab 3d a9 50 0e 3c fa c3 b4 3a
       0.048819024 0.08370534 0.008686223 0.0013791316
0001f0 cf 1a 27 3c 4b 25 db 3b fb 2a bc 3c 55 94 ec 3c
       0.010199263 0.0066877953 0.022969713 0.028879324
000200 a2 6e 87 bd bf e5 a8 bc c9 75 23 bd ab 34 46 bc
       -0.066128984 -0.020617364 -0.03990725 -0.012097518
000210 0e 84 97 bd 27 7f d6 3d af 88 6b 3d ac 85 09 bc
       -0.07398234 0.10473471 0.0575034 -0.008393686
000220 99 ec 8c bd 76 b2 07 3c b5 62 a8 bd bf 3f 67 3d
       -0.06881065 0.0082822945 -0.08221952 0.056457277
000230 bd 84 e4 3d 73 2f ab 3d 58 8e 88 3c 18 9e b4 3c
       0.1115813 0.083586596 0.016669437 0.022048041
000240 4e 3e 84 3c f3 52 dc 3d eb e9 9c 3c 1a 9e 8d bd
       0.01614299 0.10758009 0.01915451 -0.06914921
000250 78 04 82 3d 43 5c 94 bd c0 93 4b bd bf df c5 3d
       0.063485086 -0.0724416 -0.049701452 0.09661817
000260 33 9d 88 3d e1 28 db bd c3 ba aa 3d e7 6e ef 3d
       0.06670608 -0.107011564 0.08336403 0.11691075
000270 c0 f4 4d bc b4 51 e4 bc 32 a3 95 bc 66 bc 50 bd
       -0.01257056 -0.02787099 -0.018266294 -0.05096092
000280 8f 67 93 3d 88 ae e9 3d e6 34 5d 3d d7 e0 a9 3d
       0.071974866 0.11410242 0.054005526 0.08294838
000290 0e d7 a9 3c 2f 32 f7 bd 1c a3 13 3d 63 1e 96 3d
       0.020732429 -0.12070119 0.036044225 0.073300146
0002a0 3d 2f 6f bd 25 66 40 bc 6e 67 4d 3d 30 be b9 3d
       -0.05839466 -0.011743103 0.050147466 0.090694785
0002b0 ed f0 fd 3b bc b7 ba 3c a3 29 d1 bd ad 81 bb bc
       0.007749668 0.02279269 -0.1021302 -0.022888983
0002c0 39 b0 10 3d c6 55 d8 3d e0 dc f7 b9 4f f6 9c bc
       0.03532431 0.10563235 -0.00047276076 -0.019160418
0002d0 a0 dc cd 3b 72 df cb bc e0 83 da 3d 97 f2 eb 3d
       0.006282404 -0.02488682 0.106696844 0.1152088
0002e0 f0 9b c9 bd 5f ff 13 3d 0e 0b 07 3d 42 ba 4b 3d
       -0.09844196 0.036132213 0.032969527 0.049738176
0002f0 6b c0 8a bd d3 ca 1b 3d 54 62 90 bc 82 34 02 3e
       -0.06774982 0.038035225 -0.017625012 0.12715343
000300 6e 9c 3a bc c6 78 25 3d 45 82 cd 3d d0 cc 8c bd
       -0.011389835 0.04039838 0.100346126 -0.068750024
000310 78 51 88 bd 0e 18 d5 3d cd 53 50 3d af 67 84 3c
       -0.06656164 0.10404979 0.05086117 0.016162721
000320 7a da 87 bd c5 c6 24 3d 26 a6 db 3d 91 2b 89 3d
       -0.06633468 0.040228624 0.1072505 0.06697763
000330 ff 0f fa 3a 73 e4 ce 3d 20 fe 96 3c 25 f0 23 3d
       0.0019078254 0.10102167 0.018431723 0.04002394
000340 42 d4 b0 3c 42 8f 43 3c 59 6c ec bc 68 be e5 3d
       0.021585587 0.011936011 -0.028860258 0.11217958
000350 86 3f a4 bd 0d 1d 29 bd 77 b3 b5 3d 5c 83 52 3d
       -0.08019929 -0.04128747 0.08872121 0.051394805
000360 f9 fc ba 3c c9 62 b2 bb 5a ff 4e bd 4d e9 bc bd
       0.022825705 -0.005443905 -0.05053649 -0.09224186
000370 1e 5e c5 3d c1 7f 89 bd d0 1a 7c bc e9 c0 54 3d
       0.09637092 -0.0671382 -0.015387252 0.051941786
000380 92 be 6b 3d a8 4e c9 3a ec a4 fb bd 76 f2 d4 3c
       0.05755479 0.0015358524 -0.12287316 0.02599452
000390 3a 45 89 bd c1 7e 63 3c 51 71 b2 3d 53 86 54 bc
       -0.06702657 0.013885201 0.0871302 -0.0129714785
0003a0 29 4e 17 bc bb 18 bd bb d1 77 89 bd 59 e6 d9 3d
       -0.009234943 -0.0057707704 -0.06712306 0.106396385
0003b0 8e a0 c0 3d b9 28 18 bd bd a3 b1 bd e9 4c e8 3d
       0.094056234 -0.03714821 -0.08673809 0.113427944
0003c0 48 43 70 3d 91 a0 df 3d 63 c8 9b 3d 85 d7 00 3d
       0.058657914 0.109192975 0.0760658 0.031455535
0003d0 16 d1 01 3c aa af 09 be 01 b7 19 3d e5 cd a2 bd
       0.007923385 -0.13445917 0.03752804 -0.079494275
0003e0 c4 7a ef 3c 53 85 36 3d a7 53 82 bc 35 c5 b5 3d
       0.029233344 0.04456074 -0.01590903 0.08875505
0003f0 18 22 c4 bd fd 10 58 bd 6c 15 2a 3c bf 63 1d bc
       -0.09576815 -0.052750576 0.010381084 -0.009606301

down2.maxpool_conv.1.double_conv.1.weight f4 [16]
000000 fe 11 80 3f 0b 0b 7c 3f ff 0c 7c 3f f5 ae 7c 3f
       1.0005491 0.9845435 0.9845733 0.98704463
000010 b3 fb 81 3f 71 4d 7b 3f d8 d5 7e 3f 33 a8 7d 3f
       1.0154938 0.9816504 0.9954505 0.99084777
000020 40 6b 81 3f 05 c4 7f 3f 15 a0 7d 3f 9b 1b 81 3f
       1.0110855 0.9990848 0.9907239 1.008655
000030 02 bd 82 3f ef 55 7e 3f 5e c3 81 3f 8d af 7e 3f
       1.0213931 0.99349874 1.0137746 0.9948662

down2.maxpool_conv.1.double_conv.1.bias f4 [16]
000000 9f 83 5e 3c 87 25 54 3c 7d ab 82 3c 95 32 0e 3c
       0.013581186 0.0129484 0.015950913 0.008679052
000010 0f ba 36 3c 39 ee d9 bb 9e 0e c5 3c c5 58 fb bb
       0.011152758 -0.006650713 0.024054822 -0.0076704943
000020 86 91 30 3d ee 61 4e 3c 18 a4 25 39 e5 3c 8b 3c
       0.043107532 0.01259659 0.00015796756 0.01699681
000030 b3 9b 0f 3d 1d ab c0 3c 1f 04 29 3d 40 fb d3 3c
       0.035060596 0.023519093 0.041263696 0.025876641

down2.maxpool_conv.1.double_conv.1.running_mean f4 [16]
000000 09 3d 7a 3d 66 e4 13 bb 13 9b 72 3e 4a 97 d9 bd
       0.061093364 -0.0022566556 0.23691969 -0.10624559
000010 5d b6 0a 3e 80 20 19 be ea 04 fa 3d b3 dd 99 bc
       0.13546129 -0.14953804 0.122079685 -0.018782472
000020 f5 bd 31 3e 29 c5 36 3e 88 30 d3 bd 3f 0a 83 3e
       0.17357619 0.17848648 -0.10311991 0.25593755
000030 85 11 6d 3e 14 5b 3c 3e 96 f4 48 3e f7 85 3a 3e
       0.23151214 0.18394119 0.19624552 0.18215166

down2.maxpool_conv.1.double_conv.1.running_var f4 [16]
000000 da b3 34 3e 1f 90 40 3e 62 80 09 3f 35 c4 b2 3e
       0.17646733 0.18804978 0.5371152 0.3491532
000010 de 91 0b 3f 50 50 23 3e 35 9d 61 3e 1a ac 3e 3e
       0.5451945 0.15948606 0.22032626 0.18620339
000020 bb b2 17 3f f4 58 97 3e 4d de 83 3e 97 8a 33 3f
       0.59257096 0.29560053 0.2575554 0.70133346
000030 e1 b1 23 3f f1 b8 d0 3e 6e 49 88 3f 3d 7d 8e 3e
       0.63943297 0.407661 1.0647409 0.27829924

down2.maxpool_conv.1.double_conv.3.weight f4 [16, 16, 3, 3]
000000 c4 07 c1 3d 0e 5a 51 3d 9c 99 81 3d 45 5a 77 bd
       0.09425309 0.051111273 0.06328127 -0.060388822
000010 b2 79 d1 3c 78 18 01 3d c6 87 3d 3c 0c b3 fe 3c
       0.025570724 0.031517476 0.011568015 0.031091236
000020 d6 df 81 3d 11 58 79 3d 52 78 2e 3d 68 5a ac bd
       0.063415214 0.060875002 0.042595215 -0.08415681
000030 23 b7 b6 3c bf 3f 07 bd 8b 33 db 3c 7d c9 8f 3c
       0.022304123 -0.033019777 0.026757976 0.017552132
000040 ff 50 b3 bc f4 df ba bd 47 6a 42 bd 50 1b 49 bc
       -0.021889208 -0.09124747 -0.047464635 -0.012274578
000050 df e8 73 bd bc ce 72 bb f9 2f 76 3d 70 42 72 3d
       -0.059548255 -0.0037049493 0.060104344 0.05914539
000060 f7 4b 06 3d 12 8f 71 bd e6 40 27 3d 82 1c 82 3b
       0.03278729 -0.058974333 0.040833376 0.0039706836
000070 88 f3 54 3d f0 fe f2 bc 28 d0 6d 3d 6f ad 6e 3d
       0.051990062 -0.02966258 0.05805984 0.058270868
000080 e4 fe 8c 3d a7 1f 73 3d d0 8e fb bc 77 99 8f 3b
       0.06884554 0.059356358 -0.030707747 0.004382308
000090 20 54 6d bd f6 8c 1a bd 52 39 e9 bc 37 2c 81 bd
       -0.057941556 -0.037732087 -0.028469715 -0.063072614
0000a0 39 a2 46 bd 31 88 90 bd aa 9b 86 3d 43 fb 9e bd
       -0.04849455 -0.070572264 0.06572659 -0.07762768
0000b0 c3 3d 3e bd 19 5c 8b 3c 30 b7 a6 bd 75 ba 5c 3d
       -0.04644562 0.017011689 -0.08140409 0.053888757
0000c0 91 53 69 3d 3d c8 4c 3d 8c fb 94 3c 8f 2e b5 3c
       0.05696446 0.04999565 0.018186353 0.022116927
0000d0 b8 77 92 bd 4b 8b e9 3c 24 d2 0b 3d 41 77 0b bd
       -0.07151741 0.028508803 0.034135953 -0.034049276
0000e0 d8 cd 58 bc 8c d4 60 3d 17 18 aa 3d 8b 34 47 3b
       -0.013232671 0.0548902 0.08305376 0.0030396308
0000f0 ae 94 38 3d 1a 4e 99 bd e0 2c a5 bd ca 4a aa 3d
       0.045063667 -0.074856 -0.080652 0.08315046
000100 ca be 1a bc f2 53 79 bd e2 46 2e 3d d8 aa 48 3c
       -0.009444902 -0.060871072 0.042548068 0.012247764
000110 0b aa c1 3c 4f 27 82 3c 1c ed 03 bd 60 2f 2c bd
       0.023640653 0.015887884 -0.032208547 -0.042037368
000120 43 bd 26 bd 9f 25 1f bd 29 96 32 3d 31 b4 48 3d
       -0.040707838 -0.038854238 0.043600235 0.04899997
000130 18 01 68 3c 10 f1 d1 bc 7f 1b f7 bc dc 04 8a 3d
       0.014160417 -0.025627643 -0.030164478 0.06739208
000140 cb e9 c3 bb 1b 9a 82 3d 6b 08 ac bd 9e cb be bc
       -0.005978798 0.063770495 -0.08400043 -0.023290452
000150 49 40 e3 bc bc b3 bf bc 60 88 2b 3d 50 72 99 bd
       -0.027740614 -0.023401134 0.041878104 -0.074925065
000160 04 3c 04 3c af a3 40 bd be 5a d1 3c ec e4 2a 3d
       0.008070949 -0.0470311 0.025555965 0.041722223
000170 9a 69 ef 3c 8e 10 21 3d af e2 38 bd 4d 48 a0 3d
       0.02922516 0.03932243 -0.045138057 0.0782629
000180 12 4d 86 bb 0a ed 31 3d 22 c1 1c 3d b9 59 80 bd
       -0.004098543 0.04343895 0.038270123 -0.06267113
000190 77 a0 76 3d 72 44 cf bd b3 78 8f bd 84 32 b8 bd
       0.060211625 -0.10120477 -0.070054434 -0.0899401
0001a0 a6 96 3d 3d 3f 72 0b bd 99 05 c6 bc 86 16 54 bd
       0.046286248 -0.0340445 -0.024172591 -0.051779293
0001b0 bc b0 43 3d 2e 1f 3a bd 44 10 fa bc 50 14 33 3d
       0.04777597 -0.04543989 -0.030525334 0.043720543
0001c0 da ba cd bd ef 82 91 bb f6 69 c7 3c 3b b5 a5 bc
       -0.10045405 -0.0044406573 0.024342518 -0.020228019
0001d0 2f 1e 80 bc da d0 37 bd f8 2b 55 bd 5d 3a 5c 3d
       -0.015639393 -0.04487691 -0.052043885 0.053766597
0001e0 4f 34 a7 bc 94 10 cf 3c 00 aa 0e 3d 46 cd 87 3d
       -0.020410685 0.02527646 0.034830093 0.0663095
0001f0 37 44 43 bc 8b 28 5d 3b 30 d6 b9 3b 0d 2e 3a bd
       -0.011918119 0.003374609 0.005671285 -0.045454074
000200 2e 77 63 3c 43 82 7d 3d 68 f4 54 3c 09 99 4a bd
       0.013883395 0.061891805 0.012997724 -0.049462352
000210 87 30 07 bc 43 45 2e bc 9b 59 19 3d 3a 6c 45 3d
       -0.008251316 -0.0106366305 0.03743897 0.048198916
000220 c7 b3 81 bd e3 58 6c 3d 27 b5 90 3d a6 5f 03 3d
       -0.06333118 0.057701956 0.07065802 0.03207364
000230 c0 43 01 bd 06 17 e6 bc cc 27 ed 3b 4a 32 6b bd
       -0.031558752 -0.02808715 0.00723741 -0.057421006
000240 62 4b a6 3c 20 5b 5d 3c fc 9f 2b 3d 3c 0e e4 b7
       0.020299617 0.013510495 0.04190062 -2.7186346e-05
000250 7a 07 4f bb 84 76 61 3d ba 26 38 bd 51 22 74 bd
       -0.003159015 0.055044666 -0.044958808 -0.05960304
000260 26 58 46 3c 72 09 8a 3b 8a 3b 8f 3c 88 8e 87 3d
       0.012105977 0.0042125518 0.017484445 0.066189826
000270 ec ac a6 3b 60 65 ba bc 3e b7 81 bd cc d1 e4 3b
       0.005086532 -0.022753417 -0.06333779 0.0069830175
000280 c7 8b 75 bd 16 4f 8b bd 9d f2 0b 3d 29 d7 5d bd
       -0.059947755 -0.06802194 0.03416692 -0.05416027
000290 d5 2d 89 3c a7 49 5d 3d bf ff 2c 3d 30 64 38 3c
       0.016745487 0.05402532 0.042236086 0.011254355
0002a0 4e 08 ae 3c fc 44 93 3d 45 f1 6a bd 48 d9 58 bd
       0.021244194 0.07190892 -0.057359 -0.05294159
0002b0 1f 71 8c bd a0 ba 2b bc cf b2 57 3d ba fd 74 bd
       -0.06857514 -0.010481507 0.05266076 -0.059812285
0002c0 a0 f3 99 3d 28 c8 61 bb 14 56 94 bd c4 ae a7 bd
       0.07517171 -0.0034451578 -0.072429806 -0.08187631
0002d0 2d 72 11 3d 2e 43 ef bc 75 89 53 bd 46 0f ab bd
       0.035509277 -0.029206838 -0.05164476 -0.083525226
0002e0 e3 e2 bf bc 8f 28 a5 bb 56 2f 79 bb df 94 44 3d
       -0.023423618 -0.0050402354 -0.00380226 0.047993537
0002f0 9c b9 60 3b de ff 9e bc 53 8a 8e 3c d2 08 96 3b
       0.003429032 -0.019409116 0.017399943 0.004578688
000300 9a 3a 92 3d dd d4 26 3c 1b ac 7b 3d 05 bd 1e 3d
       0.071400836 0.0101825865 0.06144343 0.03875448
000310 52 85 86 bd 1b b8 9d bd 5a c5 80 3d 31 b2 8e bd
       -0.065683976 -0.07701131 0.06287642 -0.06967581
000320 da f4 85 3d 3d 5f f7 3b 96 05 81 bd be 68 47 3d
       0.06540842 0.007549195 -0.062998936 0.048683874
000330 65 1b 46 3d 48 99 24 bd 6b 9f ff 3c 50 3e 9d 3d
       0.04836597 -0.040185243 0.031203946 0.07677901
000340 bf 4d d2 3b 95 4a 90 bd 28 77 53 bd ba 79 df bc
       0.0064179595 -0.070454754 -0.051627308 -0.027279723
000350 f2 b1 4e 3d f9 6b 8f bd 32 9a 85 3d b1 85 9c bc
       0.05046267 -0.07003016 0.06523551 -0.019106718
000360 ab 91 eb 3b 13 d0 af bd 23 b2 2c bd 71 b5 a7 bd
       0.007188996 -0.08584609 -0.042162072 -0.08188904
000370 6c db 11 bd e9 40 81 bd 34 5f db bb cf a0 5a 3d
       -0.035609648 -0.06311209 -0.0066946987 0.053376015
000380 45 18 9c 3c 63 ec 47 bd 08 e0 c9 3c 53 14 b1 bd
       0.019054541 -0.04880942 0.02464296 -0.08646455
000390 f7 34 f3 bb 46 0d 41 3d 2a 84 9c 3b e4 73 8b bd
       -0.0074220854 0.0471318 0.0047764974 -0.06809214
0003a0 7a 01 a1 bd 16 4a 13 3d 7e a5 90 bd 1d a3 34 3d
       -0.0786161 0.035959326 -0.07062815 0.04410087
0003b0 a8 65 84 3d b4 b8 69 bd 5b d2 48 3d 3a b7 8a 3d
       0.06464702 -0.057060912 0.049028736 0.06773229
0003c0 26 84 09 bd 8a 6a 15 bd 0d a1 18 bd 6a 47 53 3d
       -0.033573292 -0.036478557 -0.037262965 0.051581778
0003d0 c5 29 b0 bb 72 29 12 bd 32 da fd bc fa 14 55 3d
       -0.005376073 -0.035684057 -0.030987833 0.052021958
0003e0 3d 91 40 3d f6 51 7e bd 0f 77 17 bd 75 de 57 3d
       0.04701351 -0.062089883 -0.036978777 0.052702386
0003f0 71 e9 3d 3d ed 7f df 3b 96 dd 20 bd 81 d7 d3 3c
       0.046365205 0.00682067 -0.03927382 0.025859596

down2.maxpool_conv.1.double_conv.4.weight f4 [16]
000000 08 6e 7a 3f 25 e3 7d 3f 1b 9f 7d 3f 18 2a 7d 3f
       0.97824144 0.9917472 0.990709 0.98892355
000010 38 ac 7a 3f 46 88 7a 3f c2 11 80 3f e3 a6 7c 3f
       0.97919035 0.97864187 1.0005419 0.9869215
000020 7f 2c 7f 3f e5 90 7c 3f 76 83 7c 3f f1 25 7f 3f
       0.9967727 0.9865859 0.98638093 0.9966727
000030 a0 ba 7a 3f 56 2b 82 3f 74 84 7f 3f 3f e6 7b 3f
       0.9794102 1.0169475 0.9981148 0.983982

down2.maxpool_conv.1.double_conv.4.bias f4 [16]
000000 d9 27 b5 3b 50 5f 18 3c ca 5e 13 bd 45 a2 2c 3a
       0.005528432 0.009300068 -0.03597907 0.00065854593
000010 35 65 9b 3c 26 37 0b 3d 6f 84 28 3c 15 14 2d 3b
       0.018969158 0.03398814 0.010285481 0.0026409675
000020 0c 45 8b 3c 1a 72 ec 3b 64 32 1e bc c3 a2 54 bb
       0.017000698 0.0072157504 -0.009655569 -0.0032445646
000030 4a 71 36 bb 10 ac be 3c 6a 7f 19 3b 1b 55 9c bc
       -0.0027838522 0.023275405 0.0023421892 -0.01908355

down2.maxpool_conv.1.double_conv.4.running_mean f4 [16]
000000 46 c8 da bb 02 7c 7e be 81 27 5e be bc e4 1c be
       -0.0066767065 -0.24851993 -0.21694757 -0.1532163
000010 76 bf 96 3e e0 fa bb 3e bf 60 84 be 07 fe 03 be
       0.29442948 0.3671484 -0.2585506 -0.12889872
000020 23 e5 bb 3e 19 7a 30 be 6f df 87 be 40 94 d8 bd
       0.36698255 -0.17234077 -0.26537654 -0.105751514
000030 fa a9 8c 3e 82 ca 9d be ea 73 7c be 60 79 6a be
       0.27473432 -0.30818564 -0.24653593 -0.22897863

down2.maxpool_conv.1.double_conv.4.running_var f4 [16]
000000 26 db 01 3f 13 75 22 3f cc 90 1b 3f fe bd 26 3f
       0.5072502 0.6345989 0.6076782 0.65133655
000010 81 5c f9 3f 43 7c ab 3f e9 e3 5b 3f 2b cb 1e 3f
       1.9481355 1.3397297 0.8589464 0.6202876
000020 58 4b ef 3f 3c 49 40 3f 63 56 bc 3e 61 af 80 3e
       1.8694868 0.75111747 0.36784658 0.25133803
000030 65 3f da 3f 7c 48 45 3f 4f 2a 57 3f e3 25 16 3f
       1.7050596 0.7706373 0.8404893 0.5865156

down3.maxpool_conv.1.double_conv.0.weight f4 [32, 16, 3, 3]
000000 ae d9 7d 3d a5 d3 3c bd 0e b7 29 3d 7a da 92 3d
       0.061975174 -0.046100277 0.04143434 0.07170577
000010 31 05 d3 3b 03 11 78 3d 43 6b 44 bd d5 45 4f 3d
       0.006439828 0.0605631 -0.047953855 0.050603706
000020 8f 8a 2a bd e0 3a 03 bd 13 b0 31 bc 11 bf 08 bc
       -0.041636046 -0.03203857 -0.010845202 -0.008346335
000030 cb b1 fc bc c3 cb 00 3c 1b 35 c0 3b 4f d5 8d bd
       -0.030846497 0.007861081 0.0058657057 -0.06925451
000040 13 d1 8a bd 20 64 82 3d 3a d5 09 bd 2e d1 ac 3d
       -0.06778159 0.063667536 -0.033650614 0.08438335
000050 3b 1d 07 bc a6 88 80 bd c4 23 87 3d 12 2e a2 bd
       -0.008246715 -0.062760636 0.065986186 -0.079189435
000060 31 1e 84 bd 2b af 09 bd 49 55 1c 3d c1 44 5c bd
       -0.06451071 -0.03361432 0.03816727 -0.053776506
000070 0f 42 15 3c fc 23 30 bb b6 43 70 3d 0a 0b b1 3c
       0.009109988 -0.0026876917 0.058658324 0.02161171
000080 82 b8 46 3d 64 5d a6 bc 01 f0 89 3d 96 5c 2d 3d
       0.048515804 -0.020308204 0.0673523 0.042324625
000090 e2 35 8c 3d a6 ca 15 bc 61 ad 91 3d 25 4d 94 bd
       0.06846215 -0.009142553 0.071131475 -0.07241277
0000a0 37 03 08 3d 39 3e 56 3c a1 4c 8d bd fc 6f 8b bd
       0.03320619 0.0130763585 -0.068993814 -0.06808469
0000b0 7d 8b ed bc 8e 65 a5 bd dc ca 92 bd d2 31 20 3b
       -0.028997177 -0.08076011 -0.071675986 0.0024443758
0000c0 74 34 c1 3c 9e 8b 12 bd 84 ae 1b 3b 3e 8f e4 bc
       0.023584582 -0.03577768 0.0023755142 -0.027900334
0000d0 62 61 10 3b 47 58 58 3c 57 ee 54 3d 46 72 33 3d
       0.00220307 0.013204641 0.05198511 0.04381015
0000e0 f2 0c 88 bc ed 67 bf 3c d6 be af 3c ac 7d c3 bc
       -0.016607735 0.023364985 0.021453302 -0.023863636
0000f0 08 4c 44 3d df ab 31 3d 93 84 1b bd 06 78 05 3d
       0.04792407 0.0433768 -0.03796823 0.032585166
000100 54 c7 37 3d 54 7a 81 3d 89 4b 78 3c cf 25 e3 bc
       0.04486783 0.0632216 0.015154728 -0.02772799
000110 78 9c 71 bc 4b 7c 90 bd 35 e7 06 3d 9e e3 16 bd
       -0.014746778 -0.07054957 0.03293534 -0.036838166
000120 44 c4 21 bd 5a be cc bb 4e 49 9d bd c2 22 96 bd
       -0.039493814 -0.0062482776 -0.076799974 -0.07330848
000130 9d 5b aa bd 47 b2 08 3d 1f 6a 30 3d 0b 67 45 bd
       -0.08318255 0.033373144 0.043069955 -0.048193973
000140 ea 3d 22 bd ec 7e 66 3d 46 5e 30 3d 01 f1 96 3d
       -0.039609827 0.056273386 0.043058656 0.073701866
000150 4c 45 02 bd 4a 8e 7c bd 44 eb 9c 3d 9b d6 d2 bc
       -0.031804368 -0.061659135 0.07662061 -0.025737097
000160 0e 2b b3 3c 29 0f 3e 3d 3d a3 3f bc 68 e0 6b 3d
       0.021871116 0.046401177 -0.011696634 0.057587057
000170 7b d6 47 bd c0 68 8e bd a9 3c 58 bd 1a cf 73 3d
       -0.04878853 -0.06953573 -0.052792225 0.05952368
000180 04 b7 32 3b fa d9 90 bb 13 f5 48 3d d2 17 9d bd
       0.002726973 -0.004420516 0.049061846 -0.07670559
000190 53 4b eb 3c b6 b3 22 3c 67 26 82 3d 68 87 69 3d
       0.02872244 0.009930542 0.06354981 0.0570139
0001a0 f6 5d 99 3d 1f 99 83 3d 15 6b 63 3a 8b 57 60 bd
       0.07488625 0.0642569 0.0008675319 -0.054770987
0001b0 81 24 e4 bb 65 08 30 3d 29 70 1f bd 13 ed 70 bd
       -0.0069623594 0.042976756 -0.038925324 -0.05881984
0001c0 51 8f 75 bd f0 a9 30 3b 07 0d 14 3d 94 00 94 3d
       -0.05995113 0.002695676 0.036145236 0.07226673
0001d0 28 01 a5 3c 29 a4 59 bc c6 63 82 bd 59 fb 9d 3d
       0.020142153 -0.013283768 -0.063666865 0.077139564
0001e0 7f 2a 2e bd 29 d2 12 3d 39 86 70 3c ef b3 89 bc
       -0.042520996 0.035844956 0.014680439 -0.016809432
0001f0 a0 91 26 bd 44 b3 06 bd 55 08 3d bd 94 15 07 bc
       -0.040666223 -0.032885805 -0.046150524 -0.008244891
000200 15 3b 22 3d 10 b3 d7 bc 7c 3c 15 3d c2 18 12 bc
       0.039607126 -0.0263305 0.036434636 -0.008917036
000210 c2 5b ab 3d e6 c1 03 3b 30 e5 2d 3d c4 8e 1b bd
       0.08367111 0.0020104586 0.0424549 -0.03797795
000220 1b 25 23 bb 5a ff 49 bd e5 53 8d 3d 78 13 80 bd
       -0.0024893943 -0.049315788 0.06900767 -0.06253713
000230 8a 6d a4 bd 32 93 c2 bc 4f 69 4a 3d 6e 6b 29 3d
       -0.080287054 -0.023751829 0.049416836 0.04136222
000240 49 00 7a 3d 30 65 cf 3c fa 0c 9d 3b 72 2b 55 3d
       0.06103543 0.025316805 0.0047928067 0.052043386
000250 dc 97 81 bd 0d c3 a0 bd a7 8f 41 bd 9f 4e 31 bd
       -0.06327793 -0.07849703 -0.04725614 -0.04328787
000260 62 a7 86 bd 3a 1e c7 bc 18 68 89 bd 69 c3 81 bc
       -0.065748945 -0.024306405 -0.067093074 -0.01584025
000270 0f 6d d5 3c 11 22 a6 bd 42 9e f5 3c 0c ea f3 3c
       0.02605298 -0.081119664 0.02998269 0.029774688
000280 7d 82 9f bd 3c ea b1 bb 61 51 a4 3d 69 45 6e bd
       -0.077885605 -0.0054295342 0.08023334 -0.058171663
000290 6a 79 a7 3d a1 a4 90 3d dc b9 f4 3c e4 1e 41 bc
       0.08177455 0.070626505 0.02987378 -0.01178715
0002a0 27 32 8f 3d 3b f0 1f bc 6c 5f 4f 3d fc 72 6d bc
       0.06991988 -0.009761865 0.05062811 -0.014492746
0002b0 0f 1d 30 bd d4 11 8f 3d 42 1b 9d 3d f8 00 ab bd
       -0.042996462 0.06985822 0.07671215 -0.08349794
0002c0 4e 76 7f 3d 0c a9 93 bc bd 93 a8 bd 9a 21 72 3d
       0.062368684 -0.018024944 -0.08231304 0.059114076
0002d0 ce 66 10 3c 1f d7 22 3d 5c 1d 22 bd 45 cb 91 3d
       0.008813573 0.039755937 -0.03957878 0.07118849
0002e0 60 8a 75 bd 6d 32 50 bc 81 18 de 3c b3 96 88 3b
       -0.059946418 -0.012707335 0.027111294 0.0041683554
0002f0 b0 17 e3 3c 36 86 2d 3d 19 d7 a4 3d 87 23 89 bc
       0.027721256 0.04236432 0.08048839 -0.016740574
000300 f3 8d 88 3d f9 42 4a bd 0c 9b 55 3c 9e f6 91 3d
       0.066677 -0.049380276 0.013037454 0.071271166
000310 c6 26 2f bd 0b a8 8b bb 2a 09 4a 3d d1 9e 99 bd
       -0.042761587 -0.0042619756 0.049325146 -0.07500995
000320 5f 5c 48 3d 41 9f 15 bc b6 d6 e8 bc 58 d3 ec bb
       0.048916217 -0.009132207 -0.028422695 -0.0072273426
000330 70 45 94 bc 69 22 02 3d 37 76 b5 bd fc 9b 8d 3b
       -0.018099517 0.031771097 -0.08860438 0.0043215733
000340 8a 8a 4c 3d 3c 5c 35 3d 66 5f 20 bd c6 a4 8e bd
       0.04993681 0.044277415 -0.03915348 -0.06965022
000350 0d c4 d2 3c ac e0 be 3c 99 44 fe bc 28 6a 03 bd
       0.02572825 0.023300491 -0.03103857 -0.03208366
000360 7e 7f 7d bb 71 62 eb bb a7 a3 26 bc b0 d5 5b 3d
       -0.0038680728 -0.007183366 -0.010170854 0.053670585
000370 61 17 90 3d 13 3d ae bb 5b 67 1c bd 95 fb 8b 3c
       0.07035709 -0.005317339 -0.038184505 0.017087737
000380 e9 44 31 bd 83 3c cc 3c 2e 94 9c 3d 02 bb a9 bc
       -0.04327861 0.024931198 0.076454505 -0.020719055
000390 99 92 c2 3c a9 9b 0d bd dd a0 63 3c 3f 60 1c bd
       0.023751544 -0.034572277 0.013893333 -0.038177725
0003a0 b9 0f 3b 3d 8a 63 df 3c e7 d5 56 bd 76 db 98 3c
       0.04566929 0.027269144 -0.052450087 0.018659335
0003b0 d9 ec 8e 3d 4b 32 28 bc e7 d7 25 3d ae f8 39 bd
       0.06978769 -0.010265897 0.040489104 -0.045403175
0003c0 7e 8b 75 3d 63 09 00 bb ec 8d 8f bd 3c e7 06 bd
       0.059947483 -0.0019536845 -0.07009491 -0.032935366
0003d0 9d 2d 62 bc 76 93 9d 3c 18 3c 46 3d 7c 18 e0 3c
       -0.01380482 0.019235354 0.048397154 0.027355425
0003e0 d6 b7 6a bd e4 aa 8e 3d da 6c 38 3d 92 73 77 3c
       -0.057304226 0.069661885 0.045025684 0.015103238
0003f0 29 01 5d bd f7 75 69 3d 38 fb 39 bd f3 2a 82 bd
       -0.053956185 0.056997266 -0.045405596 -0.06355848

down3.maxpool_conv.1.double_conv.1.weight f4 [32]
000000 7a 21 80 3f 90 b8 7f 3f 27 f1 80 3f 8d 6d 80 3f
       1.0010216 0.99890995 1.0073594 1.0033432
000010 9e 2d 80 3f 11 dd 80 3f 94 c5 7f 3f f7 c9 81 3f
       1.0013921 1.0067464 0.99910855 1.013976
000020 d3 04 81 3f 73 ef 80 3f fc 2e 81 3f ad 09 80 3f
       1.0079597 1.0073074 1.0092463 1.0002953
000030 84 84 7e 3f 65 b1 7f 3f e3 60 80 3f 93 b9 7a 3f
       0.9942095 0.9988006 1.0029567 0.97939414
000040 47 29 80 3f ae 02 80 3f 03 73 81 3f ed 78 7e 3f
       1.0012597 1.0000818 1.0113224 0.9940327
000050 62 f1 7e 3f 3b 43 81 3f b6 a2 81 3f 7b 1d 7d 3f
       0.9958707 1.0098642 1.012778 0.9887311
000060 f4 f1 7e 3f 1f 9e 7e 3f 91 9e 7f 3f 7d 34 80 3f
       0.9958794 0.99460024 0.9985133 1.0016018
000070 30 2a 7e 3f b2 81 7f 3f ec 3e 80 3f 1e 16 81 3f
       0.99283123 0.99807274 1.0019202 1.0084875

down3.maxpool_conv.1.double_conv.1.bias f4 [32]
000000 d5 3e cd 3b 11 ab a8 3c c5 23 9e 3c 0f af 93 3b
       0.0062635937 0.020589383 0.019304166 0.0045069526
000010 fa 07 e2 3c c5 8a b6 b9 2f fa d0 3c b5 83 68 3c
       0.027591694 -0.00034817136 0.025509922 0.014191558
000020 7d 0a bf b5 12 22 66 3c 3f 74 72 3b de d6 ee bb
       -1.4233661e-06 0.014046209 0.0036995558 -0.0072887978
000030 47 d8 00 3b 66 7b ee 3b aa 78 a2 3a 2a 5c 1e bb
       0.0019660161 0.007277894 0.001239558 -0.002416382
000040 ef 4d 53 3c 27 7a 9b 3c 8a b8 e0 3c dc 28 4c 3c
       0.012896999 0.018979145 0.027431745 0.0124609135
000050 73 66 7e 3c 1d f9 45 3c 04 2c 2e 3c 22 14 80 3c
       0.0155273555 0.012083319 0.010630611 0.0156346
000060 78 96 f1 3b be 63 cf 3b 99 f6 1d bb e8 ca c3 3b
       0.0073726736 0.006329029 -0.0024103282 0.005975116
000070 d9 1e 2c bc 00 96 36 3c fe 8f 0a 3c 94 32 a0 3b
       -0.0105054015 0.011144161 0.008457182 0.004888842

down3.maxpool_conv.1.double_conv.1.running_mean f4 [32]
000000 7c 32 1d bd 12 be 2e 3c c4 7f 63 be 54 4f 0f be
       -0.038378224 0.0106654335 -0.22216707 -0.13995105
000010 56 aa cd 3d be f6 22 be 95 8b 19 3e 3a 24 6a be
       0.100422546 -0.15914437 0.14994653 -0.22865382
000020 de bb ab 3d ee b8 72 be 27 67 d8 bd 4b 18 ec bd
       0.08385442 -0.23703358 -0.1056655 -0.11528071
000030 9a 12 a4 be 42 fb a7 3d 14 6d 4f bd 6a 18 ad bd
       -0.32045442 0.082022205 -0.050641134 -0.08451922
000040 5a 33 b6 3c 57 9d 2e bc 26 08 a3 bd 55 2d 16 be
       0.022241283 -0.01065763 -0.079605386 -0.1466573
000050 69 88 c0 bc eb be 37 bc 6b 8c 67 3e 10 63 f5 bc
       -0.023502545 -0.011214952 0.22612159 -0.029954463
000060 8f f4 56 bd 86 33 86 3d 0b bf 28 be 51 08 2a 3e
       -0.052479323 0.06552796 -0.16479127 0.16604735
000070 2e 3e f9 bd ed 8b 21 be ba 18 5f bc c3 18 40 be
       -0.12170063 -0.15776034 -0.013616735 -0.18759446

down3.maxpool_conv.1.double_conv.1.running_var f4 [32]
000000 e5 e5 91 3e 82 df a3 3d 3d 1d 2c 3e 9e 35 1f 3e
       0.28495708 0.08001615 0.16808029 0.15547797
000010 29 4a f7 3d a4 c3 3d 3e 02 72 18 3e b0 e7 92 3d
       0.12074692 0.18531662 0.1488724 0.07173097
000020 d9 be d9 3c b8 8e 11 3e a0 8f 1b 3e a2 05 ae 3d
       0.026580261 0.14214599 0.15191507 0.08497168
000030 64 95 a3 3e 53 74 56 3e 9a b9 93 3d 73 39 6d 3d
       0.31949914 0.20942812 0.07213135 0.057916116
000040 e5 6c 1a 3e f3 9f c5 3d 38 0f 67 3e ca 46 f1 3d
       0.15080602 0.096496485 0.22564399 0.1178108
000050 70 5a 9f 3d 43 a9 5f 3e e7 bc a3 3d 8c 3c 13 3d
       0.077809215 0.21841912 0.07995015 0.035946414
000060 6d 78 c9 3d 0c 28 9c 3d ca ee 0c 3e 1e af 60 3e
       0.098374225 0.07624826 0.13762966 0.21941802
000070 da 7f b9 3e 5c 9d 74 3e 54 97 a7 3e db 6e c5 3e
       0.36230356 0.23888153 0.32732642 0.3856114
