2D_Shape_Completion/model_weights.pth (torch, 533218 bytes, 99 tensors)

inc.double_conv.0.weight f4 [4, 1, 3, 3]
000000 f1 7d 3f 3e 0f 7d a3 bd 93 bb 5d 3e 36 7c af 3d
       0.18700387 -0.079828374 0.21653585 0.08568613
000010 c5 28 7f bc 4c 2e 68 3e ba c7 00 3e 11 90 ef 3c
       -0.015573685 0.22673911 0.1257619 0.0292435
000020 a3 32 bb 3c 62 8a 21 3e 38 f3 a2 be e0 be d4 3d
       0.022851294 0.15775445 -0.31826186 0.10387969
000030 94 fc 8d be 83 2b 47 be f7 cf f5 3d 7b f2 30 be
       -0.27731764 -0.19450192 0.12002557 -0.17279999
000040 eb 6c 04 be a6 fe 93 3e 0f a5 d7 3d f9 50 f7 bd
       -0.12932174 0.2890522 0.10529529 -0.12075991
000050 5f 95 a7 be 50 b7 ac bd 4e d9 13 be 1c 41 99 bd
       -0.3273115 -0.084334016 -0.14438364 -0.07483122
000060 ba 71 9a 3e 02 f6 3f be bf 28 e3 bd 0f 3c ab be
       0.3016489 -0.18746188 -0.11091756 -0.3344426
000070 84 69 74 bb cb 7b 36 be 3d 0a 5c be 0c e5 0a be
       -0.0037294338 -0.17820661 -0.2148828 -0.13563937
000080 44 b1 06 be a3 58 67 3e 85 01 9b 3e 38 91 8b be
       -0.13153559 0.22592406 0.30274597 -0.2725923

inc.double_conv.1.weight f4 [4]
000000 c4 a6 6e 3f 43 8a 76 3f 07 fb 7e 3f ac 3d 87 3f
       0.93223214 0.9630472 0.9960179 1.0565696

inc.double_conv.1.bias f4 [4]
000000 34 ac 41 bd b0 ea 00 bd 9f ea 58 b9 23 0c 7b 3a
       -0.047283366 -0.031473815 -0.00020686768 0.00095766986

inc.double_conv.1.running_mean f4 [4]
000000 9d af 4b 36 c3 c6 d8 b5 1d 65 25 b6 9b 9d 3a b6
       3.0351578e-06 -1.6151101e-06 -2.4645772e-06 -2.7807898e-06

inc.double_conv.1.running_var f4 [4]
000000 5e 37 46 31 85 da d0 31 14 08 a8 31 38 e1 e7 31
       2.8844265e-09 6.0784395e-09 4.890362e-09 6.7485892e-09

inc.double_conv.3.weight f4 [4, 4, 3, 3]
000000 5b 87 35 be 37 1c b4 bd 14 5b c6 3d 1b e6 11 3e
       -0.17727415 -0.08794444 0.096853405 0.14247935
000010 f0 98 95 3d 1d a3 38 3c 20 ee 44 3b ce a3 d4 3c
       0.07304561 0.011269358 0.003004916 0.025957014
000020 ad 84 d9 3d ab 4e 37 3e 5f 50 64 3d 39 d5 04 be
       0.10621009 0.17901103 0.05574071 -0.12971963
000030 0c e3 c2 bc 1e 3b cb 3c a9 db e3 bd 45 75 61 3d
       -0.023789905 0.024808463 -0.11125881 0.055043478
000040 f2 75 7d bd 3f a2 93 bd 18 d4 25 be 4c 3b e4 bd
       -0.06188006 -0.0720868 -0.16194189 -0.111441225
000050 ec b6 1c 3e 64 a0 41 bd b6 97 90 bd 4e 9b 4a bb
       0.15304154 -0.0472721 -0.070601866 -0.0030915323
000060 c0 b2 45 bd 1c cb 61 bd 59 f4 db 3d 72 cc 04 3e
       -0.048266172 -0.05512534 0.10739965 0.12968615
000070 4e c6 3e 3e d8 06 a0 3d 42 a5 a8 3d e6 38 23 3e
       0.18630335 0.07813805 0.082346454 0.15939674
000080 0b ec bf 3c 5d 08 c9 bd 6f 6d d1 bd 76 da 16 3d
       0.023427984 -0.09816048 -0.10225951 0.036829434
000090 d1 81 8b bd df f4 00 be 2c 78 95 3b 3a e1 fc bd
       -0.0681187 -0.12593411 0.0045614447 -0.12347646
0000a0 f9 2e a6 bd cc ca b9 bb c8 01 01 3e ca c5 32 3d
       -0.08114428 -0.005669927 0.12598336 0.043645658
0000b0 93 70 21 3e 53 d9 01 bd 17 4e 74 3d cc 9b ad 3d
       0.157656 -0.031701397 0.059644785 0.084769815
0000c0 65 8b 22 bd f9 eb c7 bd a1 eb 8f bd 95 57 3d be
       -0.03968372 -0.09761805 -0.070273645 -0.18490441
0000d0 4c 72 ee bc ae 64 d1 bd b8 ee 9f bd c5 3b f8 3d
       -0.029107235 -0.10224281 -0.07809204 0.12120775
0000e0 01 6c 3f be 8e 75 d1 bd 6c cf 03 3e 5c 2a e4 bd
       -0.18693544 -0.102275 0.12872094 -0.11140892
0000f0 d5 18 39 be d7 23 6c 3d 47 85 f7 3c e0 a3 e7 3d
       -0.18075879 0.057651367 0.030214919 0.113105536
000100 05 2e fa 3d 60 eb 5c 3b f4 50 11 3d e8 47 f6 3d
       0.12215809 0.003370963 0.035477594 0.12025434
000110 53 e3 e7 3d a2 e2 2f 3d 34 6b 32 bd b8 8b c4 bd
       0.113226555 0.042940743 -0.043559268 -0.09596962
000120 d6 ee 23 be d2 fe 76 bd b0 b0 66 3d 8d 9e b5 bd
       -0.16009077 -0.06030161 0.056320846 -0.08868132
000130 10 a8 2f ba a9 83 b6 3c 22 86 0e 3e 34 66 64 3d
       -0.00067007635 0.022279577 0.13918355 0.05576153
000140 0d ea 6a 3d b5 4d 33 3e a1 66 42 bd 83 a8 24 3b
       0.057352114 0.17510112 -0.047461156 0.0025124855
000150 a4 31 39 3e 74 2e 06 3e a9 cb 6e 3d a4 81 57 3d
       0.18085343 0.13103658 0.058299694 0.05261387
000160 a8 c7 aa bd 1a 83 cd bd 34 64 db 3c f8 18 08 be
       -0.08338863 -0.10034771 0.026781179 -0.13290775
000170 22 7a c9 3d da d2 1c 3d 38 1e 07 be f1 d7 9e bd
       0.09837748 0.03828702 -0.13195121 -0.07756031
000180 85 28 ab bd 62 28 1b be bb 6a 97 bd 1e ad d1 bc
       -0.08357338 -0.15152124 -0.07393404 -0.025595244
000190 74 90 56 3e 01 49 5c 3e 23 27 c7 3b ff 2d f0 3d
       0.20953542 0.21512224 0.0060776635 0.11727523
0001a0 c7 eb 57 3d 38 93 3c bc d7 2c c0 3c 78 46 20 be
       0.05271509 -0.011509709 0.023458881 -0.15651882
0001b0 63 dd dd 3c 4d d9 70 bd 39 41 47 be 8f 93 8a 3d
       0.027083104 -0.058800984 -0.19458474 0.06766426
0001c0 40 97 9c bd 8e f4 2c be 28 d5 c9 3d 1c 67 de 3d
       -0.07646036 -0.16890165 0.098551095 0.1085951
0001d0 e9 67 3a 3d d1 ed 22 be 4f c3 9b bd 6a de ac bd
       0.045509253 -0.15911032 -0.076056115 -0.084408596
0001e0 60 73 a8 bd de c7 3d be e7 96 68 3d 12 3d 66 3d
       -0.08225131 -0.18533275 0.056784537 0.056210585
0001f0 ec b0 cb 3d 75 0c 8a 3c 5c 5e 37 be c0 64 31 3d
       0.099458545 0.016851643 -0.17907089 0.043308973
000200 fa 02 d8 bc 53 bf 4c 3d 22 c2 f2 3d e0 17 aa bd
       -0.026368607 0.04998715 0.11853434 -0.08305335
000210 0f 02 9c bd 47 3f 0c 3d 3f 38 51 be 17 ee 2d 3e
       -0.0761758 0.034240033 -0.20431612 0.16985355
000220 33 e4 0e 3d e2 15 bc bd 5b 61 31 3d cb 88 1e bd
       0.034885596 -0.09183861 0.043305736 -0.038704675
000230 5a ff 9b 3c 3c df 19 be c9 42 5a bc f0 28 90 3c
       0.01904266 -0.15026563 -0.013321587 0.017597646

inc.double_conv.4.weight f4 [4]
000000 dd 5c 75 3f f7 f2 70 3f 9a bc 7d 3f 67 c5 70 3f
       0.95844823 0.94120735 0.9911591 0.9405121

inc.double_conv.4.bias f4 [4]
000000 4d f6 e1 bd 5a a9 03 bd b6 cf 31 bd 69 dd 39 bc
       -0.11033306 -0.032143928 -0.04341098 -0.011344292

inc.double_conv.4.running_mean f4 [4]
000000 ce 14 99 3a 0f 1a d5 39 1c 64 2f 3a f3 34 59 ba
       0.0011679174 0.0004064594 0.00066906377 -0.0008285783

inc.double_conv.4.running_var f4 [4]
000000 59 ef c2 38 ec ce 48 38 ec 8c cf 38 98 54 81 38
       9.295223e-05 4.7876427e-05 9.896778e-05 6.166956e-05

down1.maxpool_conv.1.double_conv.0.weight f4 [8, 4, 3, 3]
000000 e2 e3 e1 bd 99 ca d5 bd a8 78 e1 bd 4c 06 39 3e
       -0.11029793 -0.10439033 -0.110093415 0.18068808
000010 cd fc ed bd 31 47 39 bd ae d9 c6 bd b3 09 34 bd
       -0.116204835 -0.04523391 -0.09709488 -0.043954562
000020 2a fd b3 bc 78 22 c0 3d 90 b9 0b be 18 52 4a bc
       -0.021971304 0.093815744 -0.13645005 -0.012348674
000030 d9 9e 8a bd 5f 7d 42 3e 7a c8 c3 ba c6 54 c6 bd
       -0.06768579 0.18993138 -0.0014937066 -0.09684138
000040 71 f0 17 3e 58 4d 34 bd 68 5f a5 3d 09 5d c0 bd
       0.14837815 -0.044019073 0.08074838 -0.09392745
000050 b1 24 f2 3d d7 6f 19 3e 9f dd e9 bd ac 02 00 3d
       0.118234046 0.1498407 -0.11419224 0.031252548
000060 cb 2d 93 3d 77 7f 25 3e a8 9f f5 bd 4f 87 10 3e
       0.07186469 0.16161905 -0.11993343 0.14114116
000070 3c bd 13 be f5 51 3d bd b0 5e 9c bc c4 3c 3d 3e
       -0.14427656 -0.04622074 -0.01908812 0.18480211
000080 be 98 20 3e 59 23 4d bd e8 98 6f bd 09 20 7c bc
       0.15683267 -0.05008254 -0.058495432 -0.015388497
000090 72 24 e0 3d 4b e6 d4 3d ca 62 94 3d aa 04 19 3e
       0.109444514 0.103954874 0.07245405 0.14943185
0000a0 ba 58 d8 bb 0d 4f 9f 3c 87 62 8b 3d 43 51 a2 bd
       -0.006602374 0.019446874 0.06805902 -0.07925656
0000b0 e0 72 e0 3c e5 af 46 bd e1 1b ff bd c5 f0 9d 3d
       0.027398527 -0.04850759 -0.12456489 0.07711939
0000c0 37 d0 06 bb 44 04 0a ba 41 11 0e be 49 e2 b7 3c
       -0.0020570883 -0.0005264918 -0.1387377 0.022446768
0000d0 6d 05 b6 3d f0 7a 75 3d 8e 6e de 3d e5 e2 02 be
       0.08887754 0.059931695 0.108609304 -0.12781866
0000e0 1c 57 f3 bd 7a 5c 58 3d a7 00 50 bd 57 69 0a 3e
       -0.11881849 0.052822568 -0.050781872 0.13516746
0000f0 5f d9 1a bc 1a 63 3d 3e ba b5 f1 3d 53 6b 04 be
       -0.009451239 0.18494835 0.1180224 -0.12931566
000100 9a bb 87 3c 6c be c3 bc 6a ff 09 be 01 bf 86 3d
       0.016568948 -0.023894511 -0.13476339 0.065794
000110 b1 2f 65 3d bf 91 f8 3d 5d 47 42 3e 6e 76 61 bb
       0.055953685 0.12137174 0.18972535 -0.0034402865
000120 0f cd 82 bc 28 00 56 bd 58 3d 6e 3d 68 a0 06 3a
       -0.01596692 -0.052246243 0.05816397 0.0005135597
000130 2b c2 8f bd a2 1e 5e bc b4 0d 89 bd b4 d7 e5 bc
       -0.070194565 -0.013557108 -0.06692067 -0.028056957
000140 a6 6c 07 3e bf 88 48 bd 3f 3d 92 3d 17 11 06 be
       0.1322504 -0.048958536 0.07140588 -0.13092457
000150 a6 e7 cf bd bf 47 91 bd be 13 83 3d b5 9b 09 3e
       -0.10151605 -0.070937626 0.0640025 0.13438304
000160 e0 63 7f 3d 0d 3f 91 bd 29 b9 68 3d b2 69 1e be
       0.062351108 -0.07092104 0.056817207 -0.15470007
000170 e4 1b 0c be 2b f5 da 3d ec 3c 05 be a9 54 56 bd
       -0.13682514 0.10691293 -0.13011521 -0.052326832
000180 8b 9e db bd 7a 0d 70 bd 67 76 02 3e 1b 20 95 bd
       -0.10723599 -0.058606602 0.1274048 -0.07281514
000190 26 37 da bd ca be 1f 3e b2 8a 1e be 1b e4 fa bc
       -0.1065505 0.15600124 -0.15482596 -0.030626347
0001a0 d7 75 65 bc 6f a2 c0 3b b1 7c 0f be 8b 65 a8 bd
       -0.014005146 0.0058787386 -0.1401241 -0.08222493
0001b0 90 b8 a7 3d 63 7f 26 3e 18 27 34 bd a6 60 cb 3c
       0.081894994 0.16259532 -0.043982595 0.024826359
0001c0 ec 20 82 3a d7 df f6 3d 98 ed 48 bd 5b 98 d3 3d
       0.0009928024 0.12054413 -0.049054712 0.10331794
0001d0 fc 17 01 be 46 d5 7b bd b0 63 d1 3d a5 d3 7b 3d
       -0.12606806 -0.06148269 0.10224092 0.061481137
0001e0 b9 84 c4 3c 47 63 d0 bd d8 93 49 bc e5 16 b6 3d
       0.023989068 -0.10175186 -0.012303315 0.088910855
0001f0 86 fe 06 be 65 2f fc bd 0f fb f4 3c 1c 58 80 3d
       -0.1318303 -0.12313727 0.02990487 0.062668055
000200 2e 98 1b be d5 99 25 3e 2e d7 01 3e cf f9 81 bc
       -0.1519477 0.16171964 0.12679741 -0.015866188
000210 d4 49 ef 3d d4 a9 0d 3e bd 04 ac bd f0 f8 26 3b
       0.116840035 0.13834316 -0.08399341 0.0025477968
000220 14 e8 cc bd aa d3 06 be d6 db ad 3d 7b 5c 24 3e
       -0.10005203 -0.13166681 0.08489196 0.16050903
000230 75 a6 30 3e de e8 3a bd 59 63 fc bd 82 18 a8 3c
       0.17250998 -0.045632236 -0.123236366 0.020519499
000240 69 88 24 3d bf 8c ee bd 5b 67 2d 3c 0b 5a b3 3c
       0.040169153 -0.11647939 0.010583724 0.021893522
000250 c2 32 73 bd f3 2b e8 bc 03 77 51 bd 51 c7 ba 3d
       -0.05937458 -0.02834127 -0.05113889 0.09120048
000260 b3 e3 ca bd e2 69 62 bd 55 fd ce 3d 1f 07 5c bd
       -0.099067114 -0.05527676 0.10106913 -0.05371773
000270 25 a3 f1 3d b2 c7 27 be f7 f9 93 3d 8d 43 89 3c
       0.117986955 -0.16384771 0.072254114 0.016755844
000280 0e 97 fe bd 41 a2 de 3d be 3b 50 bd d4 73 9f bc
       -0.12431155 0.10870791 -0.050838225 -0.01946441
000290 11 56 5e bd 46 56 f5 bd b2 5d a7 bd be 1e 16 be
       -0.054281298 -0.11979346 -0.08172168 -0.14660165
0002a0 6e 3d 6a 3d 7e b6 70 bd 7f 4b 24 bd 6c 42 1f be
       0.05718749 -0.058767788 -0.04011106 -0.15552682
0002b0 0f d4 5a 3d 6f 01 a2 3d ce d8 11 3e 75 68 7d 3d
       0.05342489 0.0791043 0.1424286 0.061867196
0002c0 96 da 1a 3d 0b 71 16 3e 2f c4 3c 3c 2c 29 bf bd
       0.037806116 0.1469156 0.011521383 -0.09334025
0002d0 3b 2f 34 bd 48 9a 1e 3e 47 63 0e be 86 e8 91 bd
       -0.043990355 0.15488541 -0.13905059 -0.071244285
0002e0 54 6c cd bd d4 69 86 3d 14 c2 ce 3d 58 64 49 be
       -0.100304276 0.06563154 0.10095611 -0.19667184
0002f0 09 46 e5 3d 80 0a 40 3d d4 63 ee 3d bb 5e e5 3d
       0.11194999 0.046885014 0.116401345 0.11199709
000300 e4 b4 b7 3d 84 7b 2a 3e 27 44 f1 ba 55 5b 0f 3d
       0.08970049 0.1664868 -0.0018407152 0.03499921
000310 7a 81 f7 3d 5e 09 96 bd 64 3a cf bd 87 60 05 3e
       0.120852426 -0.073260054 -0.10118559 0.13025104
000320 c1 23 c5 bd 21 62 50 ba 9a 71 49 3e 42 41 98 3c
       -0.0962596 -0.00079491927 0.19672242 0.018585805
000330 c1 00 fe 3d 3a 9a 0f be f1 3e b6 3d c1 58 d5 3d
       0.124024875 -0.14023677 0.08898724 0.10417319
000340 01 c9 ad bd 4b 71 21 3e 8d f0 2b 3d c6 34 a0 bc
       -0.08485604 0.15765874 0.041977454 -0.019556414
000350 38 d6 2c 3e 04 f1 56 bd 20 95 fe 3d ec ad b8 bd
       0.16878593 -0.052475944 0.12430787 -0.09017548
000360 16 c9 c1 3c 02 c4 57 bc a0 73 22 bd 6c 03 57 bd
       0.023655456 -0.0131692905 -0.03966105 -0.052493498
000370 2f ec c6 3b b6 c1 0b be d8 0b 3a be 3b fd f3 bd
       0.0060706357 -0.13648114 -0.1816858 -0.11913534
000380 da 9c 42 be 80 22 40 bd f8 6b ef bc 01 dc 35 bd
       -0.19005147 -0.0469079 -0.029226288 -0.044399265
000390 db d6 88 bd c5 bd a4 3d c1 d7 0b bb 45 93 b2 3c
       -0.066816054 0.08044008 -0.0021338316 0.02179874
0003a0 51 c3 a2 3c e7 1b 0b 3e bc 7a 88 bd 5b a6 0e be
       0.019868525 0.13584863 -0.06664035 -0.13930647
0003b0 85 9f cd 3c 58 37 e8 3c 7f 52 23 bd 3f 67 33 be
       0.025100479 0.028346702 -0.039873596 -0.17519854
0003c0 b9 95 ef bd 73 a3 17 3d b1 1c e1 bc cf 4d 23 bd
       -0.11698479 0.03702111 -0.027479501 -0.039869126
0003d0 6e c7 d1 bd 05 dc 13 be 99 d9 53 bd 4a 07 16 be
       -0.10243116 -0.144394 -0.05172119 -0.14651218
0003e0 cb 5b 58 bd d1 42 76 3d 16 08 a1 3c f6 62 c0 bd
       -0.052821916 0.060122315 0.019657176 -0.09393875
0003f0 35 6c 84 bd 8a 38 33 be f3 3b 0e 3e ff cf ea 3d
       -0.06465951 -0.17502037 0.13890056 0.11465453

down1.maxpool_conv.1.double_conv.1.weight f4 [8]
000000 9d 96 82 3f 63 33 81 3f 34 ac 7c 3f 0e 93 77 3f
       1.0202214 1.0093807 0.9870026 0.9670876
000010 2c be 81 3f e1 3d 82 3f 22 07 83 3f 5b 45 7b 3f
       1.0136161 1.0175134 1.0236552 0.98152703

down1.maxpool_conv.1.double_conv.1.bias f4 [8]
000000 88 19 26 bc a9 82 36 ba dc e8 02 3d ec 27 ed bb
       -0.010137923 -0.0006962219 0.031960353 -0.007237425
000010 b0 16 51 bc 1f 31 0d 3d 37 69 eb 3c 4a 66 b5 3c
       -0.012761757 0.034470674 0.028736694 0.022143502

down1.maxpool_conv.1.double_conv.1.running_mean f4 [8]
000000 5d fe 67 bb 57 79 da 3d 6e 84 d6 bd 15 ac 92 3d
       -0.0035399415 0.10667675 -0.10474478 0.07161728
000010 80 6a 76 bd d8 bc d6 3d ce 5c 47 be 04 b4 d5 bd
       -0.06016016 0.10485238 -0.19468996 -0.10434726

down1.maxpool_conv.1.double_conv.1.running_var f4 [8]
000000 3f af 22 3f 58 21 34 3f 0c 2d 36 3f d0 2f 5a 3f
       0.63548654 0.7036338 0.71162486 0.85229206
000010 5c 53 f0 3e 3e 7d 7d 3f 2c 27 c4 3f 0c aa 84 3f
       0.46938598 0.9901923 1.5324454 1.0364394

down1.maxpool_conv.1.double_conv.3.weight f4 [8, 8, 3, 3]
000000 33 83 fa 3d c2 ce 80 bc 0b f6 62 bd 65 f4 9f 3d
       0.122320555 -0.01572359 -0.055410426 0.078102864
000010 b5 57 f3 bd 4b d3 7c 3c 38 34 a1 3d 81 2a 29 bd
       -0.11881963 0.015431236 0.07871288 -0.0413003
000020 2d 58 db bd 20 1e 8d bd b7 e6 c1 bd 22 2f 4d 3d
       -0.107101776 -0.068905115 -0.094678335 0.050093777
000030 58 b9 98 bd ac d4 aa bd 0e 44 75 bd 71 1d 84 3b
       -0.074572265 -0.08341345 -0.059879355 0.00403183
000040 9a 29 bc 3d 9c 4f ed 3c 57 e9 3e bd 4d 3b ff 3c
       0.09187622 0.028968625 -0.04660925 0.031156207
000050 dc 53 18 bd 9f e1 1b 3d b2 c1 c5 bd 8f 68 db 3c
       -0.03718935 0.038056966 -0.09656085 0.026783256
000060 15 04 64 3d 26 25 cd bd 94 4e 48 3d da 6a c3 bb
       0.055667955 -0.10016851 0.048903063 -0.0059636654
000070 52 2a 10 bd 79 3b 25 3d 0b 81 c1 3d 2a db 01 be
       -0.03519661 0.04033992 0.09448441 -0.1268126
000080 b0 49 cf 3d b2 d1 70 bd 50 27 d3 bd af 52 87 bd
       0.10121477 -0.05879373 -0.10310233 -0.066075675
000090 95 b1 1f 3c ca 71 87 bd 8c 02 e1 bd 16 56 0e 3d
       0.009746929 -0.066135004 -0.10986814 0.034750067
0000a0 44 ab ca bd 7c 85 97 bd 55 c4 d9 3d 60 2c 95 3c
       -0.098959476 -0.07398507 0.106331505 0.018209636
0000b0 42 df a9 3c b4 ef b3 bd 4a c5 54 3c 3e 39 77 bd
       0.02073634 -0.08785954 0.0129864905 -0.060357325
0000c0 54 37 e5 3d 01 c0 e1 3c d1 4b e9 3d cd 1b 82 bd
       0.111921936 0.027557375 0.11391414 -0.06352959
0000d0 44 9b 86 bc dd 80 34 bd 81 33 81 bd cb 15 06 be
       -0.016431458 -0.044068206 -0.06308652 -0.13094251
0000e0 02 e4 b6 bd ed 75 88 bb c9 73 a4 3c af 3a 65 bc
       -0.08930208 -0.0041644485 0.020074742 -0.013991042
0000f0 f8 26 86 3d 28 ab 40 bc 9d 02 e3 bc f8 da e0 3d
       0.065504014 -0.011759557 -0.027711207 0.10979265
000100 d1 4d cf 3c be f2 6c bc e0 3e 8c ba 58 ce 65 bd
       0.02530566 -0.014462171 -0.001069989 -0.056104988
000110 ea 12 fb 3d 5d b0 b4 bd 16 ab b5 bd 27 67 6f bc
       0.12259467 -0.08822701 -0.08870523 -0.014611996
000120 c6 f6 5e 3d 13 c3 76 3b e7 16 14 bd 84 f7 8a bc
       0.05443456 0.0037652894 -0.036154654 -0.016963728
000130 01 3e 47 bd 7b aa 75 bc 36 4e 8a 3d 61 11 e3 3d
       -0.048643116 -0.014994259 0.06753199 0.11087299
000140 18 87 e0 3d 68 bf db 3d 78 08 11 3d ad 1d d2 bc
       0.10963267 0.10729867 0.035408467 -0.025648916
000150 f9 54 02 3d 05 0f be 3d 81 2c 84 bd 6e c6 6f 3d
       0.031819317 0.092802085 -0.06453801 0.058538847
000160 09 19 22 3d a5 f2 2c 3d c5 70 1a 3e f5 6a ca 3d
       0.039574657 0.04222359 0.1508208 0.09883682
000170 a8 aa 8d bd 22 02 88 3a 71 36 6e 3d 27 24 cd ba
       -0.06917316 0.0010376612 0.058157388 -0.0015651033
000180 44 67 02 be 85 d4 3f bd 75 12 dd 3b c8 9d 01 3d
       -0.12734705 -0.046833534 0.006746585 0.031644613
000190 ac e4 0c 3d 4d bf be bd 6c c5 df bc a3 35 74 3d
       0.034397766 -0.093138315 -0.027315818 0.059621464
0001a0 2f 85 2a bd 8c be 67 3d fb c4 6e bd e8 fc c6 3d
       -0.04163092 0.056578204 -0.058293324 0.09716207
0001b0 9a b2 3e bd 5c e6 c6 3c 0b 28 84 bd 00 c7 a2 bc
       -0.046557046 0.024279766 -0.0645295 -0.019870281
0001c0 6a b2 87 3d 1f b6 3d 3e 4c cb ae bb aa 54 02 bd
       0.06625827 0.18526505 -0.0053342935 -0.031819023
0001d0 99 bc 96 bb f2 d6 72 3c 8b 16 bd 3c b7 d9 18 3e
       -0.0046001193 0.014821755 0.023082038 0.14926802
0001e0 f9 3c c5 3d a8 85 95 3d e3 56 61 3d 17 88 44 bd
       0.0963077 0.073008835 0.055014502 -0.047981348
0001f0 df 97 c7 3c ac 2a c1 3d c3 4a dd bd 52 4e a2 bd
       0.02436441 0.09431967 -0.10805275 -0.07925095
000200 ab 78 13 3d cb 30 8f 3c f1 58 10 be 0f d2 5d bd
       0.03600375 0.017479321 -0.14096428 -0.054155406
000210 31 26 53 3d 89 bf 8d bd 95 21 1c bd 3e e7 f4 3c
       0.051550094 -0.06921298 -0.038117964 0.029895421
000220 ca 95 d6 bd 9d 9a 0b 3d 8e c3 b7 3a 6f b5 5d bd
       -0.10477789 0.034082998 0.0014020072 -0.054128107
000230 e3 73 86 bd 7b d5 d0 bc 0b 1c 6b bd 7a fb 9d 3d
       -0.065650724 -0.02549242 -0.05739979 0.07713981
000240 3a 12 65 bd cc 4c 57 3d e9 16 ce bd 88 0b b6 bb
       -0.055925585 0.052563474 -0.100629635 -0.005555574
000250 27 bc c9 3d 76 62 d3 bd f1 d0 a4 bc c0 cb 73 3d
       0.0985034 -0.10321514 -0.020119162 0.059520483
000260 e1 c3 5a 3d fd e3 8e 3c 76 ae 09 3d 33 57 09 be
       0.05340946 0.017442698 0.033613645 -0.1341217
000270 cd 3b b9 bd de aa da bc 27 46 10 3c da 3c 6f 3d
       -0.09044609 -0.026692804 0.008805788 0.058407642
000280 a1 20 8e bd dc b0 55 bd 5d bb 76 3d a3 ad 03 3c
       -0.06939817 -0.05217062 0.060237277 0.008037004
000290 f9 5a 3f 3d b5 e9 2e 3d 3a 1a f2 bc 0c f0 13 3d
       0.046717618 0.04270335 -0.029553521 0.0361176
0002a0 ae fb 26 bc ca 75 20 bd 1f 02 bb 3d c1 3a 08 bd
       -0.010191841 -0.039174832 0.09131264 -0.033259157
0002b0 ad c2 84 ba 1b ca d3 bd 74 00 30 3d ef 4d 93 bd
       -0.0010128819 -0.10341283 0.042969182 -0.07192599
0002c0 cf 3c 10 3d 82 cd 54 bc 4c 7c c7 bc 67 2a 00 be
       0.03521424 -0.01298845 -0.024351262 -0.12516175
0002d0 54 2c fa bc f2 83 ae 3d 3e cc 80 bd fe 7f 95 3c
       -0.030538715 0.0852126 -0.06288956 0.018249508
0002e0 ae fc 89 3c dd ba c8 bd f5 28 86 bd 30 3c 05 3e
       0.01684412 -0.09801266 -0.06550781 0.13011241
0002f0 96 de b3 bd 5d b4 f9 3c d6 ef 9c 3a f0 6d 45 ba
       -0.08782689 0.030481512 0.0011973332 -0.00075313356
000300 0e c0 d7 3d a2 c8 aa 3d 69 26 d8 bd 8d e1 f8 3b
       0.105346784 0.08339049 -0.10554201 0.007595247
000310 68 2e a2 bd a1 e5 fc bd 04 f9 60 3b e9 3b 9e bb
       -0.079190075 -0.12348486 0.0034328112 -0.004828919
000320 7c 1a b7 3d 6e 1b 64 bd ee 12 8f bd d3 bf c4 3c
       0.08940598 -0.05569022 -0.069860324 0.02401725
000330 ed f6 86 3d 24 81 af 3d e3 af 0c 3d f7 50 e6 bc
       0.06590066 0.085695535 0.034347426 -0.028114779
000340 d8 cd f4 3d dc f8 c2 3d a7 70 b8 3d 1f 77 d7 3d
       0.11953324 0.095201224 0.09005862 0.105207674
000350 b2 80 f0 bd 86 3d 13 bd f8 45 b4 3c 5e c6 8b 3d
       -0.11743297 -0.035947345 0.02200602 0.06824945
000360 bf 72 00 be 04 8b ed 3d f5 91 8e bb 63 bc 32 bd
       -0.12543772 0.11598781 -0.0043508955 -0.04363669
000370 98 d5 21 be 98 04 a9 3d f7 70 17 bc df f5 dd bd
       -0.15804136 0.08252829 -0.0092432415 -0.10837912
000380 25 b7 1d 3c 1b 3e e8 bd 27 ab d1 bd 29 0c db 3d
       0.009626185 -0.11339971 -0.10237723 0.10695679
000390 19 8a 36 3c 40 02 cf bd 79 75 d5 3d cc 9c f8 bc
       0.0111413235 -0.10107851 0.10422797 -0.030348204
0003a0 e6 e6 a6 3c 75 e8 80 bd e8 0a 87 3d f8 e3 90 3b
       0.020373773 -0.06294338 0.06593877 0.0044217072
0003b0 d6 df aa bb 9c bd 9f bd 22 e3 d6 3d db ff 20 3d
       -0.0052146716 -0.07799837 0.10492541 0.039306503
0003c0 06 6f 78 3d a2 f4 0e bd 30 20 20 3d 7f 11 81 3d
       0.060652755 -0.03490127 0.039093196 0.06302165
0003d0 a7 4b a4 3d bb 0f 8c bd 5c c4 9b bd 7d 4c 91 3d
       0.08022242 -0.06838938 -0.07605812 0.07094667
0003e0 96 47 39 3c db f6 cf 3a f1 1e 80 3d 36 0c db bd
       0.011308571 0.0015866415 0.062559016 -0.106956884
0003f0 f0 65 9e 3d 3f 6b 54 bb 3b 10 10 bd 2e 9c 8a 3c
       0.07734287 -0.0032412556 -0.03517173 0.016920175

down1.maxpool_conv.1.double_conv.4.weight f4 [8]
000000 c0 23 7c 3f 25 47 7d 3f ce 5e 7b 3f 26 51 74 3f
       0.9849205 0.9893668 0.98191535 0.9543632
000010 0a 85 79 3f 07 f6 71 3f 92 db 76 3f 26 df 78 3f
       0.97468626 0.9451603 0.9642879 0.972155

down1.maxpool_conv.1.double_conv.4.bias f4 [8]
000000 b3 90 db bc bb d7 27 3d b8 f6 86 bc 0c c9 10 bb
       -0.026802396 0.04097722 -0.016475067 -0.002209249
000010 ed bc 22 bd e5 89 57 bb 37 8e 48 bc 34 52 ef 3c
       -0.039730955 -0.0032888588 -0.012240938 0.029214002

down1.maxpool_conv.1.double_conv.4.running_mean f4 [8]
000000 c4 1f ef bd 84 db 53 3d 27 49 82 3c e8 b9 70 3b
       -0.11675981 0.05172302 0.015904022 0.0036731903
000010 f7 ba b6 bd de bc 86 3c 86 95 90 3a a3 20 e4 3b
       -0.089223795 0.01644748 0.001103089 0.0069618984

down1.maxpool_conv.1.double_conv.4.running_var f4 [8]
000000 e5 ff 59 3e 88 13 ec 3e 8b b6 83 3e 94 da 34 3e
       0.21289022 0.4610865 0.25725207 0.17661506
000010 0e 80 b8 3e 56 76 d5 3e 3d b4 26 3e 0b 02 89 3e
       0.36035198 0.41691846 0.16279693 0.2675937

down2.maxpool_conv.1.double_conv.0.weight f4 [16, 8, 3, 3]
000000 e4 e7 11 3d 37 ef 59 bd f1 2d 83 3c f2 cc 99 bc
       0.03562154 -0.05320665 0.016013118 -0.018774483
000010 79 6c 62 bd 14 09 aa 3b 55 6a 17 be 07 eb a3 bd
       -0.05527923 0.0051890705 -0.14786656 -0.08003812
000020 45 c8 27 bd 3a 5c 9b bc e7 a6 a7 3c 56 e5 90 3d
       -0.040962476 -0.018964875 0.020465327 0.07074992
000030 24 6e bb bd 46 f6 8e bd 41 a8 23 bd 1a ab ad 3d
       -0.09151867 -0.06980567 -0.03995538 0.08479901
000040 e0 e2 dc bc 74 53 b4 bd 6d 6f c7 3c 77 34 46 3d
       -0.026963651 -0.0880498 0.024345124 0.048389878
000050 82 5f e2 bb f1 d3 89 3d 7f e8 16 3c 11 c2 72 3c
       -0.006908358 0.06729878 0.009210705 0.014816777
000060 e9 96 96 bd ce 43 a5 3d cf d1 a7 3c a2 2d 12 be
       -0.073530026 0.08069573 0.020485787 -0.1427522
000070 eb 2f b7 bd 77 8b de bd 04 cf 55 3b c5 e4 f6 bd
       -0.089446865 -0.108664446 0.0032624612 -0.12055353
000080 18 0e d4 bd e9 23 a5 bd 4a 62 b0 3c 44 db 3b bd
       -0.10354251 -0.0806349 0.021531243 -0.045863405
000090 bf 98 84 bd fc 4a 62 bd fd 75 fd 3c 2d 13 2f bd
       -0.064744465 -0.055247292 0.03094005 -0.042742897
0000a0 f0 e5 cd 3d f8 87 fc b9 8e 52 0e 3d 95 1c 06 be
       0.10053623 -0.0004816649 0.0347467 -0.1309684
0000b0 17 27 c4 3d 90 52 06 be 8f d0 89 bc e0 00 a2 3d
       0.09577768 -0.13117433 -0.016823081 0.07910323
0000c0 5d 45 c5 bd 89 97 0f 3b 46 40 c7 3c e3 13 50 bc
       -0.096323706 0.002191039 0.02432264 -0.012700054
0000d0 d3 14 80 bd bc 04 da 3c 5c 11 b0 bd 63 88 9e bc
       -0.06253972 0.026613586 -0.08597061 -0.019352144
0000e0 f3 85 3e 3c 48 60 74 3d a9 45 9f bd 37 da 0c bb
       0.011628616 0.059662133 -0.077769585 -0.002149237
0000f0 b2 81 0b be 45 40 ed 3c 3f 74 00 be c1 72 bf bc
       -0.13623694 0.02896131 -0.12544344 -0.023370149
000100 c0 d8 be 3b 7a 61 d6 bd 9e 3d cb bb 91 eb 46 3d
       0.0058241785 -0.10467811 -0.0062024137 0.048564497
000110 21 a1 87 3d af 42 c0 bd ac 10 cc bd 9f d8 3f bd
       0.0662253 -0.09387719 -0.099641174 -0.046837445
000120 5c 29 51 3d a6 88 6c ba 6a 5d f3 3d 26 61 1d 3e
       0.051064834 -0.0009023048 0.11883052 0.1536909
000130 a5 34 12 3e 7a 26 7b 3c 3c f2 48 bc d5 b7 5b 3c
       0.14277895 0.015328998 -0.012264784 0.013410528
000140 26 3e 35 bd 3e 3d 88 bd 5f e1 e9 3c b4 4a 0f bd
       -0.044248722 -0.06652306 0.028549848 -0.03498335
000150 43 df 60 bb c9 be 47 bd c6 54 18 bd a6 5b f4 3d
       -0.0034312762 -0.04876593 -0.03719022 0.11931543
000160 26 58 54 3d c6 49 59 3d fc fd 13 3d 94 ad d4 3d
       0.051841877 0.05304887 0.03613089 0.1038467
000170 f1 6b a6 bd 63 7f b5 bc 3c ec 94 bd 53 fe df 3d
       -0.08126057 -0.02215547 -0.07271621 0.1093718
000180 b0 1f 92 bd c1 62 7d 3d 73 87 a1 bd 8c 01 9b 3d
       -0.0713495 0.061861757 -0.07887163 0.075686544
000190 2e 2a 9e 3d cf 05 b1 bd a8 dc 52 3d a6 7d 57 3d
       0.07722889 -0.08643686 0.051479965 0.052610062
0001a0 f5 dc 67 3d b3 c7 de 3d 8c 6c ea bc 2a 4c d7 3d
       0.056607205 0.10877933 -0.028616212 0.10512574
0001b0 a4 83 b9 bd f7 71 a8 bd 61 0b 1f 3d 9d e9 a6 3d
       -0.090583116 -0.08224862 0.03882921 0.08150027
0001c0 15 b0 85 3d 9f 60 8d bd ea a0 b1 bd 29 58 ea bc
       0.065277256 -0.06903195 -0.0867327 -0.028606491
0001d0 02 6f db 3d 58 de ea 3d fa 65 02 3e 4e 94 9b 3d
       0.107145324 0.1146819 0.12734213 0.07596646
0001e0 c8 90 5d 3d dc 6e 68 3c 6e ea 32 3d 6e f1 0e bd
       0.054093152 0.014186587 0.0436806 -0.034898214
0001f0 cb 56 55 bd d4 22 dc 3d 71 7c fb 3d 70 84 36 3d
       -0.052084725 0.107488304 0.12279595 0.044559896
000200 32 d7 b4 3d 75 b6 fa bc 2b 6a 53 bd e4 ab ad 3c
       0.08830108 -0.03060458 -0.05161492 0.021200128
000210 79 9e 32 bd c6 43 88 3c d7 53 30 bd 97 80 aa bc
       -0.043608163 0.01663388 -0.043048706 -0.02081327
000220 55 19 39 bc a8 40 03 3e cd 8d 90 3d 0e 34 6b 3d
       -0.0112975435 0.12817633 0.07058296 0.05742269
000230 1b 71 dc bd ce 54 89 bd 0e 8f 4c 3d 4c be f5 3d
       -0.10763761 -0.06705628 0.049941115 0.11999187
000240 1b 4f ad bd 0c b8 9b bd 50 aa 8f 3d 28 9b a7 bd
       -0.08462354 -0.076034635 0.070149064 -0.081838906
000250 50 9f 94 bd b2 83 b8 3d 5d b6 fa 3d 6f d6 f6 3d
       -0.07256949 0.09009494 0.12241814 0.12052619
000260 d4 2d 1d bc 81 16 6b bd 14 55 e9 bd 48 ec aa 3d
       -0.009593446 -0.05739451 -0.113931805 0.08345848
000270 67 cc 21 3d 0c 4f 99 3c 65 84 6f bd f4 df 4a bc
       0.039501574 0.01871445 -0.05847587 -0.012382496
000280 7d 3c 7b 3d bb 13 0d 3d d4 be aa 3d 2e db c5 bd
       0.061336983 0.034442645 0.08337179 -0.09660946
000290 81 46 50 3c 64 9a 92 3d 91 a3 cd bd 0f ac b8 3d
       0.012712122 0.07158354 -0.100409634 0.090171926
0002a0 ad 5f ad 3d 03 74 17 bd aa 23 a6 bc 70 a3 2f bc
       0.08465514 -0.03697587 -0.020280678 -0.010720119
0002b0 5c d5 2c bd d1 2f b0 bc 88 53 10 bd 8d 6f 89 bd
       -0.042195663 -0.021507176 -0.03523591 -0.0671073
0002c0 31 bb 68 bd ca b1 d7 bd 10 aa d5 bc 0a 61 b3 3d
       -0.056819145 -0.105319574 -0.026082069 0.08758743
0002d0 93 e1 aa bc 52 4a b4 3d 5b a6 86 3d 76 0b 8c 3d
       -0.020859515 0.08803238 0.065746985 0.068381235
0002e0 2f d1 67 3d 15 c4 57 3d 5c 44 80 3d 94 4c b8 3d
       0.056595977 0.052677233 0.062630385 0.08998981
0002f0 80 1c ad 3d 23 ff 80 3d 6d b5 48 bd e3 74 12 3d
       0.084527016 0.062986635 -0.049001146 0.035756003
000300 cf ab 92 3d d4 a8 8c 3b e6 a6 ae bc 58 12 d8 3d
       0.07161676 0.004292587 -0.021319818 0.10550374
000310 fb 5f a5 bc e4 24 af bd 8e 9f 05 bd d4 a2 1d bd
       -0.020187369 -0.08551958 -0.032622866 -0.038485363
000320 45 48 a2 bd c1 6e 85 3d b2 43 48 bd 64 bb 98 bd
       -0.079239406 0.06515265 -0.048892684 -0.07457617
000330 ac a2 cb 3d 65 1a ea 3d 98 2b 17 3e 3e a8 f3 bd
       0.099431366 0.114308156 0.14762723 -0.11897324
000340 d6 76 81 bd 95 cd a4 bd 79 b2 26 3d 76 41 37 bd
       -0.06321494 -0.08047024 0.04069755 -0.044740163
000350 35 11 28 3d 77 a9 5b bd a2 c5 d0 bd a1 2b c0 3d
       0.041032035 -0.05362841 -0.101939455 0.093833216
000360 f5 ae 13 bd 10 45 54 bd 70 21 3e 3d 66 5d 0d 3c
       -0.036055524 -0.051823676 0.046418607 0.008628225
000370 99 a2 eb 3c 11 bd 3e bc 5a d0 80 bd b4 8c e8 3d
       0.028764056 -0.011641757 -0.0628974 0.11354962
000380 fc 02 ba bd 65 bb 3c bc 3c 5d c2 bc 15 c1 f8 bd
       -0.090826005 -0.011519288 -0.023726098 -0.121462025
000390 70 8d 77 3d e1 e2 cf bd 72 e7 dc bd a5 71 37 3d
       0.06043762 -0.101506956 -0.10786332 0.044786114
0003a0 28 7a 81 bd b6 a3 e3 3d a6 56 15 bd 8b 1a 9d bc
       -0.063221276 0.1111521 -0.036459588 -0.019177696
0003b0 fd 6f ad bd 1f fc fc 3d dc 8c b4 bc 3b 90 aa 3c
       -0.08468626 0.12352776 -0.022039823 0.020820728
0003c0 10 56 68 3c b9 bb 45 3d a7 e5 e0 3d 53 43 85 3d
       0.014180675 0.04827473 0.10981303 0.06506982
0003d0 82 63 5e 3c 18 ce 3e bd c6 b5 1b 3d 61 e8 7d 3d
       0.013573529 -0.046583265 0.03801515 0.061989192
0003e0 6c 33 a7 bc 18 ee 85 bb c2 22 5b 3d b5 85 ba bd
       -0.020410262 -0.004087221 0.053499945 -0.09107534
0003f0 60 b7 eb 3c bb 02 b2 3d 52 e1 ae bd dc f2 1b bd
       0.028773963 0.08691927 -0.0853907 -0.038073406

down2.maxpool_conv.1.double_conv.1.weight f4 [16]
000000 c5 24 84 3f 9b f0 7f 3f 0d c8 82 3f 44 06 80 3f
       1.0323721 0.9997651 1.0217301 1.0001912
000010 56 c2 80 3f e1 eb 82 3f a3 87 7e 3f ff af 7e 3f
       1.0059307 1.0228235 0.99425715 0.994873
000020 26 53 7e 3f 60 3d 80 3f ab 62 7e 3f 66 79 7f 3f
       0.99345624 1.001873 0.99369305 0.99794614
000030 80 7c 81 3f 86 8f 7c 3f 0c 1f 7c 3f fe 62 85 3f
       1.0116119 0.986565 0.98484874 1.0420835

down2.maxpool_conv.1.double_conv.1.bias f4 [16]
000000 e6 fe 04 3d d3 e5 af b9 6f c1 cc 3c b3 ed b4 3c
       0.032469653 -0.00033549833 0.02499458 0.022086
000010 db fe 99 3c d2 1d 18 3d 20 4b bc bc 67 a2 b8 bb
       0.018798282 0.037137814 -0.022985041 -0.0056345942
000020 1d 75 89 bb 21 9e 50 3b 31 70 4f 3d 93 55 8b bc
       -0.004194869 0.0031832533 0.050644103 -0.017008578
000030 c8 f7 09 3d 27 00 1e 3c 58 e5 90 ba 31 da 09 3d
       0.03368357 0.009643591 -0.0011054678 0.03365535

down2.maxpool_conv.1.double_conv.1.running_mean f4 [16]
000000 26 1b be be 5f 1a ac 3e 18 e3 ac 3c 1d 6b 36 be
       -0.37130088 0.3361387 0.02110438 -0.17814298
000010 76 8b a5 3b 1f f7 7a 3e 7d 69 8d bd ed ff 51 3e
       0.0050520254 0.24508332 -0.06904886 0.20507784
000020 7c 65 3b be 1a 21 9a 3e e3 bc 43 3e 8e 61 4a be
       -0.18300432 0.3010338 0.19115023 -0.19763777
000030 99 ed 19 be c5 c9 43 be 4c 42 83 be 8b 9b b1 be
       -0.15032043 -0.19119938 -0.25636518 -0.34688982

down2.maxpool_conv.1.double_conv.1.running_var f4 [16]
000000 41 6d c3 3f e2 28 af 3f b8 d3 9b 3e 19 aa 8a 3f
       1.5267717 1.3684351 0.30434966 1.083316
000010 b7 f9 70 3e c8 9b 44 3f 01 1c 83 3e c8 79 39 3f
       0.23532759 0.76800203 0.25607303 0.7245145
000020 06 c7 de 3e c0 45 8c 3f 6c 45 c6 3e 28 96 4c 3f
       0.43511218 1.0958786 0.3872484 0.7991662
000030 50 1a 0a 3f de 21 94 3f ef 13 86 3f d1 33 09 3f
       0.539464 1.1572835 1.0474833 0.5359469

down2.maxpool_conv.1.double_conv.3.weight f4 [16, 16, 3, 3]
000000 74 57 55 bd b7 9b 9e 3d 05 40 ba 3d 37 f2 6d bd
       -0.052085355 0.07744544 0.09094242 -0.058092322
000010 da b8 81 3d 83 99 60 3d 8a 6a 18 bd d3 7b b5 3c
       0.06334086 0.0548339 -0.03721098 0.02215377
000020 32 52 8f 3d ff 22 ad 3d 6e 45 45 3d a1 5f ac 3c
       0.069980994 0.084539406 0.048161916 0.021041693
000030 5f ec 79 3d 26 6c 6b bd 1a 6c 82 bd f2 21 c8 3d
       0.061016437 -0.057476185 -0.06368275 0.097720996
000040 60 29 0e 3d 10 26 29 bd 37 e2 fc 3b b8 2f 35 bd
       0.034707427 -0.041296065 0.0077173966 -0.04423496
000050 06 98 b1 3d a5 3b c5 bb 1b ac 74 3d 07 10 42 bd
       0.08671574 -0.006019073 0.059734445 -0.047378566
000060 35 2c f7 3c df a0 63 38 0d 3c a0 bc 61 c4 bc bc
       0.030172447 5.427084e-05 -0.019559884 -0.02304286
000070 94 b7 75 3d 99 4c cc 3d b7 fe d3 bc 57 53 88 bd
       0.059989527 0.09975547 -0.025878293 -0.06656521
000080 89 f0 7f ba a8 24 ff 3c 55 c8 e6 bc 4f 06 22 bd
       -0.00097633206 0.031145409 -0.028171698 -0.039556798
000090 08 a3 25 3d a7 28 10 bd fc 36 a5 bc 72 84 e9 bc
       0.04043868 -0.03519502 -0.02016782 -0.028505538
0000a0 00 f7 83 bd bd 8b 32 bd b2 54 2e 3d 94 90 b8 3d
       -0.06443596 -0.043590296 0.04256124 0.09011951
0000b0 98 4e 3f 3d 40 72 a0 3b ac 50 2c 3d f3 f2 93 3d
       0.046705812 0.004896432 0.042069122 0.07224073
0000c0 72 90 9f 3d a7 fc 66 3d 97 79 48 bb ef 3b b0 3d
       0.07791223 0.05639329 -0.0030590051 0.086051814
0000d0 5d 4c 28 3d db 63 26 3d d5 33 ee bb 20 02 e7 bc
       0.04108845 0.040622573 -0.0072693625 -0.028199255
0000e0 ce 06 54 3c 9c e1 3e bc 29 55 b9 3b 95 7c 2e 3d
       0.0129410755 -0.011650469 0.005655904 0.04259928
0000f0 2e dd 82 3d 0c 4e a7 bc d9 2f 95 3c 42 b0 ac 3d
       0.06389843 -0.020422958 0.018211292 0.08432056
000100 59 62 44 3d 3c 06 ef ba 0f 38 8c bc 98 c5 17 3d
       0.047945354 -0.0018236111 -0.017116575 0.037053674
000110 b1 56 81 3d df e3 5c 3d ca 61 32 bd e3 2d 42 bd
       0.06315363 0.053928252 -0.04355029 -0.047407042
000120 46 ed b0 bc 28 3b 66 3c fc 64 53 3d 53 98 38 3d
       -0.021597516 0.01405219 0.051609978 0.045067143
000130 6b 05 1e 3d a8 f5 a5 3d d2 74 80 3d 8f 3f 80 3d
       0.038579386 0.08103496 0.06272282 0.06262123
000140 f9 ac 6b bd d2 2c 3a 3d 50 30 92 3d f0 ba d6 bc
       -0.057538006 0.0454529 0.07138121 -0.026212186
000150 82 e3 c9 3d 06 c7 db 3d cf ab 7d 3d 53 d3 31 3c
       0.09857847 0.1073132 0.061931428 0.010853606
000160 a8 5f 30 3b 13 08 c1 3d c7 71 e7 bb 99 91 84 3c
       0.0026912484 0.09425368 -0.007063124 0.016182708
000170 8b 97 e5 3d 30 af 40 bd b3 a2 88 3d 63 b9 55 3d
       0.11210545 -0.04704207 0.066716574 0.05217875
000180 b2 38 53 bd 95 60 77 3b 3c 22 69 3d 73 07 3c 3c
       -0.05156774 0.0037746776 0.056917414 0.011476385
000190 8c 51 9c 3c a0 85 ff bc d9 30 97 3d af 07 85 bd
       0.019081853 -0.031191647 0.07382364 -0.06495606
0001a0 70 81 dc 3c 64 cb 19 bd 0c c2 29 bd e9 38 c4 3c
       0.02691719 -0.037547484 -0.041444823 0.023952918
0001b0 9a 82 2d 3a a0 f4 51 bd ee 29 60 bd ef 3b bd 3d
       0.00066188874 -0.051258683 -0.054727487 0.09239947
0001c0 29 e6 45 bd 7c c7 7c bd 3e 97 91 3c b4 7f e3 bb
       -0.0483152 -0.06171368 0.017772313 -0.0069427136
0001d0 17 6a 8f bd ce 1c bd 3c ed 38 9b bc 01 81 82 3d
       -0.07002657 0.023085024 -0.018948043 0.06372262
0001e0 35 91 63 bd ec 70 1c bd f0 fa 90 3d fa 39 cc 3c
       -0.055558402 -0.03819363 0.070791125 0.02492999
0001f0 6a f8 00 bd a4 8f 75 bd 04 73 87 bd c9 80 a0 3d
       -0.031486906 -0.05995144 -0.06613734 0.07837064
000200 4f 45 fe 3c 17 31 0b 3d 84 7f 88 bd 89 af 44 bd
       0.031038908 0.033982363 -0.06664947 -0.048018966
000210 de 33 b7 bb ea b7 f5 bc 8f b0 a1 bc 43 a6 ae 3d
       -0.0055909 -0.029994924 -0.01973751 0.08527806
000220 f3 36 fa bc 95 f1 7b bd c3 a8 e6 bc 20 a0 02 3d
       -0.03054378 -0.061509687 -0.028156644 0.03189099
000230 8a f2 95 bc 2a 9c 98 bc a6 e9 68 3d 87 23 c8 bb
       -0.018304128 -0.018629152 0.05686345 -0.006107751
000240 9f b0 cc bd 2f ce 35 bd eb 6b 62 3d 61 6c f9 3c
       -0.09994625 -0.044386085 0.0552787 0.030447187
000250 c6 fa e4 bd f3 ae 3e 3d c1 6e 30 bd 35 1a 15 3d
       -0.11180644 0.046553563 -0.043074373 0.036401946
000260 5c 7c 19 3d 5d eb 97 3d 83 9d 63 3b d0 8f 1c 3d
       0.037472114 0.07417939 0.0034731335 0.038223088
000270 57 03 cc 3d e6 5c 1d bd 26 2a 09 bd 98 45 12 3d
       0.099615745 -0.038418673 -0.03348746 0.0357109
000280 b9 50 8e bd 5d 8e 45 bd 83 58 bc 3d a5 0c 48 bd
       -0.069489904 -0.04823147 0.0919657 -0.048840184
000290 6a 13 13 3d 67 6b 69 ba 06 8a b1 bd 2f b7 7e 3d
       0.035907187 -0.0008904249 -0.08668904 0.062186416
0002a0 e5 d8 2b bd 53 02 a0 3c 2f ce 35 bd 26 d8 36 bc
       -0.041954894 0.019532358 -0.044386085 -0.011159932
0002b0 f6 9e ab 3b e1 7f 2f 3d ab d7 21 bd 53 0e 40 bc
       0.0052374555 0.042846564 -0.039512318 -0.011722165
0002c0 87 1d 9e 3d a3 d2 91 3d e8 7d fa bc 68 2b 4c bc
       0.07720476 0.07120254 -0.030577615 -0.012461521
0002d0 7a 51 27 bd f7 2a 50 3d 40 04 fe bc f8 c2 89 3a
       -0.040849186 0.050822224 -0.031007886 0.0010510376
0002e0 45 62 48 bd ea 20 43 bb e3 fa aa 3d 14 d5 36 3d
       -0.048921842 -0.0029774257 0.08348634 0.0446368
0002f0 e0 73 55 3d 3a b7 8e bc e1 89 91 bc eb 97 8b 3b
       0.05211246 -0.017421354 -0.017765941 0.0042600534
000300 fc 0e 44 3d 9e de c9 3c a8 be 20 bd 5b 51 37 bd
       0.047865853 0.024642285 -0.039244324 -0.04475532
000310 a0 77 61 3c 7a f1 62 3d 95 0b 5e bd d4 af 87 3d
       0.013761431 0.05540607 -0.054210264 0.066253334
000320 cf 30 7c 3d 29 20 c2 3a 2c be c9 bb 8c 34 8b 3d
       0.061569985 0.001481061 -0.0061567035 0.06797132
000330 0a 0b c0 3d ce ac fa 3b 4d f5 ff 3c 26 03 b8 ba
       0.093771055 0.0076499945 0.031244898 -0.0014039024
000340 f7 b2 4b 3b 51 5b 9a bd 6b d8 f2 39 17 6b c3 3d
       0.0031082013 -0.075369485 0.0004631908 0.0954191
000350 bd 81 ae bc a2 5d bc 39 3e ff bf 3d 20 7a ae 3d
       -0.021302098 0.00035927916 0.093748555 0.08519387
000360 0f 59 24 bb a9 c1 55 bb bb b3 1a bd 96 8f 9a 3d
       -0.0025077497 -0.003261665 -0.03776906 0.07546918
000370 9a bd 5d bd e4 04 f0 bc 36 d6 a6 3c 48 a6 a7 3d
       -0.054135896 -0.029299207 0.020365816 0.081860125
000380 79 0f 26 3b b5 c5 6e 3d b5 6b 11 3c 1a c3 86 3d
       0.0025338812 0.058294017 0.008875777 0.065801814
000390 b9 48 45 bd ed 54 a6 3d 50 ad 8d 3d b6 47 10 3d
       -0.048165057 0.08121667 0.06917822 0.03522464
0003a0 a6 4e ed 3c b4 30 b0 3d 3f 3c ee 3c 43 32 7d 3c
       0.028968167 0.086030394 0.029081462 0.015453878
0003b0 ad 7a 0a 3d 70 ff fd 3c cb b9 d0 3c 77 09 9e bc
       0.0338084 0.031005591 0.025479218 -0.019291623
0003c0 a1 83 9c 3d cb 8a ba 3d 8c 27 0d bd 49 01 d0 3b
       0.07642294 0.09108504 -0.034461543 0.0063478095
0003d0 d9 13 3d bd 7a 02 8a 3d 42 6d 80 bc 70 7a b4 bd
       -0.046161506 0.067387536 -0.015677098 -0.088124156
0003e0 51 33 18 3d d3 9e 19 3d b9 65 91 bd ff ee 7a bc
       0.037158314 0.037504982 -0.0709948 -0.01531577
0003f0 f9 b8 1f 3b 2e 72 eb bb cb c4 e3 bc 56 02 76 3d
       0.0024371727 -0.007185242 -0.0278038 0.06006082

down2.maxpool_conv.1.double_conv.4.weight f4 [16]
000000 30 5e 80 3f 57 9b 81 3f 41 df 79 3f d3 4f 7a 3f
       1.0028744 1.0125531 0.97606283 0.9777805
000010 a7 e0 80 3f 70 f3 74 3f d6 13 83 3f 9e 91 7f 3f
       1.0068558 0.95683956 1.0240428 0.9983157
000020 2a 65 7e 3f c4 b3 7d 3f b4 7f 7b 3f 0e 79 80 3f
       0.99373114 0.99102426 0.98241735 1.0036943
000030 ee dc 7b 3f ba a9 7d 3f f9 36 7c 3f 87 e7 82 3f
       0.98383987 0.9908711 0.9852138 1.0226907

down2.maxpool_conv.1.double_conv.4.bias f4 [16]
000000 6c c2 d8 bc aa 16 4f 3c 01 8a 7f 3d 83 f2 2f 3d
       -0.026459895 0.012639681 0.06238747 0.042955887
000010 cd 51 fe 3c c7 77 c0 bc 6a b7 74 3d bf 74 32 3d
       0.031044865 -0.023494614 0.05974523 0.04356837
000020 17 5f 3a 3d 6f fb c1 3b 4b 8f d5 bb e4 58 9c bb
       0.04550084 0.005919866 -0.006517326 -0.004771339
000030 bc e6 f5 3b fa 0b a5 3b f8 f1 32 3b 2a 40 d5 3c
       0.0075043123 0.005036828 0.002730487 0.026031572

down2.maxpool_conv.1.double_conv.4.running_mean f4 [16]
000000 09 bd d3 3e d5 bb 82 3e 4e d0 5f 3d a7 9c ef bc
       0.4135516 0.2553393 0.054642014 -0.029249502
000010 fd 68 e5 bd 7a 1d 9a 3d 9d 23 00 be 7a da 0e bd
       -0.112016656 0.075251535 -0.12513585 -0.034876324
000020 33 0f 3d bd a0 9c 31 be 96 3e 6c bd 6d ab 16 bf
       -0.046157073 -0.17344904 -0.057676874 -0.58855325
000030 e8 f2 98 be 89 2f 59 be 94 61 47 be bf b5 e3 be
       -0.29872823 -0.2120954 -0.19470817 -0.444746

down2.maxpool_conv.1.double_conv.4.running_var f4 [16]
000000 07 f6 ab 3f 9e bf 35 3f 44 16 06 3f 23 5b cb 3d
       1.3434457 0.7099551 0.52377725 0.09929492
000010 81 20 0b 3f 64 9d ca 3d 82 d6 b7 3e ba a4 72 3e
       0.5434647 0.09893301 0.35905844 0.2369565
000020 42 a6 1f 3e e3 1b 31 3f 95 31 68 3e c9 1c e2 3d
       0.15590766 0.69183177 0.22675164 0.110406466
000030 67 1c e1 3f 35 cf 1b 3f d1 ae e4 3e 13 a1 83 3f
       1.7586793 0.6086305 0.44664624 1.0283531

down3.maxpool_conv.1.double_conv.0.weight f4 [32, 16, 3, 3]
000000 2d db 8c 3b 43 14 88 3d 75 45 0a 3c f8 d3 48 bd
       0.0042985887 0.066444896 0.008439411 -0.049030274
000010 28 dd 6c bd 48 8c b0 bd 6f 3c e1 bc 44 51 ea bc
       -0.0578281 -0.086205065 -0.027494637 -0.028603204
000020 0d 6a 73 bc c3 14 90 3d c7 c5 b9 bd dc 62 be bc
       -0.014856827 0.0703521 -0.09070926 -0.0232405
000030 8b b3 a7 3c 65 2e ee bc 2f a7 84 bd d9 d0 94 3a
       0.020471355 -0.029074857 -0.064772 0.0011353745
000040 34 e1 91 bd 1a 99 89 3d 0f 7d 16 3d c5 90 b3 3a
       -0.07123032 0.06718655 0.03674036 0.0013699761
000050 c9 99 9b 3d fb 15 aa bd 05 59 3a 3d 3a 36 be bd
       0.075976916 -0.08304974 0.045495052 -0.09287687
000060 3e 43 0f 3c f8 b7 87 3d fc f9 94 bd cd 6b 83 3d
       0.008744059 0.06626886 -0.07274243 0.06417046
000070 28 ce bb 3c 5f d2 86 bd e5 b5 d6 3b de d2 95 bc
       0.022925451 -0.06583094 0.0065524452 -0.018289026
000080 c7 bc c8 bd 54 ff 91 3d a5 87 39 bd 34 bb 87 bd
       -0.098016314 0.07128778 -0.045295376 -0.06627503
000090 b0 89 69 3d 46 19 37 3a 6d 96 99 bc 94 c7 05 bc
       0.057016075 0.0006984662 -0.018748486 -0.008165259
0000a0 23 f8 81 bd e8 f9 da bc 78 84 31 bd 5c 02 1e bd
       -0.063461564 -0.026730493 -0.043339223 -0.03857647
0000b0 35 47 5c bd 6b 19 3b 3d 53 8f 50 bd b8 4f 0d 3d
       -0.053778846 0.045678537 -0.050917935 0.034499854
0000c0 94 a2 4e bd de ac 3d bd 68 18 87 3d 86 c4 d2 bc
       -0.050448015 -0.046307437 0.06596452 -0.025728475
0000d0 6a bb 84 bd c9 98 eb bc ff 44 83 3c fb 92 5a bb
       -0.06481059 -0.028759377 0.01602411 -0.0033351767
0000e0 ff 28 1b 3d 29 60 5d bd 17 04 95 bd e5 2f 78 3c
       0.037880894 -0.054046784 -0.07276171 0.015148138
0000f0 f7 53 93 bd a5 c5 87 bc db 16 48 bd 4d ab dc 3c
       -0.071937494 -0.016573736 -0.04884992 0.026937151
000100 88 88 5e 3b ff 14 47 bd ab 67 ad bd 7c e6 c6 bc
       0.003395589 -0.048604008 -0.08467039 -0.024279825
000110 a2 f1 b8 bd eb 7f 48 3d 96 dd 16 bd ba 7f e6 ba
       -0.09030463 0.048950117 -0.036832415 -0.0017585673
000120 ae a8 8e 3c dd d1 c6 bb 86 be ae bd ad 4d 3b bb
       0.017414417 -0.006067498 -0.08532433 -0.0028580234
000130 53 6c 9b bd cb 24 2e bd bf 40 f6 3c 38 78 54 3d
       -0.075890206 -0.042515557 0.03006017 0.051872462
000140 b8 ac d9 3c 4f d5 a7 bd ed a1 e9 3b 3d f3 20 3d
       0.026571617 -0.08194982 0.0071298988 0.03929447
000150 05 ea 3c 3d ea 88 47 3d ac 78 49 3d 19 a9 0e 3d
       0.046121616 0.048714556 0.049187347 0.034829233
000160 23 09 cd bc 82 00 db b8 11 d0 96 bd 74 2b b4 bd
       -0.02502877 -0.00010442828 -0.07363904 -0.087973505
000170 11 8a a6 bb 60 0a b1 bd 08 39 2b bd 68 43 99 bc
       -0.0050823768 -0.08644557 -0.041802436 -0.0187089
000180 b7 1f f8 bc 60 f7 58 3c 5c a4 83 3d f1 f7 79 bd
       -0.03028856 0.013242573 0.064278334 -0.06102747
000190 b8 47 0e 3d ad 76 df bc 26 0a 1e 3c 1f 7d 15 3d
       0.034736365 -0.027278269 0.009645974 0.036496278
0001a0 c2 ed 36 bd 35 18 5d bd 55 b0 90 3d 07 47 78 3d
       -0.044660337 -0.053978164 0.07064883 0.060614612
0001b0 57 c7 ab 3d a0 f5 0b 3d 04 08 bf 3d 79 09 b9 3d
       0.083876304 0.034169793 0.09327701 0.0903501
0001c0 e2 53 8e bd cc d4 f9 3c da c8 87 3c cb 15 9a 3d
       -0.06949593 0.030496977 0.016575266 0.07523688
0001d0 53 bb ac bc 7a 28 2a 3d 6a e4 4b bd 09 c1 4e bd
       -0.021085417 0.041542508 -0.04977838 -0.05047706
0001e0 d5 82 62 bd 0f 25 45 bd 12 d1 83 3d ea 4c 3a 3d
       -0.055300552 -0.048131045 0.06436361 0.045483507
0001f0 28 38 90 bc 06 42 2e 3c 14 c6 96 3d 69 8e 59 3a
       -0.017604902 0.010635858 0.07361999 0.0008299114
000200 f2 b5 15 bc ec c8 5b bd d8 3a 8a 3c 63 9f 90 bc
       -0.009137617 -0.05365841 0.016873762 -0.017654127
000210 8c fc 11 bd bf 5a 0a bd 81 cb 80 bd 83 4e 8f 3d
       -0.035641238 -0.03377795 -0.06288815 0.06997397
000220 73 5b e6 bc b2 5b 49 bc 5d 28 ea bc 2d 54 51 3d
       -0.028119778 -0.012289928 -0.0285837 0.051105667
000230 2e 9f 84 3d 87 60 91 3d 1f 79 67 bd 2a 10 85 3d
       0.064756736 0.07098489 -0.056511994 0.06497224
000240 f5 ed 80 3d 82 98 7e bd 0b 2f 01 3c 71 05 8f 3d
       0.06295387 -0.06215716 0.007884751 0.0698346
000250 6e be 6e bc fd 4d a4 3c 0a e0 58 3d 7b c9 89 3d
       -0.014571769 0.020056719 0.052948035 0.067278825
000260 2b 8d 83 bd e8 96 13 bd aa 30 5d bd 5e 06 7f bc
       -0.0642341 -0.036032587 -0.054001488 -0.015565483
000270 6d 58 0d bd fd fc 23 3c 60 fc a2 bc de 4f 4e bd
       -0.034508158 0.010009048 -0.019895732 -0.050369136
000280 bb 96 25 bd 70 83 a4 bb 20 33 4a bd 58 f5 84 3d
       -0.04042695 -0.0050205514 -0.049365163 0.06492108
000290 8f a9 42 bd 48 26 32 3d 10 ca 4a bd 58 b6 79 bd
       -0.047524985 0.04349354 -0.049509108 -0.060964912
0002a0 64 5d ce bd 3e 4a bc bd 70 be 95 bc cc a8 c7 bd
       -0.100764066 -0.09193848 -0.018279284 -0.09748992
0002b0 47 3e a8 3d 2a 9c 4b bd b9 ec 69 bd 8a fd ff bc
       0.082150035 -0.049709477 -0.057110522 -0.031248827
0002c0 87 73 5a 3d 6d 95 00 bd 55 cd c0 bd ef cd 4b bc
       0.05333283 -0.031392504 -0.09414164 -0.012439235
0002d0 a5 77 a3 bc b8 4d 19 bb 87 0f 08 bd 9a 7a ab bc
       -0.019954512 -0.0023392271 -0.033217933 -0.020932484
0002e0 2c a8 57 bc 7e b1 6d bd c6 b4 83 bd 8e 79 2f 3b
       -0.013162654 -0.058030598 -0.06430964 0.0026775333
0002f0 bd 1f ee bc 4c cf 16 bd 41 67 25 3d 4a de 09 3c
       -0.029067868 -0.036818787 0.040381674 0.008414814
000300 d0 0b 4c bd 7e ea 5e 3d 77 98 04 3d 2e a8 ca bc
       -0.049815953 0.054422848 0.032371964 -0.024738397
000310 38 f5 60 bc c8 60 cf bc f9 08 1b bd b1 bb 0c 3c
       -0.01373034 -0.025314704 -0.037850354 0.008589671
000320 bc 3e 85 3c 08 23 97 bd e0 43 93 bd 89 9d b4 bc
       0.016265266 -0.073797286 -0.071906805 -0.022047775
000330 00 85 a3 3c 1f 28 7a bd 1e a0 c5 bd f9 53 6f 3d
       0.01996088 -0.06107342 -0.096496806 0.058429692
000340 8a af 63 bd 9b 4e 23 3d 66 8c cb bd 41 25 43 bd
       -0.05558733 0.039869886 -0.09938888 -0.04764295
000350 fb 6d 0d 3d 5e 92 0e 3d 74 5d df 3c 23 2a 08 3d
       0.034528714 0.034807555 0.027266242 0.03324331
000360 2a 16 fe 3c da d5 ab bd 3a 91 5b bd 2a 37 97 3b
       0.031016428 -0.08390398 -0.053605296 0.0046147304
000370 bd 3d ad bc 0c c9 84 bc 5d 61 72 3c d1 4d f0 3c
       -0.021147603 -0.016209148 0.014793721 0.02933398
000380 6c 2e dd bd 73 e9 08 bd 38 9c 48 bd 54 99 36 bc
       -0.1079987 -0.03342576 -0.048977107 -0.011144955
000390 9e da ee bd 76 7a 10 bc 0d ad 11 bd e8 06 dc 3b
       -0.11662792 -0.008818259 -0.035565425 0.0067146905
0003a0 b4 b3 f0 bb 78 c1 60 3d 14 fd 7b bd 51 10 17 3d
       -0.007345641 0.054872006 -0.06152065 0.036880795
0003b0 3a 41 a5 bc 5b 1b 9a 3d b8 b4 a0 bd 3a 46 83 3d
       -0.020172704 0.07524749 -0.07846969 0.06409879
0003c0 ac ec 30 bc c6 9e 86 bd 5c 8f 2b 3d 71 95 42 bc
       -0.0107986145 -0.065732524 0.041884765 -0.01187645
0003d0 6e fa 69 3c 4a 1c ca 3c 87 38 f1 3b 87 8d ab 3d
       0.0142808985 0.024671692 0.007361475 0.083766036
0003e0 c3 66 9f 3d f6 7e 25 bd 02 c7 98 bd 94 b6 38 3d
       0.07783272 -0.040404283 -0.07459833 0.045095995
0003f0 0f 49 33 3c d7 11 ab bc a2 bd 11 3d 8d 3f 17 bd
       0.0109427115 -0.02088253 0.03558124 -0.03692584

down3.maxpool_conv.1.double_conv.1.weight f4 [32]
000000 56 b5 7e 3f 0f 67 7f 3f 94 fe 7a 3f e9 c9 7d 3f
       0.99495447 0.9976663 0.98044705 0.99136215
000010 db 5e 83 3f 83 ce 80 3f c0 a8 7b 3f 8f 0c 81 3f
       1.0263323 1.0063022 0.9830437 1.0081958
000020 62 63 7b 3f 79 4b 7c 3f e3 88 7e 3f 94 25 82 3f
       0.9819852 0.9855266 0.9942762 1.0167718
000030 3c 18 82 3f 4e d5 80 3f de 58 80 3f 0c b3 7e 3f
       1.0163646 1.0065095 1.002712 0.99491954
000040 e1 93 7c 3f b2 2d 7d 3f 9b 71 81 3f d4 3b 82 3f
       0.98663145 0.9889785 1.0112795 1.0174508
000050 d8 dc 82 3f c2 b5 7e 3f 4f 31 7f 3f c2 21 82 3f
       1.0223646 0.9949609 0.99684614 1.0166552
000060 c6 2a 7e 3f d0 63 7a 3f 5e e6 7d 3f bc 71 80 3f
       0.9928402 0.9780855 0.9917964 1.0034709
000070 06 d4 81 3f eb 6d 7c 3f 71 91 82 3f 70 0c 80 3f
       1.014283 0.9860522 1.0200635 1.0003796

down3.maxpool_conv.1.double_conv.1.bias f4 [32]
000000 ad 14 b7 3b 3b 48 b2 bb 69 06 97 bc e0 6f 12 3d
       0.0055871815 -0.0054407394 -0.018435674 0.035751224
000010 7a e2 60 3c e4 9c ff 3c e1 b6 62 bc d1 01 61 3c
       0.013725871 0.031202741 -0.013837547 0.013733343
000020 6b 7a 10 3c 67 2a 3e 3c 73 49 44 3d 06 5a 0f 3c
       0.008818249 0.011606789 0.04792161 0.008749491
000030 48 2c 3d 3c 49 69 42 3d cb df 62 3d 60 d6 e1 3c
       0.011546202 0.04746369 0.055389207 0.027568042
000040 5d 6f 98 3c 21 a4 a1 bb 51 96 86 3b 31 8e 84 3b
       0.01860779 -0.004932896 0.0041072746 0.004045271
000050 5f 9d d4 3a 0f d3 61 3c 0a 1f 8c 39 b3 32 38 3c
       0.0016221217 0.01378323 0.00026726007 0.011242556
000060 89 13 08 bc eb 22 c7 bc 0f a9 20 bc ec 8f 50 3b
       -0.008305439 -0.024308642 -0.009805932 0.0031824065
000070 27 13 52 3c 6a 1c 45 bc 76 f0 d3 bc ea 59 c2 bc
       0.012821949 -0.0120307 -0.025871497 -0.023724515

down3.maxpool_conv.1.double_conv.1.running_mean f4 [32]
000000 24 f9 c9 be e6 c7 32 bf 3d 8a 3d bf 93 68 87 3e
       -0.39447892 -0.6983627 -0.7403906 0.2644697
000010 20 50 38 bf 42 25 f4 bc 3c 3d 5c bf 48 1f 4f bf
       -0.7199726 -0.029802922 -0.86030936 -0.80907106
000020 12 6c 25 3f 5c 19 35 3d 6a 2b bf 3e f4 09 2d bf
       0.6461803 0.044213638 0.3733781 -0.6759331
000030 13 9e 34 bf 12 e4 fe 3e 32 15 88 be cd 53 c2 bd
       -0.705537 0.4978338 -0.2657867 -0.0948864
000040 38 3d 33 bd 48 17 46 be 64 04 0d bf a0 df 01 bf
       -0.043759555 -0.19344819 -0.55084825 -0.5073185
000050 89 12 f2 3e 61 a5 e5 be 01 18 9c be 9c b7 24 bf
       0.47279766 -0.44852737 -0.30487064 -0.64342666
000060 4f bc 1a bf fb fd 1b bf f6 f1 6a bf 5d 90 60 bf
       -0.60443586 -0.6093442 -0.91775453 -0.8772028
000070 b0 f9 50 bf d3 70 ab be 52 8b b3 3e 84 a0 c5 3d
       -0.8163099 -0.33484516 0.3506723 0.096497566

down3.maxpool_conv.1.double_conv.1.running_var f4 [32]
000000 30 00 ae 3f f6 2f 16 3f 97 da 2b 3f 53 f0 17 3e
       1.3593807 0.5866693 0.67130417 0.1483777
000010 94 63 9d 3e 74 79 fb 3e eb 5e d7 3f b4 02 96 3f
       0.30740035 0.491161 1.6825842 1.1719575
000020 97 e6 39 3f ce 4b d2 3d 92 94 a5 3e 10 58 c2 3e
       0.7261748 0.10268365 0.32339913 0.3795781
000030 c7 a6 49 3f 48 ac 49 3f 4d 1f 27 3f 92 a5 11 3f
       0.7877011 0.78778505 0.65282136 0.56893265
000040 60 87 9d 3e b4 ec 31 3f 21 15 36 3f d6 b3 9b 3e
       0.30767345 0.69501805 0.7112599 0.3041064
000050 86 d3 19 3f da 12 a7 3e 4d e6 9a 3f 8c f3 5b 3e
       0.60088384 0.3263157 1.2101532 0.21479625
000060 c9 7f 74 3f 43 2b ac 3f 50 ea 00 40 d3 d1 a5 3f
       0.95507485 1.3450702 2.0143013 1.2954658
000070 97 17 2d 3f e1 a7 ba 3e 2d 4d 94 3f 1c 63 0a 3f
       0.6761412 0.36456206 1.1586052 0.5405748
